Feaprotect/models/mobile_price/sc_h-talk_time-touch_screen-battery_power-four_g-three_g/ori/L1OutUB/model_1.pkl (torch, 14721 bytes, 11 tensors)

weight f4 [10, 1]
00000000: 40b9 853d fe80 793b 0031 733d 9477 8cbe
00000010: 7fd6 ddbe 3a84 e53e 8ec0 1abf f121 88be
00000020: c858 89be 68d2 5dbf
0.06529474 0.003807127 0.059372902 -0.2743498 -0.4332771 0.44827443 -0.60450065 -0.26588395
-0.26825547 -0.8664918

bias f4 [10]
00000000: 6030 a4be abe5 7e3f c47b a7be b02a 5fbe
00000010: 04e5 5e3f 199d 3b3f b6e5 f5be f8be 263f
00000020: 78e6 34bf 0fe1 1d3f
-0.32068157 0.99569196 -0.32711613 -0.21793628 0.870682 0.73286587 -0.48026818 0.65135145
-0.7066417 0.6167154

weight f4 [40, 10]
00000000: ab7e 7bbe 8465 7c3e c94b 763d b255 5dbe
00000010: 8c4f 533e bc2a a83c df95 503e 628b 193b
00000020: ff15 24bd e96b 1abe 78a2 5c3e bb18 4c3e
00000030: 5a75 43bd daf2 20be fe8f de3c 4873 64bd
00000040: 38ae e63d 0958 873e ff7d 073e f7f6 293c
00000050: a116 313e 72b1 9fbe cf27 b53d d4bf f7bd
00000060: 8109 aebd d920 7abe 2331 453e 6040 aa3d
00000070: 3377 7dbe 61a7 743e 98d2 00be f232 b6bd
00000080: 10cc 7e3e a148 55be 34d7 743e bbbf e23d
00000090: 1203 a23d a0cc 3bbe ed49 d63b 12ae 19be
000000a0: 7c0c cdbd 2798 8fbd 3e30 39be 3796 46be
000000b0: 0007 523e 0000 713e fc00 7f3e 45b5 483e
000000c0: 17a4 373e f703 a7bb f82c 933e d3a7 44be
000000d0: 9586 153c 42f5 cbbd 933d 623e 384a cf3d
000000e0: df8b 3cbd 24e8 043e cc38 6abe fcb2 8ebe
000000f0: b069 9bbe f8b6 a0be 8193 d83c de99 36be
00000100: 4eae 08bd be0c e5bd b6c3 8f3e 6ea5 8a3e
00000110: ae5a 11bd 06c8 1c3e b0b3 c6bc 3189 583e
00000120: 0928 8fbe 63ab 3f3e 0187 bebd bef8 3cbe
00000130: e204 013e da94 2d3e 4927 40be d923 793e
00000140: e1bd 1dbe 8678 523e e1e3 1d3d 619d 23be
00000150: d252 91be a8a1 033e 4fb4 5d3e 339e 353e
00000160: 31c7 833e df1b 16be 4633 223e 936d 493d
00000170: 05a7 a13e babc 1e3c 4589 28bd 12a3 213d
00000180: 4379 e5bd 142c 263e e460 1d3e ea14 93be
00000190: c83b 8dbe 91e0 79be 6092 73be 1917 323e
000001a0: f6fb 1f3e f21e 503e 4238 90b9 5615 c4bd
000001b0: e2ff d73d b4ed 52be 4809 b63d efc8 8cbe
000001c0: d589 aa3d 9466 c0be 71a2 503d ac45 613e
000001d0: 4c51 293e 8d96 bfbd 671e 8d3e e0f9 703e
000001e0: bed9 683e 228b 2bbe a703 47bd b5c5 3ebd
000001f0: c196 6c3e 2c0d 62bd 3c7b 793d 4481 9ebc
00000200: 8352 c73d 508d 113d c782 debd 4749 0cbb
00000210: e6f2 37be 4c05 8b3e d42e f1bd 290a 5bbd
00000220: c70f 80be 0665 1cbe 256f 2cbe 6bf4 0e3e
00000230: 483f 793e 780d 913d ca4a 98be 3efc 923e
00000240: 7d87 743e 1073 393e f9fc 28bb 3308 903e
00000250: 828a 933e 18ec 543e 361c 8fbe bafa 5e3e
00000260: 1d25 673e 75e3 edbd c214 6a3e 481f f4bd
00000270: 0461 99bd eef1 a13d fbab 033d 640e 37bc
00000280: 21f4 483d fcf8 a0be a7c8 77be 2afc 79be
00000290: da63 bebd e82c 3abe 6afb 813d 1a48 e6bc
000002a0: 5b3d 3cbd e01e 493e cb45 d2bd 5b1a 66be
000002b0: bc6a 8b3e 267c 41be 19ae 5c3e a9df 473e
000002c0: 3886 9fba c41e 663e d23a 213e d225 783e
000002d0: a671 c2bd ed30 81be a6ff a03e f5ef 2abe
000002e0: e45c a93c 4777 eabc f20b 6d3d c6b6 0fbe
000002f0: 8dd2 4d3e ce47 8abe 4a29 8ebd 647c 533e
00000300: eef6 87be 2517 9d3e c806 6e3e e88e 9f3c
00000310: e601 44be af5a f83d d574 88bd 2486 75bd
00000320: ab18 68bc 2536 8fbe adbf 013e 6eef 513e
00000330: ce1c 2d3d 9da8 613e 151e 24be 1a5c 81be
00000340: f0b5 cfbd 4199 5bbe 6192 6cbe d066 3a3e
00000350: f77b 203e f48c ed3d d6d8 cabd 9c56 753e
00000360: f189 a7bd 2b69 59be 2a93 a13e 6729 233e
00000370: bbfb 103e 2436 ce3d de90 2fbe c32c 303d
00000380: cf19 9b3e c339 24bd 1eb3 87bc 48dc 1cbd
00000390: 24be 3cbe 3552 68bd c286 853e 50cc 8cbe
000003a0: 06ea e4bd 394e 373e 49a3 343e 147d 603b
000003b0: 6045 1e3e e6f3 3ebe 74ae 9d3d 6626 41bd
000003c0: 067a a73d d28e 0fbe f058 2c3e 761e aabd
000003d0: e7bd 703e a314 3dbe b3bd 5f3e bbe3 37bd
000003e0: 3728 8dbd 228e 373e eb1f 2cbe ead2 ce3b
000003f0: 09e9 963e 169d 36bd e1d0 2b3e afe2 3ebe
-0.24560039 0.246481 0.060130868 -0.21614721 0.20635813 0.02052819 0.20369671 0.0023429026
-0.04006004 -0.15080227 0.21546352 0.19931309 -0.047719337 -0.1571764 0.02716827 -0.055774003
0.11263698 0.26434353 0.13231657 0.010373822 0.17293788 -0.31190068 0.088454835 -0.12097135
-0.084979065 -0.24426593 0.19257025 0.0831306 -0.24752502 0.23891975 -0.12580335 -0.08896436
0.24882531 -0.20828487 0.23910218 0.11071726 0.07910742 -0.18339777 0.0065395744 -0.15007809
-0.10012147 -0.07011443 -0.18084809 -0.1939324 0.20510483 0.23535156 0.2490272 0.19600399
0.17933689 -0.005096908 0.28745246 -0.19204645 0.009126325 -0.099588886 0.22093801 0.10121578
-0.04603183 0.1297918 -0.22873229 -0.2787093 -0.3035407 -0.31389594 0.026437523 -0.17832133
-0.033369355 -0.11184071 0.28079003 0.27079338 -0.03548687 0.15310678 -0.024255604 0.21146084
-0.27960232 0.18717723 -0.09303094 -0.18454263 0.12599519 0.16951314 -0.18764986 0.24330081
-0.15404464 0.20553789 0.0385474 -0.15978004 -0.283835 0.12854636 0.21650814 0.1773613
0.25737908 -0.1465907 0.15839872 0.049176764 0.31572738 0.009688551 -0.041146535 0.039462157
-0.112047695 0.16227752 0.15368992 -0.28726894 -0.27584672 -0.24402072 -0.23786306 0.17391624
0.15623459 0.20324305 -0.00027507736 -0.09574382 0.10546853 -0.20598489 0.08888489 -0.2749705
0.083270706 -0.3757826 0.050936166 0.21999234 0.16534919 -0.09354887 0.27562258 0.2353282
0.22739312 -0.16752294 -0.048587468 -0.046575267 0.23104383 -0.055188343 0.06090854 -0.019348748
0.09732535 0.035535157 -0.108647875 -0.0021405981 -0.17963752 0.2715248 -0.1177651 -0.053476486
-0.25012037 -0.15272912 -0.16839273 0.13960426 0.24340546 0.07082647 -0.2974456 0.2870807
0.2387981 0.18110299 -0.002578555 0.28131256 0.2881661 0.20793188 -0.2795121 0.21775332
0.22572751 -0.116156496 0.22859481 -0.11920029 -0.074892074 0.079074726 0.032146435 -0.011172865
0.049060944 -0.3143996 -0.24197637 -0.24412599 -0.09296389 -0.18181193 0.063467816 -0.028110553
-0.04595695 0.19640684 -0.10267218 -0.22470991 0.2722987 -0.18895015 0.21550788 0.19518913
-0.0012170738 0.22472674 0.15745094 0.24233177 -0.09494333 -0.2523264 0.31445044 -0.16693099
0.020674177 -0.028621329 0.05787272 -0.14034566 0.2009985 -0.27007908 -0.06941469 0.2065292
-0.2655558 0.3068172 0.23244774 0.019477323 -0.19141349 0.121266715 -0.06662909 -0.05994238
-0.014166038 -0.27970996 0.12670775 0.20501491 0.0422638 0.22036977 -0.160271 -0.2526558
-0.10142124 -0.2144518 -0.23102714 0.18203282 0.15672289 0.1159915 -0.099046394 0.2395882
-0.08180607 -0.21231525 0.3155759 0.15933762 0.14158528 0.1006892 -0.17145106 0.043011438
0.30293128 -0.04009415 -0.016564902 -0.038296014 -0.18431908 -0.056719024 0.26079375 -0.27499628
-0.11177449 0.17900933 0.17640413 0.003425424 0.15456152 -0.18647727 0.0769929 -0.04715576
0.08177571 -0.14019325 0.16830802 -0.08306591 0.23509942 -0.18464904 0.21849708 -0.044894915
-0.06892436 0.17925313 -0.1680905 0.006311764 0.29474667 -0.044583403 0.167789 -0.1864116

bias f4 [40]
00000000: f96a eb3d 90db 1cbc 151c 833e f52c 76be
00000010: 31c0 163d 8f30 9bbe 1778 17bd 88b5 463e
00000020: b5e6 a8bd 03e6 48be ebcc f13d 3827 383d
00000030: 7d3e 57be 5723 6d3d 09cf 8b3e eb25 953e
00000040: 4cf1 ff3c 19ac d2bd 01bd a53e fbbf 143d
00000050: 1873 40be 4687 1e3e 3169 95be 17c9 803e
00000060: f01b dabb 868b e83d a047 b0bc 3c85 743e
00000070: 75c8 67be 3501 473d c9e4 903e 02e9 4dbe
00000080: bef4 423e 3054 9ebe 6009 87be 0d93 8e3e
00000090: c268 233c 7210 303e 4595 2cbe f7fd a6be
0.11495013 -0.009573832 0.25607362 -0.24040587 0.03680438 -0.30310485 -0.03697976 0.19405186
-0.08247129 -0.19618993 0.11806663 0.044959277 -0.21019931 0.05789503 0.27306393 0.29130492
0.031242989 -0.10286731 0.3237076 0.0363159 -0.18793905 0.1548129 -0.29181817 0.2515342
-0.0066561624 0.11354737 -0.021518528 0.2387895 -0.22635062 0.048585135 0.2829955 -0.20108417
0.19038674 -0.30923605 -0.2637434 0.27846566 0.009973707 0.17193773 -0.16853817 -0.32615635

weight f4 [20, 40]
00000000: dce4 22be bae4 c1bc ab14 9f3d 45d0 a23d
00000010: 07e7 883d 212b b83c bf31 1b3e c959 f43c
00000020: 8421 e83d 57e5 62bc 4a9d 5d3d d313 96bb
00000030: cb15 f0bd a1f7 cbbd cfb4 0fbe a8cf 32bd
00000040: da78 f5bd 2f6e b53d 703f 92bb e7b7 21bd
00000050: 1e44 213c c81c 073d 66e0 0d3e 6963 f3bd
00000060: 58a4 88bc 4b14 0c3e 3466 6f3d 44eb 1fbd
00000070: b4bb 9fbd be90 92bb a296 cc3d a85d 4c3a
00000080: 9a4d 93bd 0cdb 9ebd cb61 40bd bd37 1c3c
00000090: 5e90 bb3d ae30 fc3c 88f4 b5bd 2dae 4c3d
000000a0: bf6a 223c 3e08 ec3d 3ee1 eebd 493d 1cbe
000000b0: d295 e6bc 16e4 d33d 6c3a c8bd 0747 08bd
000000c0: f0a9 7ebd 4773 d7bc 399e 96bd b7c6 9bbd
000000d0: b824 503d ede2 083e f907 2a3e d25b d63c
000000e0: 2ff9 81b9 08a1 89bd 78ba 003d 95b8 193e
000000f0: f888 a03d 6876 123e 1471 413e 9a3d 8cbd
00000100: 565c 8c3c 72e5 8ebd 4576 95bd b118 27ba
00000110: 504b b9bd 2a78 efbd 441c edbd bc68 6fbd
00000120: 3921 ea3d 9677 973d 4734 5d3c 69ca e3bc
00000130: d9df f2bd de0a c43c 2f38 8cbd 5c89 c33d
00000140: 962e 9c3d fad0 453d 21e4 c5bd 3677 173e
00000150: 6b20 bcbc 547d e73d 2c7f 1bbc 2d31 0c3e
00000160: 341b 1f3e de79 a53d 56d3 af3c 0a33 e4bc
00000170: 4c89 083e 5a28 06be e89d bc3d a4f7 323a
00000180: 18c2 21bc 3d3b 12be 6633 a7bd d319 1a3e
00000190: 0e4a 5e3d e729 8e3d 0479 97bd 829d 0c3e
000001a0: ce26 f3bd f284 90bd dc64 613d 48a5 c7bd
000001b0: b26e 8abd a25f 303c 16ef cfbd f12d aa3d
000001c0: 4e45 d0bd 628d d23d a6db fabc 2bde 043e
000001d0: 6b98 a5bb 0287 5fbd 800b 993d ba41 d33d
000001e0: e944 2a3e 2929 453c 87a1 843d ca85 36bd
000001f0: d7fa 87bd cac8 563a e0ac eabd 6ce7 d33d
00000200: fbae afbc 18d7 24be 49bd e0bd 0fbf afbd
00000210: 905d f5bd 2dc8 75bd 92b3 42bd 1ee5 403b
00000220: cd10 08be e751 e83d 08ba 643c 0787 f33d
00000230: 013e 053e 1e8b a9bd 5bd4 a9bd 3e3e d2bd
00000240: 60e0 bfbd fa5b 4d3d b9c1 603c e722 113d
00000250: fffe d1bd 9ec1 85bd 5360 a0bd 3b0f d43d
00000260: ee79 673c 5c2f c23d 2f38 dd3d ab28 cb3d
00000270: aabd 06be ef5d af3d d020 ab3d e847 07be
00000280: 264b d3bd bbd0 b83d 8625 fd3d 7bc5 b63d
00000290: 53a1 dd3d c44b 653d 9c6a 35be da5a 0c3e
000002a0: 5700 e5bc 9527 2dbe 3d6e f43d c9a2 f03c
000002b0: aa66 043e 4969 353c 151a fcbb 0e01 653d
000002c0: 68a0 7dbd 0fe9 dbbd 1952 b7bc 0a40 9a3d
000002d0: 8466 bfba 0854 5a3c adb7 a53d 7778 1ebe
000002e0: 864b a13d 93f9 15be 82f9 24bc 0fde c5bc
000002f0: 5c29 4f3d bded 9abc 78dd 333d a679 543d
00000300: 4144 c53d 7795 c0bd 4d4f 81bc 9f9c f03c
00000310: 8209 b7bd 84cd 943d 5dcf fabd 8b35 453d
00000320: 6c92 f63d 6289 043c 4e65 77bc e95e e33c
00000330: c0e3 0bbe ec9d b03d 2140 07be e649 cebd
00000340: 85d3 533d 8bc0 603c a74a b1bd e949 413c
00000350: 2f39 da3c a717 0b3d 78c4 7abc 597b 77bc
00000360: 23c7 c8bc a7cb e53d 818d fcbd 08bd 5d3c
00000370: 78f1 103e f306 fc3d 55ae 173c 2fad 70bd
00000380: 7c96 123e ca77 c83d 799b 443d 5708 673b
00000390: b5ff a5bd ff92 7dbd 46b4 9f3c 210c b03c
000003a0: dc2a dd3d e166 f73d feaa fb3b bf75 82bd
000003b0: 0f25 94b9 7fa0 8a3d da6f 963d 5cbb fdbc
000003c0: 244c ef3d 30c3 143e d2f6 d8bd bf3a fb3d
000003d0: 92d1 a63d 6325 b73d daaf ed3c 193c 2d3d
000003e0: 7477 89bc b973 f23d 7540 3f3d 245c a5bc
000003f0: c1cc 2ebd 6327 9fbd effe bcbc b64f 17be
-0.15907615 -0.023668636 0.07767614 0.079498805 0.0668469 0.022481503 0.15155695 0.02982797
0.113345176 -0.013848624 0.05410508 -0.00458 -0.11722907 -0.09959341 -0.14033817 -0.043655068
-0.11985941 0.088589065 -0.0044631287 -0.039482024 0.009842901 0.032986432 0.13855132 -0.11884195
-0.016679928 0.13679616 0.058447078 -0.039042726 -0.077994734 -0.004472821 0.099896684 0.0007795938
-0.07192536 -0.077566236 -0.046968263 0.009534773 0.09158395 0.030784931 -0.08884531 0.049970794
0.009913146 0.115250096 -0.11664055 -0.15257753 -0.028147612 0.10346238 -0.09776768 -0.033270862
-0.062173784 -0.026300086 -0.07354397 -0.07606261 0.050816268 0.13367815 0.16604604 0.02616683
-0.00024790454 -0.067201674 0.03142783 0.15011819 0.07838625 0.14302981 0.18890792 -0.06847687
0.017133873 -0.06977357 -0.07297949 -0.0006374224 -0.09047568 -0.11692841 -0.11577657 -0.05844949
0.11432118 0.07395856 0.013501233 -0.027806478 -0.11859102 0.023930963 -0.06846654 0.095476836
0.07626073 0.048295 -0.09662653 0.14791569 -0.022964677 0.11303201 -0.009490769 0.13690634
0.15537721 0.08079885 0.021463078 -0.027856369 0.13333625 -0.1310133 0.09209806 0.00068270625
-0.009872936 -0.1428041 -0.081641 0.15048914 0.054269843 0.06941586 -0.07396129 0.1373196
-0.11872636 -0.07056607 0.055027828 -0.09748322 -0.06759395 0.010764988 -0.10153024 0.08309544
-0.10169469 0.10280873 -0.030622315 0.12975375 -0.00505357 -0.054572113 0.074728966 0.10315271
0.1662785 0.012033739 0.064761214 -0.044561185 -0.06639641 0.0008193372 -0.114587545 0.103468746
-0.021445742 -0.16097677 -0.10973603 -0.085813634 -0.11980736 -0.060005356 -0.047534533 0.002943344
-0.13287659 0.11343747 0.013960369 0.11890989 0.13011934 -0.082784876 -0.08292457 -0.10265778
-0.09368968 0.050136544 0.013718062 0.035433676 -0.10253715 -0.0653107 -0.078308724 0.103544675
0.014128191 0.09481689 0.10801732 0.09919866 -0.13158289 0.08562838 0.08355868 -0.13211024
-0.10317068 0.09024187 0.12360673 0.08924385 0.10821786 0.05598046 -0.1771645 0.13706532
-0.027954264 -0.1690963 0.11935089 0.029374497 0.12929788 0.011072465 -0.007693539 0.05590921
-0.061920553 -0.10737812 -0.022378014 0.07531746 -0.0014602696 0.013325699 0.08091674 -0.15475641
0.07875733 -0.14645986 -0.010069253 -0.024153737 0.050576553 -0.01891219 0.04391238 0.051873825
0.09632159 -0.09403508 -0.015784884 0.029371558 -0.0893736 0.072657615 -0.12246583 0.048146766
0.120396465 0.008089395 -0.0150998365 0.027755218 -0.13661098 0.08623871 -0.13208057 -0.10072689
0.051715393 0.013717781 -0.08656817 0.011797407 0.026638595 0.033958104 -0.015305631 -0.015105092
-0.024509018 0.11220484 -0.12331677 0.013533838 0.14154613 0.12306013 0.009257873 -0.05875891
0.14315218 0.09788473 0.047999833 0.0035252774 -0.08105413 -0.061907765 0.01949514 0.021490159
0.107991904 0.120801695 0.007680296 -0.063701145 -0.0002825637 0.067688935 0.07345553 -0.030973129
0.116844445 0.14527583 -0.10593952 0.12267064 0.08145441 0.08942678 0.029014517 0.04229364
-0.016780593 0.118384786 0.04669233 -0.020185538 -0.042675737 -0.07771184 -0.02307078 -0.14776501

bias f4 [20]
00000000: 1101 5d3d d476 fbbd e5b9 d6bd d34d 07be
00000010: 9d5e cbbd 0d11 f63d 382b 04be 4948 81bd
00000020: 4f49 ca3d f184 2dbd 2ce3 5cbd d006 8e3d
00000030: c79a ffbc e262 bcbd 9d48 e13d f1cb 3a3c
00000040: 8a07 083e b050 d53b 8f4b d93d aff8 6cbd
0.053956095 -0.12278524 -0.10484675 -0.13213281 -0.099301554 0.12014971 -0.12907112 -0.063126154
0.09877264 -0.04236311 -0.053927585 0.06934893 -0.031201733 -0.09198548 0.11000178 0.0114011625
0.13284126 0.006509863 0.10610115 -0.05785435

weight f4 [20, 40]
00000000: 37bf 22bd 7c03 25bd 783b 323d 4281 1a3d
00000010: 36cd 9bbd 7759 54bc 5def 42be d31e 223c
00000020: 1643 f838 b645 a4bd 7164 c2bd a464 1f3e
00000030: b932 abbd 3b2b 553d 3001 90bb 91eb 86bc
00000040: c23f 39be 519b 903a 64a2 073e 84dd dabd
00000050: 22d2 46bc f4d2 d4bd 2c14 b63d 5cec 15be
00000060: 01e3 3a3d bdf2 ad3d f5a3 22be 4116 39bb
00000070: 8d61 303c 9ad0 873c 3ab6 9f3d 1555 3cbe
00000080: 757b 4cbd 2bab 09bc 3851 843d 0bed ed3d
00000090: bfb8 003d 51dd 08be fa77 673d 100b 573c
000000a0: 7b3a 003d dd3d e33d 6406 14be 66fe d73c
000000b0: 47c1 13be 4e15 d5bd 5b83 f8bd 5a73 253e
000000c0: bafa 0ebd ba0f 64bc 8df4 323d 7eea 6d3d
000000d0: 8699 ec3d b763 8cbc c8fa 1f3e 4298 a6bd
000000e0: 24b6 ce3d d3dc b9bd 5ce0 df3d e2b9 91bd
000000f0: 3575 543c 5f70 a8bd c0be 1abe 5763 6ebc
00000100: 374f ef3d 128e a63d eee2 01bd fb4c 5b3d
00000110: bbb0 b93d d8f1 103d 9658 1fbd 485d 413b
00000120: e82f 43be b3bd a23a 1f8d 823c d478 7dbc
00000130: 92d2 cdbd 4625 d23d 945d 04be dd5d 90bd
00000140: 7e28 533d 06ee c83d 289a e7bd a628 21be
00000150: 88bd fabd d043 ffbc adbb d3bd 1ee1 933d
00000160: 7b50 313d edaa 443d 352b 1ebe 62fc 42bd
00000170: e80a 6dbd 4eeb a9bc 2b2c 1fbd bb00 b4bd
00000180: bf12 74bd 3411 dc3d 58c1 07be 7bce d13d
00000190: 7b19 e53d 738b 29be 611a f43c ae82 293e
000001a0: bc8c f0bc 3a82 0bbd f6be c03d b5fc 8dbd
000001b0: 95b3 11bd 8c03 7cbd 2242 afbc 7043 8bbd
000001c0: dfd9 b4bd 2f43 a9bc 1904 ecbd 22c9 163d
000001d0: 9434 09be d792 0abe eaf1 6bbd 91f0 023c
000001e0: 928b 7a3c 441b 53bd 9d26 aabd 7367 22bc
000001f0: bc3a 0cbe 88ce b33d 8300 d3bd 13f7 e83d
00000200: 6196 ff3d a198 21be 041c 32be 0091 7dbc
00000210: a1d5 1e3e 8841 99ba f0d1 8d3d 1551 8bbc
00000220: f793 21bd a330 4bbd 7d50 f63d a3b5 b4bd
00000230: d0a4 84bd c89f 203d 5539 eabd 115f 203d
00000240: 7715 f93d c208 3e3d b30e c0bd 646c 0bbe
00000250: 8500 e93d dd82 42bb 16c8 c0bd 1ec7 95bd
00000260: 0052 d0bc 7b79 843d 7e7c 05bd b75c f1bd
00000270: 720f 2db9 bd09 79bd 5b14 193b 28a4 ddbd
00000280: d48e 093c 3171 08be b085 883d 9d80 133e
00000290: bf58 dd3d 0679 053e 3c1a 3fbc 9593 ea3d
000002a0: 3f89 8e3d 4c5e f33d e094 e0bd 1ab4 e3bc
000002b0: 3fef b9bd e1e7 a93c 1f12 a63d e1aa a63b
000002c0: 7d76 be3d 1b92 a23c f151 f43d 267d 413d
000002d0: d38a c0bc 92c1 89bc e042 03be f837 503d
000002e0: 1dd9 5a3d c071 9fbc 9964 093e 7af0 a83d
000002f0: 7aca 233e 1288 2a3e 48fa a1bd 2258 4a3b
00000300: 4273 043e 5f11 ba3c 8580 333e 713e a63b
00000310: 5ab6 483d 2e47 97bd e358 f43d f557 023c
00000320: f868 4a3d 0559 903d 0daa f9bd 5f76 dbbc
00000330: 8506 8c3c 84c9 ab3d b87b 8cbd be63 cf3d
00000340: 459c 6bbb 84cb b73d f98a 53bd 0509 d7bc
00000350: 9794 caba 3d7b 15be b21f 9cbc 2d8b c9bd
00000360: af67 fc3d c024 08be ebd2 18be 5351 1a3e
00000370: c738 963d 5725 b43c 5d1c d33d 5b38 83bc
00000380: 5cb1 0d3d cd8c cebd 58d4 223e d40e 783c
00000390: b7ec 033d 1a07 03be 6dcc a83c 6344 e33b
000003a0: a682 02be 2dfd 89bd fd7d 50bd 947f ee3d
000003b0: 5d9e 93bd 0f45 dd3d 4260 30bd fe5a c63d
000003c0: d0df d5bd d38e fc3d 1202 db3d 5143 0e3e
000003d0: cbe6 ee3c a1d4 153d f89e 213d e1ef cebd
000003e0: 7ce8 c4bd 8ef6 6cbd 5b46 fbbd 4ae4 7bbd
000003f0: 0e33 af3d 9688 1cbe dd2d 073e a60d 72bd
-0.039733138 -0.040286526 0.043513745 0.037720926 -0.076075 -0.012960783 -0.19036622 0.009895044
0.00011838057 -0.08021109 -0.09491814 0.15565735 -0.08359284 0.05204318 -0.004394673 -0.016469749
-0.18090728 0.0011032616 0.13245541 -0.10686782 -0.0121350605 -0.103917986 0.08890566 -0.14640945
0.045626644 0.08493564 -0.15882857 -0.0028242024 0.010765445 0.016578961 0.07798429 -0.18391831
-0.049922425 -0.008402626 0.06460804 0.11617478 0.031426188 -0.13365676 0.056510903 0.013125196
0.03130577 0.11095784 -0.14455563 0.026366424 -0.14429198 -0.10404454 -0.12134429 0.16157284
-0.03490708 -0.013919765 0.043690253 0.058084957 0.1155272 -0.017137391 0.15623009 -0.081345096
0.10093334 -0.09075322 0.10931465 -0.071155325 0.012967397 -0.08224558 -0.15111828 -0.014550052
0.11685031 0.081325665 -0.031710558 0.05354021 0.09066912 0.03538689 -0.03890284 0.0029505063
-0.19061244 0.0012416154 0.015936432 -0.015470702 -0.10049929 0.102610156 -0.12926322 -0.07049153
0.05155229 0.09811024 -0.113087 -0.15738162 -0.122431815 -0.031160265 -0.10338531 0.07220672
0.043289643 0.04801457 -0.1544617 -0.047603972 -0.05787173 -0.020742085 -0.03886048 -0.08789202
-0.05958819 0.10745469 -0.13257349 0.10244461 0.11186501 -0.16557102 0.029797735 0.16553757
-0.029363982 -0.03405974 0.09411423 -0.06932966 -0.035571653 -0.06152682 -0.02139384 -0.06799972
-0.08830618 -0.020661918 -0.11524219 0.03681291 -0.13398963 -0.13532577 -0.057603754 0.007991926
0.015292065 -0.051539674 -0.08308146 -0.0099123595 -0.1369428 0.08779627 -0.10302832 0.11375251
0.124798544 -0.1578088 -0.173935 -0.015476465 0.1551118 -0.0011692503 0.06924808 -0.017006436
-0.03944775 -0.04960693 0.12027071 -0.08823707 -0.06476748 0.03921488 -0.114367165 0.039153162
0.12162297 0.04639507 -0.09377804 -0.13615566 0.11377052 -0.0029680051 -0.09413163 -0.07313369
-0.025429726 0.06468483 -0.032589428 -0.11785262 -0.0001650432 -0.060800303 0.002335808 -0.10822326
0.008395869 -0.13324429 0.06666124 0.14404531 0.108079426 0.13034448 -0.01166397 0.1145393
0.06959771 0.1188322 -0.10965896 -0.02779584 -0.09078836 0.020740451 0.08108925 0.0050862883
0.092999436 0.01984506 0.119296916 0.04723849 -0.023503697 -0.016815934 -0.1281848 0.050834626
0.05342971 -0.01946342 0.13417281 0.08248992 0.15995207 0.16653469 -0.079090655 0.0030875285
0.12934592 0.022713361 0.17529495 0.0050733616 0.04900203 -0.07386623 0.11931016 0.007955541
0.049416512 0.07048229 -0.12190638 -0.026789842 0.017092953 0.083880454 -0.06859535 0.10126446
-0.0035951298 0.089743644 -0.051646207 -0.026249418 -0.001545566 -0.14597793 -0.019058082 -0.09840999
0.123244636 -0.13295269 -0.14924209 0.15070085 0.07335048 0.021990461 0.10308144 -0.016018083
0.03459297 -0.10085449 0.15901315 0.015140254 0.03220817 -0.12795678 0.02060529 0.0069356426
-0.12745151 -0.067377426 -0.0509014 0.11645427 -0.0720794 0.108041875 -0.04306055 0.09685324
-0.104430795 0.12331929 0.10693754 0.13892867 0.029162785 0.03657973 0.039458245 -0.10104347
-0.096146554 -0.05785232 -0.122692786 -0.06149701 0.0855466 -0.15286478 0.13201089 -0.059095047

bias f4 [20]
00000000: d83a eebd ba4a a5bd 58a5 473b a7b5 d63a
00000010: d099 543d 8e4f 9f3c 3e62 4e3d 4236 cabd
00000020: 9ae8 8fbc 6123 b3bd b64c c73d 2d6a db3d
00000030: aa41 aebd f1dd 253e 66a5 063e e370 b23d
00000040: 3d2d 443d 6f2e cabd d51f f4bc ff38 8ebd
-0.11632317 -0.080708936 0.0030463543 0.0016381041 0.0519045 0.019447114 0.05038666 -0.0987363
-0.017566968 -0.08746982 0.09731428 0.10713611 -0.08508618 0.16197945 0.13149032 0.08712938
0.047894705 -0.09872138 -0.029800335 -0.06944465

weight f4 [10, 20]
00000000: 4d74 9fbe 9c55 803e 7c35 843e 2d83 da3e
00000010: 4c38 d13d 5b73 033f f7a1 afbd 68e4 443b
00000020: 30c0 1b3e c2af a73e 42fd a43e c296 373e
00000030: d6e3 edbe 8ba0 9a3e 074a d2be 391c 63bc
00000040: 6f17 b9be cffe 983d 6daf f63e 8265 183f
00000050: 6af7 83be 0b49 c93d 1fc0 ee3e ab3d c1be
00000060: d1a8 8abe d540 3dbe 9cfc 01bd 2b5c 6cbe
00000070: 4791 71bd 44c9 a83e 0e33 98bd e262 2a3e
00000080: e079 18be ad0b 023e 610b 873e f5f7 f53d
00000090: d7f5 92be 0c13 d53e f778 a13e 6c01 fbbd
000000a0: bf59 b5be a655 2fbe 0c0c 01be 5afa c0bd
000000b0: 0e3d 0dbf f0eb eebd dd72 29be 7fb2 6e3e
000000c0: 87db 973e 06e8 4bbe e780 98be a4ff 93be
000000d0: 4c03 883e 5f3a 0dbf bc49 ee3d 1631 20bf
000000e0: 1242 bc3e 99ae 083d 3fbc 95be 4ab9 673b
000000f0: 9cd3 0b3f c9d4 a33e e782 73bd 6822 3dbd
00000100: f41e 1f3e 9967 e4be d65d 4b3d 7382 ae3e
00000110: 9381 05bf 3360 083f 3faa ab3e 858f bf3e
00000120: 80ad b23e b29b 3c3e 8459 d43e 9927 37be
00000130: eb3a 033b f993 f5be ba45 a23e 5438 46be
00000140: d00a 81be dff9 b6be 052e b73e 659e 173e
00000150: 3a25 aa3e 6c85 523c bec4 c63e 4038 933e
00000160: b40b bcbe e82a d8be 6b68 08bf b38d a2be
00000170: 43e7 bebc 26a4 5cbe cd81 603e a7e3 a3bc
00000180: b2df 753d 9fa9 c9be 39bc 433e 6227 a2be
00000190: 8a13 b2bd 80c8 0c3e 8582 88be 9291 84bc
000001a0: 3a75 883d 3c9a 3ebd 13a7 303e 5930 133e
000001b0: e058 0bbf 13de 8ebe eb64 9fbe 1db5 2b3d
000001c0: 2e08 533c e5a1 f03e d4cf a2be a62d a2be
000001d0: c5bd 12be 4b91 1bbd bf50 803e b727 76be
000001e0: ab8b 853e 7adf 99bd 1a87 d13e aa0b 653e
000001f0: 9035 743e 9fe7 853e ac08 8fbe 8513 32be
00000200: 4b46 803e 16ba d7be cf1c 8b3e 23cd 20be
00000210: 1e66 c03e cf86 fdbc bc5e 0fbd ad36 cf3d
00000220: 336b 14bf 6c01 f7be 4967 7dbe 1012 f23d
00000230: 79b6 1e3f aaa9 26be dfda aabe 818f 1bbc
00000240: ea80 28be 2721 ac3e 31a8 f1be ec01 23be
00000250: 25a5 17bd 0eba 11bc cc23 f93c 1eca 963e
00000260: ce45 c4be e86a c1bb e00b 013e 3f79 553d
00000270: d68d b73d be4b bb3e 3e3c 03bf 145b 133e
00000280: 3385 963c 4d25 3038 97a9 bcbe 8a07 a23c
00000290: c19f 2f3e 90e0 59be 5c4e bf3e 62a5 32be
000002a0: 9797 283e b50d c0be 697a 393d 9a76 a5bd
000002b0: e4cf 5f3e f7bf 4f3e 25ab 83be 6093 843e
000002c0: e022 193e 973c 4d3e ec01 70be b59e 95be
000002d0: 9ada 243e 4f61 d2bb e63e 513e 276c ebbd
000002e0: fa6d c03a c924 3dbe e171 8b3d 8bb5 2f3e
000002f0: bf60 653d e46d 803d 8e80 aabc aba7 433e
00000300: d00d 20be b4d8 08be 1072 953e 2a9a 653e
00000310: 3726 60be 51d3 b0bd ea4d 5e3c 2538 17bd
-0.31143418 0.25065315 0.25822055 0.42678204 0.10215816 0.51347893 -0.08575814 0.0030043367
0.15210032 0.3275128 0.3222447 0.17928603 -0.46462888 0.3020061 -0.41072103 -0.013861709
-0.3615069 0.07470476 0.48180714 0.5952989 -0.257747 0.09828385 0.46630952 -0.3774236
-0.27081922 -0.18481763 -0.031735048 -0.23082034 -0.058976438 0.32966053 -0.07431613 0.16639283
-0.14890242 0.12699766 0.2637587 0.12010185 -0.28703186 0.41616094 0.315376 -0.122561306
-0.35420033 -0.17122516 -0.12602252 -0.09422751 -0.5517129 -0.11666095 -0.16547723 0.23310278
0.29659674 -0.19912729 -0.29785845 -0.28905976 0.26565015 -0.5516719 0.116351575 -0.625749
0.36769158 0.033369634 -0.29245183 0.0035358244 0.54619765 0.3199828 -0.05945101 -0.04617539
0.15539151 -0.4461029 0.049650036 0.340839 -0.5215084 0.5327179 0.33528325 0.37414184
0.34897995 0.18418768 0.41474545 -0.17886199 0.0020024132 -0.47964457 0.31693822 -0.19357425
-0.25203562 -0.35737512 0.35777298 0.14806516 0.33231527 0.012849193 0.38821977 0.28753853
-0.3672768 -0.42220235 -0.5328433 -0.31748733 -0.023303634 -0.21546993 0.21924515 -0.020006014
0.060027786 -0.39387223 0.1911477 -0.31670672 -0.08695133 0.1374836 -0.26662078 -0.016182695
0.06662984 -0.046533808 0.17251234 0.14373912 -0.5443249 -0.27903804 -0.31131682 0.04192077
0.012880368 0.46998516 -0.31799185 -0.31675452 -0.14330204 -0.03798036 0.25061604 -0.24038588
0.2608312 -0.07513328 0.40923387 0.2236773 0.23848557 0.26153275 -0.27936304 -0.17390259
0.2505363 -0.4213416 0.27170417 -0.15703253 0.3757791 -0.03094807 -0.035002455 0.101178505
-0.57976073 -0.48243272 -0.24746431 0.118198514 0.6199718 -0.16275659 -0.3337011 -0.009494663
-0.16455427 0.33619043 -0.47198632 -0.15918702 -0.03702273 -0.008894457 0.030412577 0.29451078
-0.38334507 -0.005902637 0.12602186 0.052117582 0.089626 0.36581224 -0.512638 0.14390212
0.018374061 4.199641e-05 -0.36848137 0.019778986 0.17150785 -0.2127707 0.3736447 -0.17445901
0.16464077 -0.37510458 0.045282755 -0.08079262 0.21856648 0.20288073 -0.2571651 0.25893688
0.1495471 0.20042644 -0.23438233 -0.29222646 0.16099015 -0.0064202915 0.2043415 -0.11495238
0.0014681213 -0.18471064 0.0680883 0.17159097 0.056000467 0.0627096 -0.020813253 0.19106929
-0.15630269 -0.13363916 0.29188585 0.2242209 -0.21889578 -0.086340554 0.013568381 -0.036918778

bias f4 [10]
00000000: a126 1e3f e91c 603f 62ca 683f fb35 803f
00000010: 7fec 0b3f 7cf7 233f 28e4 653f 7a35 823f
00000020: e736 4e3f 8de2 fabd
0.61777693 0.87544113 0.9093381 1.0016474 0.5465774 0.64049506 0.89801264 1.017257
0.80552524 -0.122502424

weight f4 [1, 10]
00000000: 13bf 31bf f05b 4bbf c029 13bf 05df 33bf
00000010: 0053 50bf 5fbd ecbe c267 10bf 6a2e 34bf
00000020: aa8f 44bf 850c 25be
-0.6943218 -0.7943716 -0.5748558 -0.70262176 -0.8137665 -0.4623823 -0.5640832 -0.7038332
-0.76781714 -0.16118057
