Feaprotect/models/mobile_price/sc_h-talk_time-touch_screen-battery_power-four_g-three_g/ori/L1OutUB/model_0.pkl (torch, 14721 bytes, 11 tensors)

weight f4 [10, 1]
-0.57784265 -0.38924116 0.06299384 -0.110896885 -0.098204136 0.10570276 0.528355 0.6528731
0.8892284 -0.03272762
00000000: 7fed 13bf 9e4a c7be ea02 813d e81d e3bd
00000010: 401f c9bd b07a d83d 4642 073f b122 273f
00000020: 79a4 633f 660d 06bd

bias f4 [10]
-0.9879218 -0.17740482 0.5431225 0.081195086 -0.9306562 -0.97084403 -0.06763848 -0.47813168
0.40467414 0.4825217
00000000: 71e8 7cbf 9ca9 35be 130a 0b3f 9c49 a63d
00000010: 7c3f 6ebf 3c89 78bf 0b86 8abd adcd f4be
00000020: 7331 cf3e 160d f73e

weight f4 [40, 10]
-0.06604996 0.15661544 -0.14449593 0.09681527 -0.30845597 0.021349594 -0.13468143 0.020670556
-0.22540042 0.05081818 -0.028572623 -0.10584223 -0.17919278 -0.07217131 0.08539909 -0.021872532
0.086704925 0.06738727 0.2311832 -0.16089849 -0.061687116 -0.102517635 -0.16051371 -0.20041318
-0.22924656 0.10673433 -0.2402903 0.1476701 0.15080135 0.015069565 0.029331245 -0.07569995
0.22881946 -0.12289425 0.050045937 0.10755526 -0.07908421 0.0354618 -0.10092238 0.13900444
-0.3005596 0.13463877 0.121967435 -0.30201253 -0.30724624 0.022043603 0.0411809 0.13960907
-0.18563783 -0.115117885 0.14367026 -0.0066834656 0.061223134 0.2516244 -0.13259786 0.056705765
0.11217441 -0.04449537 0.24788456 -0.20904012 0.12884174 0.0023025451 -0.27321836 -0.04668178
0.09178532 -0.30295563 -0.14963366 0.17611149 -0.22115594 0.08674908 -0.2693621 0.15457305
-0.18357746 0.21678634 -0.17644155 -0.10913647 0.23103653 -0.020803897 0.2824848 0.18325314
0.14971557 -0.20781869 -0.29779655 -0.17735751 -0.24555007 -0.066680245 -0.15573934 -0.11277941
0.060239922 -0.081328005 0.24162768 -0.32482713 0.18140106 -0.07488812 -0.18357565 -0.018551363
-0.26813647 0.07036408 0.10656199 0.0038014704 -0.01781002 0.05852243 0.05765101 0.19396813
0.27142918 -0.28607762 -0.26100639 -0.24746136 0.18070689 0.08937906 0.057541404 -0.13989113
0.14106546 0.09241333 0.091158524 0.06188956 -0.060747206 -0.19380975 0.19560194 0.24438867
-0.083754346 0.016530367 0.02971467 0.19547923 -0.15961362 0.22370316 -0.057480875 -0.13505423
-0.22847474 -0.06919787 0.22334619 -0.060703367 0.08965629 -0.06333544 0.18525684 0.30913842
-0.036544643 0.08245073 -0.23655064 0.17528932 -0.29253206 -0.046297476 -0.037016634 0.17810208
0.11867121 -0.18912499 0.19472659 -0.13150597 0.0959469 -0.22412692 -0.41840982 -0.013507531
-0.25702578 -0.09152872 0.09304516 -0.121930026 0.10355689 -0.16573444 0.22019923 -0.0031194298
0.18421088 0.1036297 -0.012356421 -0.2227054 -0.13773492 0.19883408 0.23275317 0.18600161
-0.19502303 0.004847167 0.13015144 -0.014418006 -0.3256099 0.07536515 -0.00548914 -0.19390029
0.15755622 -0.12252201 0.12794009 -0.21753109 -0.06533185 -0.26160455 0.03672706 -0.16333754
-0.15144882 -0.21976045 -0.13605075 -0.090643615 -0.19114867 -0.05852031 0.11946526 -0.0022522165
-0.08055502 -0.048616994 -0.17861299 -0.21457635 -0.13635823 -0.032932527 -0.050635464 -0.19491223
0.10487255 -0.18828951 0.23742391 -0.28782782 -0.31036833 -0.24215308 -0.017894533 -0.13706094
0.2981114 0.24338038 0.115154065 -0.17601535 -0.038616024 -0.063351855 0.08982811 -0.23916274
0.030462045 0.03389229 0.23941946 -0.2415823 0.020495698 0.16108114 -0.03316114 0.21906991
-0.13777676 0.25330827 -0.12765877 0.006470292 -0.2935388 0.074432865 0.06918506 0.2798962
-0.11844572 0.067369655 0.24328479 -0.02537133 -0.12580928 0.059480533 -0.021280756 -0.27389416
0.006230111 0.11614833 -0.27559847 0.05714718 -0.308417 0.23273303 0.1337774 0.0408055
-0.15708986 0.13029 -0.15473971 0.16314779 0.26729393 0.09308622 -0.037702262 0.083696835
00000000: 3445 87bd cc5f 203e bef6 13be 1647 c63d
00000010: f1ed 9dbe 58e5 ae3c eee9 09be 4c55 a93c
00000020: 5ecf 66be b926 503d 2211 eabc d0c3 d8bd
00000030: 507e 37be 8dce 93bd b8e5 ae3d 062e b3bc
00000040: 5a92 b13d 5602 8a3d 4abb 6c3e 93c2 24be
00000050: a1ab 7cbd c4f4 d1bd b55d 24be 1d39 4dbe
00000060: 9cbf 6abe 8797 da3d a90e 76be d536 173e
00000070: ab6b 1a3e 56e6 763c 1448 f03c 9308 9bbd
00000080: a64f 6a3e fbaf fbbd f8fc 4c3d ef45 dc3d
00000090: e7f6 a1bd 6440 113d 65b0 cebd 2e57 0e3e
000000a0: f3e2 99be bfde 093e 10ca f93d 63a1 9abe
000000b0: 614f 9dbe c994 b43c 4ead 283d aef5 0e3e
000000c0: d817 3ebe edc2 ebbd 4c1e 133e f900 dbbb
000000d0: 1cc5 7a3d ead4 803e bcc7 07be 4e44 683d
000000e0: b2bb e53d c740 36bd 73d5 7d3e 9d0e 56be
000000f0: 17ef 033e 4ce6 163b 47e3 8bbe 6535 3fbd
00000100: f1f9 bb3d 001d 9bbe 9139 19be 9256 343e
00000110: b476 62be 80a9 b13d d4e9 89be 6648 1e3e
00000120: bbfb 3bbe 3dfd 5d3e 18ad 34be f182 dfbd
00000130: d794 6c3e ef6c aabc d9a1 903e b6a6 3b3e
00000140: 0a4f 193e 6cce 54be ca78 98be 359d 35be
00000150: 7a71 7bbe a78f 88bd 227a 1fbe e4f8 e6bd
00000160: 23be 763d 4c8f a6bd 3f6d 773e be4f a6be
00000170: 33c1 393e f15e 99bd 41fb 3bbe 07f9 97bc
00000180: 2f49 89be 0b1b 903d 2c3d da3d 1722 793b
00000190: 52e6 91bc 37b5 6f3d 7723 6c3d 959f 463e
000001a0: c4f8 8a3e c478 92be a1a2 85be 8366 7dbe
000001b0: 3a0b 393e 5e0c b73d 89b0 6b3d 9f3f 0fbe
000001c0: 7773 103e 3343 bd3d 52b1 ba3d e87f 7d3d
000001d0: 10d2 78bd 1076 46be e04b 483e 0641 7a3e
000001e0: 6687 abbd b16a 873c 2e6c f33c b52b 483e
000001f0: c171 23be 7112 653e 1171 6bbd a84b 0abe
00000200: 48f5 69be 9db7 8dbd ddb4 643e 18a4 78bd
00000210: b89d b73d 03b6 81bd f8b3 3d3e 6447 9e3e
00000220: d6af 15bd eedb a83d 553a 72be 0b7f 333e
00000230: c3c6 95be 6ca2 3dbd c19e 17bd 6460 363e
00000240: e409 f33d fba9 41be 6866 473e 80a9 06be
00000250: cf7f c43d 8781 65be d039 d6be b14e 5dbc
00000260: e298 83be 6973 bbbd 768e be3d 73b6 f9bd
00000270: a215 d43d 4ab6 29be e87b 613e 596f 4cbb
00000280: c7a1 3c3e cf3b d43d 9672 4abc e20c 64be
00000290: 620a 0dbe 299b 4b3e d956 6e3e 3577 3e3e
000002a0: 1eb4 47be fcd4 9e3b 6b46 053e 8039 6cbc
000002b0: 57b6 a6be 0b59 9a3d 3ede b3bb cc8d 46be
000002c0: 6b56 213e d2ec fabd ba02 033e 78c0 5ebe
000002d0: b4cc 85bd 08f1 85be 1d6f 163d f541 27be
000002e0: 6615 1bbe e208 61be e350 0bbe 5ca3 b9bd
000002f0: 7abc 43be feb2 6fbd 34aa f43d ec99 13bb
00000300: 08fa a4bd 9d22 47bd 53e6 36be e7b9 5bbe
00000310: 7ea1 0bbe 42e4 06bd 2267 4fbd 1297 47be
00000320: 6bc7 d63d f7ce 40be 411f 733e 2b5e 93be
00000330: 99e8 9ebe faf6 77be 8e97 92bc b459 0cbe
00000340: 0fa2 983e b538 793e e5d5 eb3d 5e3d 34be
00000350: d62b 1ebd 9ebe 81bd cdf7 b73d 14e7 74be
00000360: 8a8b f93c a4d2 0a3d 602a 753e 5a61 77be
00000370: 98e6 a73c 74f2 243e fad3 07bd dd53 603e
00000380: 5a15 0dbe 9fb1 813e fbb8 02be be04 d43b
00000390: b84a 96be 4270 983d e6b0 8d3d 8e4e 8f3e
000003a0: ab93 f2bd 1af9 893d a61f 793e 89d7 cfbc
000003b0: 26d4 00be dca1 733d fb54 aebc db3b 8cbe
000003c0: f525 cc3b 2ddf ed3d 3e1b 8dbe 2913 6a3d
000003d0: d5e8 9dbe 9151 6e3e f1fc 083e ab23 273d
000003e0: 2adc 20be be6a 053e 1674 1ebe 3710 273e
000003f0: c0da 883e fda3 be3d b06d 1abd 3f69 ab3d

bias f4 [40]
0.28148285 -0.10740614 0.27161086 0.0256555 0.25611752 0.2049364 -8.345637e-05 -0.19197878
0.26626885 0.16372186 -0.14732876 -0.11662349 -0.22158016 0.2542607 -0.034233544 0.20676173
0.25464913 0.11539561 0.071973965 -0.24491061 -0.1847885 0.25137702 0.009740404 -0.18970627
0.1709366 -0.016829502 -0.118582316 -0.094568364 -0.26694065 -0.1181261 -0.14877589 0.3213837
-0.08861436 -0.10886071 0.09026908 -0.25498176 -0.16374098 -0.006669639 0.03486939 0.086343296
00000000: 851e 903e c0f7 dbbd 9410 8b3e 7c2b d23c
00000010: d621 833e d9da 513e 4c05 afb8 1696 44be
00000020: 6454 883e b4a6 273e 5add 16be 4cd8 eebd
00000030: e9e5 62be 752e 823e 7938 0cbd 59b9 533e
00000040: 5f61 823e 8954 ec3d 1667 933d d9c9 7abe
00000050: 3239 3dbe 7db4 803e 3796 1f3c 5c42 42be
00000060: 010a 2f3e 06de 89bc 49db f2bd 0fad c1bd
00000070: 72ac 88be 19ec f1bd b558 18be 688c a43e
00000080: 727b b5bd 5df2 debd ffde b83d f88c 82be
00000090: b7ab 27be fd8c dabb 35d3 0e3d c1d4 b03d

weight f4 [20, 40]
-0.04646862 -0.018159946 0.17014593 -0.002041283 -0.086003825 -0.124366336 0.06603033 0.12218362
0.09073481 0.07932359 -0.113898516 0.02623759 0.04319491 -0.167262 0.13621049 0.039843943
0.032204553 -0.107387684 -0.03586525 0.13874975 -0.06707436 0.11775319 0.039553206 -0.046244044
0.121514104 -0.14790179 0.095704354 0.1101845 -0.113720834 0.1254231 -0.15589474 -0.10495858
0.08831504 -0.05058531 -0.040963344 0.031853296 0.07428215 -0.09992811 0.12011426 -0.11013057
-0.11895701 -0.039465398 0.09509852 -0.06999212 0.014991747 0.040266346 -0.03624628 -0.10801753
-0.078450985 -0.016262852 0.0700179 0.033650134 -0.058101125 -0.082739614 0.10947793 0.0877926
-0.033818476 0.09219292 0.08479414 -0.013814815 -0.11797674 0.011225176 0.0063827694 -0.014840854
-0.07594641 0.09017532 -0.07099559 -0.0031844056 -0.12086429 -0.02830868 0.07500223 -0.13510129
0.09874561 -0.01976984 0.026411619 0.09296242 -0.08008028 -0.1535632 0.012500869 -0.10988383
-0.046109065 0.059965692 0.07068389 -0.1426237 0.046294324 -0.085230455 0.07883245 0.10272255
0.051019993 -0.10676105 -0.059785992 0.10380272 -0.10243038 0.008686754 -0.036964983 -0.12267004
0.08891792 0.10768361 0.18400939 0.14552154 -0.07047956 0.0985399 0.07548792 -0.009958776
0.025465872 0.03256959 -0.06315017 -0.121736795 -0.031518403 0.10907432 0.15580668 -0.09283901
-0.107371934 -0.108489685 -0.075609356 -0.06800551 0.07247088 0.1244508 0.08321602 0.08274805
0.04404771 0.08362263 0.03070935 0.1074005 -0.0689272 0.008447015 0.022269541 0.104225196
0.06946636 -0.05150557 0.058210205 -0.14402835 0.09530264 0.06827953 0.08055598 -0.0026846374
0.08561586 0.016721418 0.1038668 -0.06517765 0.0929094 -0.097285464 -0.10558395 -0.01713233
0.13425703 0.15031312 -0.02592867 -0.09703092 -0.07940443 0.060758986 0.044586807 -0.091779
-0.05192763 -0.038641945 0.07079345 0.10520587 -0.05460859 0.08778328 -0.1383855 0.106970124
0.085098974 0.06573982 -0.129269 -0.046610642 0.12970586 -0.11779198 -0.14951958 -0.09087941
0.14992839 -0.15895306 0.21190132 -0.026301878 -0.14499837 -0.13768137 -0.037339278 -0.042444296
0.07302255 -0.018216603 -0.05888523 0.073266566 -0.1285965 -0.052425873 -0.1492342 -0.07783241
0.07261323 -0.13507482 0.018133854 -0.103565864 -0.13219924 0.11017328 -0.07919495 0.08666784
-0.038686402 0.06733009 0.099404484 0.15093872 0.07086202 -0.097844996 -0.024793625 0.0993236
0.045989186 0.09216437 -0.16208142 0.06557279 0.04920554 0.10757929 0.039219584 0.06073458
0.14047976 -0.05630188 -0.032980632 -0.06107348 -0.061362952 0.040049944 -0.11746023 0.07692612
-0.09622409 -0.062251545 0.06420159 -0.11857287 -0.121595584 -0.064777374 -0.11591657 0.08965216
0.110155955 0.01863755 0.03425042 -0.13950296 -0.07964314 0.12693073 0.09944432 -0.092756845
0.04615763 -0.08229391 0.026650101 -0.116903976 -0.11825739 -0.08577581 0.001330544 0.053315777
0.10162873 0.06539793 -0.05490306 -0.13500921 -0.061516758 0.05412017 -0.07902378 0.05328243
0.05722476 0.041259173 -0.043093834 -0.072455786 -0.02737124 0.10218316 0.138713 0.03727239
00000000: e155 3ebd 2bc4 94bc bc3a 2e3e 0cc7 05bb
00000010: c622 b0bd c7b3 febd e93a 873d 683b fa3d
00000020: 2cd3 b93d 6874 a23d a043 e9bd 37f0 d63c
00000030: 25ed 303d bb46 2bbe c37a 0b3e 6733 233d
00000040: ece8 033d 13ee dbbd 71e7 12bd 6a14 0e3e
00000050: 485e 89bd 9628 f13d 8b02 223d 656a 3dbd
00000060: 63dc f83d 9173 17be a500 c43d 69a8 e13d
00000070: 78e6 e8bd ea6e 003e dfa2 1fbe 86f4 d6bd
00000080: 84de b43d 8b32 4fbd 2ec9 27bd 9a78 023d
00000090: 3d21 983d 1ca7 ccbd 77fe f53d 238c e1bd
000000a0: bc9f f3bd 78a6 21bd 03c3 c23d 0758 8fbd
000000b0: f29f 753c 53ee 243d fb76 14bd 4b38 ddbd
000000c0: e9aa a0bd ac39 85bc 8b65 8f3d b9d4 093d
000000d0: 72fb 6dbd 6373 a9bd f735 e03d 9bcc b33d
000000e0: 3e85 0abd a4cf bc3d 8da8 ad3d 8957 62bc
000000f0: ca9d f1bd cde9 373c 8d26 d13b 0e27 73bc
00000100: cb89 9bbd d7ad b83d 2366 91bd 76b1 50bb
00000110: b287 f7bd 9be7 e7bc c59a 993d fe57 0abe
00000120: 233b ca3d 5cf4 a1bc 2e5d d83c 1563 be3d
00000130: 2101 a4bd ac3f 1dbe 72d0 4c3c c60a e1bd
00000140: dcdc 3cbd 969e 753d b7c2 903d f20b 12be
00000150: 1e9f 3d3d 4e8d aebd e872 a13d 3360 d23d
00000160: 57fa 503d 8aa5 dabd 28e2 74bd 8596 d43d
00000170: 05c7 d1bd e352 0e3c 9868 17bd 6e3a fbbd
00000180: 991a b63d 3989 dc3d f56c 3c3e 9903 153e
00000190: 9657 90bd 49cf c93d 6999 9a3d 222a 23bc
000001a0: ce9d d03c b167 053d e054 81bd 2451 f9bd
000001b0: 7119 01bd 5b62 df3d c98b 1f3e 6122 bebd
000001c0: d1e5 dbbd d72f debd 14d9 9abd 7946 8bbd
000001d0: 9d6b 943d 10e0 fe3d 296d aa3d cf77 a93d
000001e0: 5f6b 343d 5742 ab3d 2d92 fb3c cbf4 db3d
000001f0: b429 8dbd 5965 0a3c 9d6e b63c 0574 d53d
00000200: 6144 8e3d 81f7 52bd d36d 6e3d 2b7c 13be
00000210: 082e c33d 23d6 8b3d 89fa a43d bef0 2fbb
00000220: 5e57 af3d 5bfb 883c 1eb8 d43d dc7b 85bd
00000230: 4947 be3d 9a3d c7bd 663c d8bd 1a59 8cbc
00000240: ad7a 093e afeb 193e 5d68 d4bc 26b8 c6bd
00000250: ca9e a2bd 6ade 783d a8a0 363d a1f6 bbbd
00000260: 11b2 54bd 0447 1ebd 28fc 903d 2d76 d73d
00000270: 42ad 5fbd b8c7 b33d eeb4 0dbe 2713 db3d
00000280: 5f48 ae3d 99a2 863d 185f 04be cdea 3ebd
00000290: 9dd1 043e ec3c f1bd a91b 19be fc1e babd
000002a0: d486 193e 97c4 22be a9fc 583e 0977 d7bc
000002b0: 747a 14be 58fc 0cbe 12f1 18bd 12da 2dbd
000002c0: d98c 953d fc3a 95bc a431 71bd c80c 963d
000002d0: cdae 03be 83bc 56bd dad0 18be 9966 9fbd
000002e0: 3fb6 943d 0e51 0abe 738d 943c 571a d4bd
000002f0: 3d5f 07be 87a2 e13d f630 a2bd e97e b13d
00000300: a275 1ebd 5ce4 893d 9494 cb3d ae8f 1a3e
00000310: 1b20 913d f562 c8bd 001c cbbc 2c6a cb3d
00000320: 285f 3c3d acc0 bc3d acf8 25be 074b 863d
00000330: c08b 493d 8852 dc3d b7a4 203d d3c4 783d
00000340: edd9 0f3e cd9c 66bd b316 07bd 2f28 7abd
00000350: b857 7bbd 690b 243d fd8e f0bd 718b 9d3d
00000360: 2311 c5bd 7afb 7ebd 207c 833d 55d6 f2bd
00000370: 1b07 f9bd 00aa 84bd ab65 edbd 8d9b b73d
00000380: 7299 e13d c6ad 983c 2b4a 0c3d ddd9 0ebe
00000390: f11b a3bd 21fa 013e 77a9 cb3d 4df7 bdbd
000003a0: c80f 3d3d b689 a8bd 5051 da3c 5a6b efbd
000003b0: ee30 f2bd 3aab afbd a665 ae3a a561 5a3d
000003c0: b922 d03d 5aef 853d 08e2 60bd db3f 0abe
000003d0: fff8 7bbd 1dad 5d3d 38d7 a1bd ad3e 5a3d
000003e0: 8364 6a3d 61ff 283d 2983 30bd b363 94bd
000003f0: a739 e0bc 6845 d13d c80a 0e3e efaa 183d

bias f4 [20]
0.08428771 0.0698897 0.024607833 -0.0015115169 0.049179655 -0.094476655 0.026325589 0.06763933
-0.09543462 0.12491928 0.11313642 -0.08359108 -0.038516875 0.02837996 0.021816757 0.078391425
0.08381775 -0.11745272 0.020802421 0.039376546
00000000: 099f ac3d 5522 8f3d 5e96 c93c 171e c6ba
00000010: 9b70 493d fa7c c1bd c3a8 d73c 7d86 8a3d
00000020: 3a73 c3bd aed5 ff3d 11b4 e73d cd31 abbd
00000030: dfc3 1dbd 177d e83c 0eb9 b23c af8b a03d
00000040: a4a8 ab3d 0d8b f0bd d769 aa3c 4d49 213d

weight f4 [20, 40]
-0.0012917698 -0.09450367 -0.081594035 0.086165495 0.15590431 0.14993638 0.056829054 -0.040143434
0.14520112 -0.038414925 0.12755722 -0.04592657 0.122397676 -0.04101237 -0.05272666 -0.10655273
-0.0066839196 0.16493827 -0.06048781 0.020453624 0.050576515 0.066263884 0.10046164 -0.1567594
-0.09296269 -0.04906368 -0.11679171 -0.0832631 0.023397585 0.10675194 -0.10678268 0.023391321
0.13510132 0.04478745 -0.10736756 0.09728412 0.14922427 -0.02711007 0.05389603 -0.0016900104
-0.11694287 -0.10851766 0.06895626 0.026314408 -0.10524699 -0.063842386 -0.02379941 0.12516734
-0.017748758 0.000780576 0.24108836 0.07156573 -0.10970986 0.021935983 0.039109588 -0.15315251
0.13043016 -0.074516155 0.03181419 -0.15797468 -0.011606421 -0.12452512 0.18962939 -0.046315685
-0.11222314 -0.10949853 0.01862827 -0.053022277 0.06748208 0.0260373 -0.08654493 -0.018703805
-0.18228298 0.10488634 0.011546794 -0.12645827 0.09198652 -0.030190926 -0.10596569 -0.04932655
0.08185352 0.068659194 0.024091465 0.013875002 0.059145954 -0.028335528 0.10980769 0.07695388
0.010311417 0.045993887 0.009952623 -0.051688086 0.009433872 0.028305922 -0.09032257 0.13382028
0.0025329902 0.099962145 0.084871724 0.13081682 0.014006548 0.1522504 0.019111369 -0.045338947
0.113667615 -0.016378654 0.058730386 0.11037056 0.091247015 -0.045969103 0.071628354 -0.042252973
-0.022124907 -0.04820539 0.048805255 0.007578786 0.16213138 0.15453875 -0.0598205 0.16413668
0.029644556 0.03033415 0.007426891 -0.10899781 0.046526797 -0.09011655 0.06936644 -0.06360065
0.018624596 -0.054172315 0.17486948 0.031355105 -0.03301349 0.058930922 0.017430374 0.01902547
-0.06739079 0.11360326 -0.06626725 -0.18087463 -0.011459225 -0.108243346 0.028000757 -0.12452346
0.017917024 -0.116943635 -0.13917871 0.08989584 0.11309409 -0.13844481 -0.18064034 0.105160005
-0.03954004 0.0881326 -0.06518228 -0.10360538 0.053564675 -0.122704804 0.07470277 0.14192994
0.0014634462 -0.08103703 -0.13872512 0.09426809 -0.1342762 -0.10978318 -0.054710083 0.0937359
0.068529576 -0.008964869 -0.055281755 -0.097617134 -0.08062127 0.10513006 0.018007185 -0.12990847
-0.06739013 0.014276916 0.02380111 0.053505123 0.046628598 0.123467654 -0.120362505 0.16111036
0.09335877 -0.11134772 0.12837394 -0.08002782 -0.084684074 0.11123525 0.04484439 0.05164686
0.03859064 0.15992947 -0.14158554 -0.118933134 0.10072156 -0.06747178 0.12506467 0.08624411
-0.03389525 -0.09549888 0.18697058 -0.06784589 0.08222256 -0.05119526 0.060611315 -0.10966225
0.062883124 -0.11723212 0.06924156 0.08806512 0.15516219 0.013457347 0.10128739 0.0837646
-0.035709634 0.043840658 -0.01174322 -0.1301968 -0.049093664 -0.10535128 -0.022900179 -0.0541337
-0.10731412 -0.02500736 0.01916382 0.036499746 0.177347 0.057221685 -0.12145363 0.0911691
-0.048321627 0.13778976 -0.08381567 -0.10846404 -0.0060723387 -0.004966056 -0.14747491 0.079434484
0.021081127 -0.0013034084 0.12997752 -0.06488378 -0.073548146 -0.0815836 -0.08438746 -0.00022964063
0.0008390444 -0.13271913 0.0045598214 0.0571939 0.049829617 0.09362345 0.05003172 -0.093185894
00000000: 9a50 a9ba 248b c1bd c61a a7bd 8977 b03d
00000010: 61a5 1f3e ec88 193e 95c5 683d 716d 24bd
00000020: 9aaf 143e f858 1dbd 5c9e 023e 801d 3cbd
00000030: a2ab fa3d 96fc 27bd e9f7 57bd 5138 dabd
00000040: c804 dbbb 94e5 283e 11c2 77bd 5c8e a73c
00000050: 5229 4f3d 5cb5 873d d5be cd3d 8985 20be
00000060: 3963 bebd fff6 48bd 7e30 efbd d885 aabd
00000070: 4bac bf3c c3a0 da3d e1b0 dabd 289f bf3c
00000080: 0058 0a3e 0c73 373d 86e3 dbbd e63c c73d
00000090: 3fce 183e f015 debc 15c2 5c3d 5783 ddba
000000a0: be7f efbd 823e debd f138 8d3d 5091 d73c
000000b0: bc8b d7bd ccbf 82bd fbf6 c2bc de2b 003e
000000c0: d865 91bc 929f 4c3a dedf 763e 0e91 923d
000000d0: 90af e0bd 17b3 b33c 6031 203d 03d4 1cbe
000000e0: 7c8f 053e ed9b 98bd 994f 023d 1dc4 21be
000000f0: dc28 3ebc 0707 ffbd 352e 423e 84b5 3dbd
00000100: 3fd5 e5bd c440 e0bd 509a 983c e32d 59bd
00000110: 0b34 8a3d 2d4c d53c 783e b1bd b938 99bc
00000120: 64a8 3abe a6ce d63d c42e 3d3c 477e 01be
00000130: 6e63 bc3d f652 f7bc 8a04 d9bd a30a 4abd
00000140: d1a2 a73d 319d 8c3d 775b c53c fa53 633c
00000150: 0743 723d e91f e8bc dbe2 e03d ff99 9d3d
00000160: 38f1 283c 1664 3c3d 5410 233c e3b6 53bd
00000170: 8790 1a3c d2e1 e73c 0afb b8bd 2f08 093e
00000180: 8600 263b f4b8 cc3d 3ad1 ad3d d8f4 053e
00000190: b87b 653c 87e7 1b3e 728f 9c3c 55b5 39bd
000001a0: 91ca e83d 872c 86bc 468f 703d f609 e23d
000001b0: b7df ba3d 194a 3cbd e3b1 923d 7411 2dbd
000001c0: 4b3f b5bc 0473 45bd 05e8 473d 7757 f83b
000001d0: c505 263e 683f 1e3e 5706 75bd 7213 283e
000001e0: 24d9 f23c 537f f83c 475d f33b 3e3a dfbd
000001f0: e292 3e3d 078f b8bd fe0f 8e3d 0f41 82bd
00000200: 9c92 983c cae3 5dbd fc10 333e 366e 003d
00000210: 2739 07bd 8d61 713d 25ca 8e3c 4ddb 9b3c
00000220: 2f04 8abd d3a8 e83d 20b7 87bd 3337 39be
00000230: 79bf 3bbc b0ae ddbd d861 e53c 2806 ffbd
00000240: b9c6 923c 2580 efbd dd84 0ebe 4f1b b83d
00000250: e09d e73d 7ac4 0dbe c8f9 38be 215e d73d
00000260: bdf4 21bd dd7e b43d 4a7e 85bd 0f2f d4bd
00000270: a266 5b3d a84c fbbd c4fd 983d 1556 113e
00000280: 1bd1 bf3a bef6 a5bd f50d 0ebe a10f c13d
00000290: b37f 09be 01d6 e0bd ae17 60bd 9cf8 bf3d
000002a0: 3c59 8c3d 63e1 12bc 1f6f 62bd 7eeb c7bd
000002b0: c41c a5bd 6e4e d73d ce83 933c ba06 05be
000002c0: d603 8abd bae9 693c 8cfa c23c 3028 5b3d
000002d0: a1fd 3e3d 9cdc fc3d 9e80 f6bd 1dfa 243e
000002e0: e232 bf3d 460a e4bd 7574 033e a0e5 a3bd
000002f0: d86e adbd 4fcf e33d c0ae 373d a88b 533d
00000300: 3811 1e3d 8dc4 233e cdfb 10be 3793 f3bd
00000310: 1b47 ce3d a52e 8abd f410 003e c0a0 b03d
00000320: bfd5 0abd eb94 c3bd 3775 3f3e c9f2 8abd
00000330: 4d64 a83d 1fb2 51bd 9243 783d 9a96 e0bd
00000340: dec8 803d 6517 f0bd 85ce 8d3d 7c5b b43d
00000350: d6e2 1e3e 347c 5c3c c36f cf3d c68c ab3d
00000360: 4444 12bd 4392 333d a266 40bc 4f52 05be
00000370: 7016 49bd 69c2 d7bd 2899 bbbc 4cbb 5dbd
00000380: 81c7 dbbd 3cdc ccbc 72fd 9c3c c280 153d
00000390: 749a 353e 4961 6a3d aebc f8bd ddb6 ba3d
000003a0: e6ec 45bd c218 0d3e 8da7 abbd 6522 debd
000003b0: 78fa c6bb 4cba a2bb aa03 17be 8cae a23d
000003c0: 54b2 ac3c 21d7 aaba d418 053e cae1 84bd
000003d0: 69a0 96bd 4d15 a7bd 55d3 acbd b0cb 70b9
000003e0: 51f3 5b3a 86e7 07be 8e6a 953b 2744 6a3d
000003f0: 241a 4c3d a7bd bf3d 10ee 4c3d 3fd8 bebd

bias f4 [20]
0.031982876 -0.09234493 0.037415765 -0.06209903 -0.008938177 0.008118419 0.05751946 -0.019091252
0.0046623796 0.12558132 0.12245035 -0.06959463 -0.07049652 0.13784416 0.03904752 0.081418335
-0.04825175 0.049832355 -0.018401524 -0.121858515
00000000: 7a00 033d 571f bdbd 4641 193d 8d5b 7ebd
00000010: 6e71 12bc 1e03 053c 8699 6b3d 4265 9cbc
00000020: e0c6 983b 6498 003e 40c7 fa3d a187 8ebd
00000030: 7b60 90bd 0527 0d3e 4bf0 1f3d a8be a63d
00000040: a1a3 45bd 031d 4c3d cbbe 96bc f590 f9bd

weight f4 [10, 20]
0.38267562 0.37259835 -0.17943037 0.78396326 -0.118075415 0.22253439 -0.4443346 0.33781683
0.2635208 -0.52560395 0.43461928 0.40546885 -0.3653932 -0.17558903 0.31150106 -0.7780884
0.40865105 0.64303786 -0.20776188 0.3731777 0.045423184 0.013061177 -0.004910679 -0.033787847
-0.02033924 -0.010622736 0.019787788 -0.012097374 -0.0019026492 0.014400886 0.024937304 -0.034525968
-0.023317998 -0.029891342 0.016987149 0.011829627 -0.028545624 0.0063157273 -0.021037351 -0.017296027
-0.04262229 0.018922491 -0.004103387 -0.03168892 -0.08953311 -0.074468404 -0.10034737 0.07520808
0.00825825 -0.08132806 -0.032116864 -0.095693566 0.06443772 -0.102890335 0.048302203 -0.01664951
0.116765246 0.044978794 -0.027997483 0.051434234 0.5691613 0.085355535 -0.717191 -0.49553952
0.7434621 0.12336666 0.3256594 0.34545067 -0.6208441 -0.044504207 -0.73399377 -0.45392573
-0.4387514 0.18220006 -0.2670172 0.1773281 -0.15841858 -0.16634935 -0.37365988 -0.21186307
0.0104405815 0.019799618 -0.0016015605 -0.015529148 -0.007895663 0.015599682 0.017314168 0.037528157
0.029523589 -0.0018527866 0.031104052 0.0032532115 0.0002872629 -0.015134483 0.032264926 -0.036788594
-0.013278476 0.008066717 -0.03679157 -0.014799709 -0.6714863 0.21062437 0.21303721 -0.2600785
-0.17458788 0.14408527 -0.16998464 0.11584853 0.19972903 0.51000357 0.5984476 -0.090012595
0.44473463 -0.34226024 0.249062 0.37583444 -0.69683295 0.6886269 -0.20058641 -0.19120707
0.44850537 0.16464405 0.19637528 -0.11955999 -0.5335274 0.37045416 0.20070097 0.25949794
0.3614195 0.8055495 0.11103332 0.10491235 0.43903667 -0.29145825 0.31967357 -0.09186839
0.48303598 -0.521002 0.16835777 -0.27684206 -0.64679116 -0.7163955 0.3153294 -0.14842214
0.122139566 -0.4324256 0.12630114 -0.84575903 -0.16265911 -0.4788168 -0.48499796 -0.049774624
-0.091424786 0.5757066 -0.60343313 0.3117004 0.24894108 -0.64563596 0.5313029 0.06728677
0.106736794 -0.24654825 -0.16262071 0.45636344 -0.16067752 -0.5130832 -0.15703839 -0.2873861
-0.16392438 0.068481654 -0.30973324 0.00090050534 0.18961997 -0.19638248 -0.23871933 -0.027406028
-0.43774813 0.19513047 0.19991669 0.29935426 0.07989551 -0.0018684193 0.0035165022 0.010921995
0.045516778 0.06548905 0.042412262 0.04211164 -0.029013451 -0.103054225 0.03894789 -0.0021365674
-0.08637024 -0.013753911 -0.014895918 -0.03711228 0.08483643 -0.04041586 0.052383713 0.0072347787
00000000: 0fee c33e 36c5 be3e 98bc 37be d1b1 483f
00000010: 86d1 f1bd 0ee0 633e d37f e3be 54f6 ac3e
00000020: 33ec 863e fb8d 06bf 6b86 de3e 9d99 cf3e
00000030: d114 bbbe 9ccd 33be 117d 9f3e cd30 47bf
00000040: b63a d13e 219e 243f 88bf 54be 2611 bf3e
00000050: a90d 3a3d 8cfe 553c c3e9 a0bb 2065 0abd
00000060: 7a9e a6bc fc0a 2ebc 001a a23c 1034 46bc
00000070: 5062 f9ba b2f1 6b3c 5149 cc3c 1a6b 0dbd
00000080: 6305 bfbc b0de f4bc a228 8b3c 0dd1 413c
00000090: 83d8 e9bc 29f4 ce3b 8656 acbc 66b0 8dbc
000000a0: b694 2ebd 5703 9b3c b475 86bb 3ecc 01bd
000000b0: 235d b7bd e482 98bd ec82 cdbd b206 9a3d
000000c0: 9c4d 073c 538f a6bd f98c 03bd fdfa c3bd
000000d0: ecf7 833d 2bb8 d2bd 88d8 453d 8e64 88bc
000000e0: 9e22 ef3d af3b 383d fa5a e5bc b4ac 523d
000000f0: 8eb4 113f e2ce ae3d d499 37bf 5bb7 fdbe
00000100: 8853 3e3f a9a7 fc3d d4bc a63e e9de b03e
00000110: a4ef 1ebf 0b4a 36bd 04e7 3bbf f468 e8be
00000120: 06a4 e0be a792 3a3e 7ab6 88be 7f95 353e
00000130: 7b38 22be 7c57 2abe 5950 bfbe a2f2 58be
00000140: f90e 2b3c cf32 a23c 74eb d1ba f86d 7ebc
00000150: d05c 01bc cf95 7f3c 71d6 8d3c 20b7 193d
00000160: 74db f13c 34d9 f2ba edcd fe3c d533 553b
00000170: c69b 9639 9ff6 77bc 3a28 043d a3af 16bd
00000180: f78d 59bc 432a 043c c2b2 16bd 7b7a 72bc
00000190: 87e6 2bbf eaad 573e 6d26 5a3e 0229 85be
000001a0: 2ac7 32be 178b 133e 7410 2ebe fe41 ed3d
000001b0: c485 4c3e 988f 023f dd33 193f 8658 b8bd
000001c0: 42b4 e33e bc3c afbe 1c0a 7f3e 5f6d c03e
000001d0: a563 32bf da49 303f 8666 4dbe c9cb 43be
000001e0: 7fa2 e53e 7398 283e 9a16 493e dedb f4bd
000001f0: 4095 08bf 2bac bd3e 8e84 4d3e eadc 843e
00000200: fa0b b93e 7e38 4e3f 7065 e33d 49dc d63d
00000210: 6ac9 e03e 043a 95be 41ac a33e 7f25 bcbd
00000220: 7e50 f73e 6360 05bf fb65 2c3e 3ebe 8dbe
00000230: 1b94 25bf b265 37bf db72 a13e f9fb 17be
00000240: 4f24 fa3d e366 ddbe 1655 013e aa83 58bf
00000250: 1c90 26be 7a27 f5be a751 f8be 7ae0 4bbd
00000260: eb3c bbbd 8261 133f 987a 1abf 3297 9f3e
00000270: 69ea 7e3e 6648 25bf 7803 083f a5cd 893d
00000280: d298 da3d 2577 7cbe 0b86 26be 78a8 e93e
00000290: a688 24be 6c59 03bf acce 20be 4524 93be
000002a0: cbdb 27be 1c40 8c3d 5b95 9ebe e40f 6c3a
000002b0: bd2b 423e 7d18 49be d772 74be 9b82 e0bc
000002c0: 8620 e0be 48d0 473e f6b6 4c3e f644 993e
000002d0: 42a0 a33d c0e5 f4ba 1e75 663b 2bf2 323c
000002e0: cd6f 3a3d 1f1f 863d 7bb8 2d3d 417d 2c3d
000002f0: 9ead edbc 180e d3bd d387 1f3d a705 0cbb
00000300: e1e2 b0bd 1558 61bc 020e 74bc 0c03 18bd
00000310: b9be ad3d 1a8b 25bd 4e90 563d b911 ed3b

bias f4 [10]
0.9868703 -0.3109722 -0.012561545 1.1262292 -0.052632887 1.1339949 1.208796 1.1199774
0.88665605 -0.33532828
00000000: 88a3 7c3f c037 9fbe f0ce 4dbc 4728 903f
00000010: 9595 57bd bf26 913f d4b9 9a3f 6b5b 8f3f
00000020: e4fb 623f 26b0 abbe

weight f4 [1, 10]
-0.8155838 0.18111897 -0.039540377 -0.8834339 0.04608691 -0.8721109 -0.738028 -0.9007062
-0.67006546 0.16255471
00000000: 1aca 50bf 4077 393e 17f5 21bd b928 62bf
00000010: a1c5 3c3d a942 5fbf 67ef 3cbf ae94 66bf
00000020: 6989 2bbf be74 263e
