Feaprotect/models/mobile_price/sc_h-talk_time-touch_screen-battery_power-four_g-three_g/ori/CLUB/model_3.pkl (torch, 14721 bytes, 11 tensors)

weight f4 [10, 1]
0	0x3f4b87b2	0.7950393
1	0xbe9cc5fd	-0.30619803
2	0x3d997cf1	0.07494534
3	0xbeb50a0c	-0.35359228
4	0x3f4d6d7b	0.8024518
5	0x3f69092c	0.9102962
6	0xbeae9569	-0.34098366
7	0xbe3e1338	-0.18562019
8	0x3deac009	0.11462409
9	0xbea504cb	-0.3223022

bias f4 [10]
0	0xbf893351	-1.0718786
1	0x3ed30e4b	0.41221842
2	0x3f08959a	0.53353274
3	0xbf79b0a2	-0.97535145
4	0x3f073c77	0.5282664
5	0x3f19606e	0.59912765
6	0x3eeb1613	0.4591528
7	0xbf7a72c2	-0.97831357
8	0x3f7727cc	0.965451
9	0x3ede4727	0.4341366

weight f4 [40, 10]
0	0x3dc90c49	0.09816796
1	0xbe197c2c	-0.14988774
2	0xbdc6e303	-0.09711268
3	0xbd9ac5cc	-0.07557258
4	0x3cc05682	0.02347875
5	0xbde1f506	-0.11033063
6	0xbd24cf41	-0.040236715
7	0x3da3bd8d	0.07995138
8	0xbe2cce5a	-0.16875592
9	0x3e9c1363	0.3048354
10	0xbe41b31a	-0.18915978
11	0xbd0d856a	-0.03455106
12	0x3d147769	0.03624669
13	0xbbb96e37	-0.0056588906
14	0x3dc17e52	0.09447922
15	0xbe6a55f7	-0.22884355
16	0x3e84d924	0.25946915
17	0x3dce6203	0.10077288
18	0x3e677a87	0.22605334
19	0xbe3f6fc9	-0.18694986
20	0x3e485806	0.19564828
21	0xbdaf0ba5	-0.08547143
22	0xbe8a2c42	-0.2698689
23	0x3ccb2d10	0.02480176
24	0x3e4fe14a	0.20300785
25	0x3e9ecd32	0.31015927
26	0xbe440780	-0.19143486
27	0xbe3e876d	-0.18606348
28	0x3e8f9720	0.28044987
29	0x3e4be4ef	0.1991155
30	0x3e78ac6b	0.24284522
31	0xbdfe6907	-0.12422376
32	0x3ded27eb	0.115798794
33	0x3dfaf207	0.12253194
34	0xbe189efc	-0.14904398
35	0x3e05823f	0.13037966
36	0x3e016e9a	0.12639847
37	0x3e3b1149	0.18268313
38	0x3dd1bd7e	0.10241221
39	0xbdf269e9	-0.11836607
40	0x3e26ee3c	0.16301817
41	0x3c52e532	0.012872027
42	0xbe05ff39	-0.13085641
43	0xbdee101b	-0.116241656
44	0xbc1532cf	-0.009106352
45	0x3d097054	0.03355439
46	0xbe6adaaa	-0.22934976
47	0xbe836a31	-0.25666955
48	0xbdd82cac	-0.105553955
49	0x3e99956c	0.29996812
50	0xbe307e79	-0.17235745
51	0x3e89a251	0.2688165
52	0x3c4d9573	0.0125478385
53	0x3e127dbd	0.14305778
54	0xbe0f2e2e	-0.1398246
55	0xbe38a138	-0.1803025
56	0xbe868164	-0.26270592
57	0xbda39263	-0.079869054
58	0xbd8e82c5	-0.06958536
59	0x3e17f7fc	0.14840692
60	0xbd20e492	-0.03928048
61	0x3d8a6d6b	0.06759151
62	0x3dee7489	0.11643321
63	0x3ea0390e	0.3129353
64	0xbd96130b	-0.07327851
65	0xbdb76ac6	-0.08955912
66	0x3e12727d	0.14301486
67	0xbe9da34b	-0.30788645
68	0xbe6cdeb7	-0.23131834
69	0xbe8b2bf1	-0.27181962
70	0xbd5f8c03	-0.054576885
71	0xbe60e524	-0.2196241
72	0xbeac772a	-0.33684665
73	0x3e9fce68	0.31212163
74	0xbe24e418	-0.16102636
75	0x3e9da039	0.30786303
76	0xbe9eaad9	-0.3098972
77	0x3e32814b	0.17432134
78	0x3e379722	0.17928746
79	0x3e30fa3d	0.17282958
80	0xbe1ab5f6	-0.15108475
81	0xbc78b204	-0.015179161
82	0xbe5dddca	-0.21666637
83	0xbdc0f66f	-0.094220035
84	0xbdb6094c	-0.08888492
85	0x3cbcaf0a	0.023032684
86	0xbd177942	-0.036980875
87	0x3e92ecca	0.2869628
88	0xbe7ee835	-0.24893267
89	0xbd980f62	-0.07424809
90	0x3dcd1cf9	0.10015292
91	0x3e10ba91	0.1413367
92	0x3daeda55	0.08537737
93	0x3e86e984	0.26350033
94	0x3e536f55	0.20647939
95	0x3e68d0e4	0.22735935
96	0x3e2d69e5	0.16934927
97	0x3e1696b9	0.14705934
98	0xba002034	-0.0004887611
99	0xbeabe0de	-0.33569998
100	0xbdd8e71e	-0.10590957
101	0xbe5dc570	-0.21657348
102	0x3e805981	0.25068286
103	0xbe44e4e6	-0.19227943
104	0xbe020e21	-0.12700702
105	0x3d8774c1	0.06614066
106	0x3e0cdf07	0.13756953
107	0x3d2cb1e8	0.042161852
108	0xbe67122e	-0.22565529
109	0xbd8a7abe	-0.067616925
110	0xbe185186	-0.14874849
111	0x3df5cc1f	0.12001824
112	0xbc9916b5	-0.018687585
113	0xbe829baa	-0.25509387
114	0x3e889187	0.2667353
115	0xbe8582e5	-0.26076427
116	0x3e9f8424	0.31155503
117	0xbd135bb8	-0.03597614
118	0xbde93f9f	-0.11389088
119	0x3dd40adc	0.10353634
120	0xbcbe4b7f	-0.023229359
121	0x3e8c96a6	0.27458686
122	0x3e942ae9	0.28938988
123	0x3e2465c4	0.16054446
124	0xbe71b48e	-0.23604032
125	0xbe7a40dd	-0.24438806
126	0x3ddb1343	0.10697033
127	0xbe8e20ed	-0.27759495
128	0x3cd22996	0.025654595
129	0x3dbf115a	0.093294814
130	0x3de3e9f6	0.11128609
131	0x3e3dc5d1	0.18532492
132	0xbea57a45	-0.32319847
133	0x3e5547e8	0.20828211
134	0xbdfefdbc	-0.1245074
135	0xbdfa1890	-0.12211716
136	0x3d5ce194	0.053926066
137	0x3dc48e06	0.09597401
138	0x3d42261f	0.047399636
139	0x3e05152b	0.12996356
140	0x3e1b9047	0.15191756
141	0xbe776c2c	-0.24162358
142	0xbc6096b3	-0.0137078045
143	0xbe245a7d	-0.16050144
144	0xbe3b3810	-0.18283105
145	0xbe53a35e	-0.20667788
146	0xbe10016a	-0.1406304
147	0x3e309078	0.1724261
148	0xbe0065e5	-0.1253887
149	0xbe02bea9	-0.12768044
150	0x3dd4518a	0.10367115
151	0x3eade6e3	0.33965215
152	0x3dab854c	0.08375034
153	0x3ea1273a	0.3147524
154	0x3de3d4da	0.111245826
155	0x3e203277	0.15644251
156	0xbe62bc18	-0.22142065
157	0xbe9eabab	-0.30990347
158	0xbeabf8b2	-0.33588177
159	0xbe90e23d	-0.28297606
160	0xbe3f7a88	-0.18699086
161	0x3b564943	0.0032697476
162	0x3c878391	0.016542228
163	0x3e9ff057	0.31238052
164	0x3e86e377	0.26345417
165	0xbe5057ba	-0.20345965
166	0x3e59f456	0.21284613
167	0x3e92fde3	0.28709325
168	0x3e9785ea	0.29594356
169	0x3d80602f	0.062683456
170	0xbe57ef19	-0.21087302
171	0xbe9147e8	-0.28375173
172	0xbd35b69d	-0.044363607
173	0xbdb92bc4	-0.09041551
174	0x3b0880e6	0.0020828783
175	0xbda3ab8b	-0.079917036
176	0xbe491975	-0.19638617
177	0xbe3cb1f2	-0.18427256
178	0x3e6c4919	0.2307476
179	0x3dc101d8	0.0942418
180	0xbe13d476	-0.14436516
181	0xbdec2135	-0.11529771
182	0x3c112bbf	0.008860528
183	0x3e84cbae	0.25936645
184	0xbcbdb23f	-0.023156283
185	0x3e44cf0a	0.19219604
186	0x3d7c4ea5	0.06159844
187	0xbe0688d5	-0.13138135
188	0xbe281fa6	-0.16418323
189	0xbb4dfc86	-0.0031431033
190	0x3b8f52ae	0.00437387
191	0x3e9c5a58	0.30537677
192	0x3e870539	0.26371172
193	0xbe77d013	-0.24200468
194	0x3e4f2813	0.20230131
195	0xbe422bb9	-0.18961991
196	0xbe2e8c1f	-0.1704564
197	0x3ca39670	0.019969195
198	0xbe8fa070	-0.28052092
199	0x3a14ab74	0.00056713005
200	0xbe273f39	-0.16332711
201	0xbe291b8c	-0.16514415
202	0x3dbeba34	0.09312859
203	0xbe52388d	-0.20529385
204	0x3dd3723f	0.10324525
205	0xbe113c47	-0.1418315
206	0xbe81735a	-0.2528332
207	0xbcebc026	-0.028778147
208	0x3e3379e6	0.1752697
209	0x3e30bf1e	0.17260405
210	0x3e872d5c	0.26401794
211	0x3ddb3b49	0.10704667
212	0xbe1730ff	-0.14764784
213	0x3c7a181b	0.015264536
214	0x3c26e712	0.010186927
215	0xbe90ee7a	-0.28306943
216	0x3d526710	0.05136782
217	0x3e696c56	0.22795233
218	0x3d702679	0.05863044
219	0x3e82aad2	0.2552095
220	0xbdbfc60c	-0.09363946
221	0x3da64e38	0.08120388
222	0xbe2dbc2f	-0.16966318
223	0xbe906d94	-0.282086
224	0x3d166661	0.03671873
225	0x3e84bd1d	0.25925532
226	0x3d9e1501	0.0771885
227	0x3e1e3d5c	0.15453094
228	0xbe4943c6	-0.1965476
229	0x3e83693b	0.25666222
230	0x3dc397fb	0.09550472
231	0x3e8ab53e	0.27091402
232	0xbe7cb01d	-0.24676557
233	0xbe53b4a5	-0.20674379
234	0xbe867cd2	-0.26267105
235	0x3e6286d0	0.2212174
236	0x3e8e9381	0.27846912
237	0xbd93e834	-0.072220236
238	0x3e4ca512	0.19984844
239	0xbe98926c	-0.2979921
240	0xbe8f692a	-0.2800992
241	0x3dbe24ab	0.092843376
242	0x3e4b9e9c	0.19884723
243	0xbda3957d	-0.07987497
244	0xbe0f7c63	-0.14012294
245	0xbd907f7a	-0.07055564
246	0xbe9d6d66	-0.30747527
247	0x3e6223d6	0.22083983
248	0xbe8b4522	-0.27201182
249	0x3e1bf369	0.15229572
250	0x3e6703af	0.22559999
251	0xbe06b7fc	-0.13156122
252	0x3e8bd3a6	0.27309912
253	0x3ddb59c0	0.10710478
254	0x3df7fc1e	0.121086344
255	0xbd237569	-0.039906893

bias f4 [40]
0	0xbe908e83	-0.28233728
1	0xbe0cda9a	-0.13755265
2	0xbe333706	-0.17501459
3	0xbdb8f43a	-0.090309575
4	0xbe3cb9bd	-0.18430229
5	0x3e433f0c	0.19067019
6	0x3e060b1c	0.13090175
7	0xbdeb31ef	-0.114841335
8	0xbd14c70c	-0.03632264
9	0x3d709e17	0.058744516
10	0xbc4fa33b	-0.0126731945
11	0x3dea8e5c	0.11452934
12	0xbe4e394b	-0.20139043
13	0x3e7a20bc	0.2442655
14	0xbd372f71	-0.044722978
15	0xbe1f4372	-0.15553072
16	0xbe2204c6	-0.15822133
17	0x3dc6f6cc	0.097150415
18	0x3d49d153	0.049271893
19	0xbd715a7f	-0.058924194
20	0xbcc18369	-0.023622232
21	0xbd2429c1	-0.040078882
22	0x3e94d21f	0.2906656
23	0x3c9310e4	0.01795239
24	0x3e8aaaba	0.2708338
25	0xbd8cd349	-0.06876237
26	0xbe86d0f5	-0.26331297
27	0xbe947307	-0.2899401
28	0xbe415488	-0.18879902
29	0x3cd9d85c	0.026592426
30	0xbe9854ed	-0.29752293
31	0xbe3a47ca	-0.18191448
32	0xbdd748ff	-0.1051197
33	0x3eb3d365	0.3512222
34	0xbe44d907	-0.19223414
35	0x3cf8ee5f	0.030387102
36	0xbe6f8322	-0.23389867
37	0x3e6f8ce6	0.23393592
38	0xbe79ef71	-0.24407746
39	0xbe582e9a	-0.21111527

weight f4 [20, 40]
0	0xbc850827	-0.016239239
1	0xbd1ad95c	-0.037804946
2	0x3d1d1521	0.03835023
3	0xbbdf0917	-0.0068065035
4	0x3c1ed817	0.0096950745
5	0x3dc2adbb	0.09505793
6	0x3d895803	0.0670624
7	0xbd04d126	-0.032426022
8	0x3e24f78d	0.16110058
9	0xbcf8551b	-0.030314019
10	0xbdc8873f	-0.09791421
11	0x3d7a6386	0.06113007
12	0xbd7681e1	-0.060182456
13	0xbd4e9829	-0.05043808
14	0xbdb86046	-0.09002738
15	0x3c3326cc	0.010934543
16	0x3d1bf164	0.038072005
17	0x3dd873f2	0.1056899
18	0x3d71d7e2	0.059043773
19	0x3d9cc7f5	0.07655326
20	0xbde5b897	-0.11216848
21	0x3dfc6452	0.12323822
22	0xbe2fefa2	-0.17181256
23	0x3cd1f738	0.025630578
24	0x3d848cb4	0.064721495
25	0x3ccc21e0	0.024918497
26	0xbdae8724	-0.0852187
27	0xbc61d185	-0.0137828635
28	0x3db0409a	0.08606072
29	0xbd140ccc	-0.036145017
30	0x3dd71221	0.10501505
31	0x3d6f0087	0.058350112
32	0xbce47f04	-0.027892597
33	0xbd1de002	-0.03854371
34	0xbe152696	-0.145655
35	0x3c2878e5	0.01028273
36	0xbb98544d	-0.0046487213
37	0xbcdbfb19	-0.026853131
38	0x3d483c97	0.048885908
39	0x3cc012b7	0.023446424
40	0xbd7731a7	-0.060350087
41	0x3dbb69c3	0.09151032
42	0xbd54cbd7	-0.05195221
43	0x3e2ccf2d	0.16875906
44	0x3e28d91e	0.16489074
45	0x3e019924	0.12656075
46	0x3df2fe68	0.118649304
47	0x3d93d5cb	0.07218512
48	0xbdf8f6c5	-0.121564426
49	0xbe146c38	-0.14494407
50	0xbd50cbbd	-0.05097555
51	0x3dd26369	0.10272867
52	0xbdcb9939	-0.09941334
53	0x3d9f15ca	0.07767828
54	0x3d986593	0.07441249
55	0xbdd32af8	-0.1031093
56	0x3dbc85ff	0.09205245
57	0x3d1a3626	0.037649296
58	0x3e266c22	0.16252187
59	0x3d61d0af	0.055130657
60	0xbe35ece6	-0.17766151
61	0xbdabd73d	-0.08390663
62	0xbbe9be1c	-0.0071332585
63	0xbde117ee	-0.10990892
64	0xbb3a4f42	-0.002842859
65	0xbdad93a6	-0.08475427
66	0xbd476973	-0.04868455
67	0xbd640703	-0.05567075
68	0xbdc8d928	-0.09807044
69	0x3d9ebb1f	0.07750534
70	0x3da42362	0.08014561
71	0xbd859966	-0.06523399
72	0x3ca8498a	0.020542879
73	0xbdf5fb9e	-0.12010883
74	0xbdf0ff60	-0.11767459
75	0xbd9a13a1	-0.07523275
76	0x3d8a1cd0	0.06743777
77	0xbe0a8fef	-0.13531469
78	0x3dd922e4	0.10602358
79	0x3d5dae05	0.054121036
80	0xbe1294ff	-0.1431465
81	0x3dee44e5	0.11634234
82	0x3d999f31	0.075010665
83	0x3bd87b1d	0.006606473
84	0x3dc2df7a	0.09515281
85	0xbe081809	-0.13290419
86	0xbe116cb9	-0.1420163
87	0x3d398c19	0.045299623
88	0xbc92812a	-0.017883856
89	0x3d9e5e01	0.077327736
90	0x3df8d75e	0.12150453
91	0x3d477d91	0.048703734
92	0x3da12f65	0.07870368
93	0xbcc1cfee	-0.023658719
94	0xbcfb20b7	-0.030655248
95	0x3d3f817b	0.04675434
96	0x3c4bbbb0	0.012434885
97	0x3d859f24	0.06524494
98	0x3dd5c6eb	0.10438331
99	0x3d8ca217	0.06866854
100	0xbcbe4b79	-0.023229348
101	0xbcf4ac09	-0.029867189
102	0xbb19154f	-0.0023358648
103	0x3e235a6e	0.15952465
104	0xbd7929f4	-0.060831025
105	0xbcccf677	-0.025019867
106	0x3d776af8	0.060404748
107	0xbd9361f8	-0.071964204
108	0x3dba979e	0.0911095
109	0xbc430d1a	-0.011904979
110	0xbbcdf470	-0.0062852427
111	0x3c2fb3ac	0.010723989
112	0xbd91d42d	-0.071205474
113	0x3e0211bb	0.12702076
114	0x3d17c4ca	0.037052907
115	0xbd7d3540	-0.06181836
116	0xbc942bc4	-0.018087275
117	0x3e03c5a9	0.1286837
118	0x3cfb92b3	0.0307096
119	0xbc1f2fe9	-0.0097160125
120	0x3b9d8219	0.0048067686
121	0x3d936784	0.071974784
122	0xbdeeb4ad	-0.11655555
123	0xbe097cb6	-0.1342648
124	0xbdd8c1f3	-0.10583868
125	0x3cdda26a	0.027054984
126	0x3a40b0f5	0.00073505874
127	0x3de88f34	0.11355439
128	0xbc92844a	-0.017885346
129	0x3d877874	0.066147715
130	0xbd2e952e	-0.042622738
131	0xbdc8f8ab	-0.09813055
132	0x3d37c8f3	0.044869374
133	0x3dc96e35	0.098354734
134	0xbd516d69	-0.051129732
135	0x3e0d98f2	0.13827875
136	0xbdaf0a69	-0.085469075
137	0xbe1c85c8	-0.15285408
138	0x3dee166c	0.116253704
139	0xbd9ab53f	-0.07554101
140	0x3d5b59dd	0.053552497
141	0xbdc57e92	-0.09643282
142	0xbd4dc921	-0.05024064
143	0xbb7a5e62	-0.003820323
144	0x3d93c261	0.07214809
145	0x3d8b546a	0.0680321
146	0xbd5048af	-0.050850566
147	0xbbd0d298	-0.006372761
148	0x3d0d734a	0.034533776
149	0x3dbac035	0.09118692
150	0x3e0be9c8	0.13663399
151	0xbc533098	-0.012890004
152	0xbc89e2aa	-0.016831715
153	0xbd118a9b	-0.035532575
154	0xbc9e262a	-0.019305307
155	0xbddbf1d7	-0.10739487
156	0x3c8eff8d	0.01745584
157	0xbd318d58	-0.043347687
158	0xbdb854c8	-0.09000546
159	0x3cab5f57	0.020919485
160	0xbe006029	-0.12536682
161	0x3ca5cee9	0.020240264
162	0xbe19c16f	-0.15015195
163	0xbdcdfc27	-0.1005786
164	0xbdb5f21f	-0.088840716
165	0x3ddb3d7a	0.10705085
166	0x3e11c73b	0.14236157
167	0x3d8e6e61	0.06954647
168	0xbb7d91b5	-0.0038691584
169	0x3c59dbc5	0.013297026
170	0x3e2a349c	0.16621631
171	0xbd80010b	-0.06250199
172	0xbd4b926b	-0.049700182
173	0x3d0d91cf	0.034562882
174	0x3dc5983a	0.096481755
175	0x3cd15e72	0.02555773
176	0xbd2e901f	-0.042617913
177	0xbd2b0177	-0.041749444
178	0xbd2c3285	-0.042040367
179	0xbda82581	-0.08210278
180	0x3d1230b5	0.035690982
181	0x3e39e36b	0.1815316
182	0x3cf14bbb	0.029455056
183	0xbc729883	-0.014806869
184	0xbe4e577e	-0.20150563
185	0xbb8b05f6	-0.004242654
186	0xbd8efa33	-0.069813155
187	0x3d30119e	0.04298555
188	0x3e0dff59	0.13866939
189	0xbe04cb72	-0.12968233
190	0x3dd87a40	0.10570192
191	0x3e27dbaa	0.16392389
192	0x3dd44de6	0.103664204
193	0xbd1a0c11	-0.037609164
194	0xbd3b8d73	-0.045789193
195	0x3c658319	0.014008307
196	0x3d479a4b	0.04873113
197	0xbd06d499	-0.032917593
198	0x3d190108	0.0373545
199	0xbd8081e1	-0.062747724
200	0x3e1a9e4b	0.15099446
201	0xbcc2eec4	-0.023795493
202	0x3d857c01	0.065177925
203	0xbe0b3130	-0.13592982
204	0x3d022586	0.031774066
205	0xbde92383	-0.113837264
206	0xbd6b1dca	-0.057401456
207	0xbd8dda98	-0.06926459
208	0x3c773a7d	0.015089628
209	0x3c8b338f	0.016992358
210	0xbd682d14	-0.056683615
211	0xbda366bc	-0.079785794
212	0x3d9365b1	0.071971305
213	0x3daae639	0.08344693
214	0x3e21bacb	0.15793912
215	0xbe039cbf	-0.12852763
216	0x3d8933a2	0.06699301
217	0x3da0d713	0.07853522
218	0x3e0537e9	0.1300961
219	0xbd3d5747	-0.046225812
220	0x3d3e2cad	0.046429325
221	0x3d71a75f	0.05899751
222	0x3e073cb4	0.1320675
223	0xbdf822e4	-0.1211603
224	0xbdd7f3f0	-0.10544574
225	0xbd745a7b	-0.0596566
226	0x3d10b955	0.035332996
227	0x3ba8221b	0.005131019
228	0xbdd01a99	-0.10161323
229	0xbccb6972	-0.024830554
230	0xbdb0d8a5	-0.08635072
231	0xb9beb114	-0.00036371558
232	0x3dcd0bc2	0.10012008
233	0xbd685fbe	-0.056731932
234	0x3ce45bd0	0.02787581
235	0xbdb447f6	-0.08802788
236	0xbd2baf7c	-0.0419154
237	0x3e09cae0	0.13456297
238	0xbc0ba122	-0.008522304
239	0xbd955d9d	-0.07293246
240	0x3d2eefc0	0.042709112
241	0x3e015fa5	0.12634142
242	0x3d4e88a9	0.050423298
243	0xbdc8f455	-0.09812228
244	0x3cba54b4	0.022745468
245	0xbdc7b204	-0.09750751
246	0xbd4f8bd1	-0.05067045
247	0xbe03284d	-0.12808342
248	0xbc9e1f1c	-0.019301943
249	0xbdb370dc	-0.087617606
250	0xbd1cda9c	-0.03829442
251	0x3d3967c3	0.04526497
252	0x3d8b1856	0.06791751
253	0x3de2e3dd	0.11078618
254	0xbc80c16a	-0.015717227
255	0xbda0ed57	-0.07857769

bias f4 [20]
0	0x3dbe1712	0.09281744
1	0x3d7bca40	0.061472178
2	0xbdf87217	-0.12131136
3	0x3d0e3462	0.034717925
4	0x3d903428	0.07041198
5	0xbd4662b4	-0.048433974
6	0xbd8ca925	-0.06868199
7	0x3d1a7431	0.037708465
8	0x3de31cce	0.110894784
9	0x3d412182	0.047151096
10	0xbce022a4	-0.027360268
11	0xbdc4da0c	-0.09611902
12	0xbd46d367	-0.048541453
13	0x3db8b30e	0.09018527
14	0x3dc91cdf	0.0981996
15	0x3e145a28	0.14487517
16	0x3df4ad42	0.11947109
17	0xbd8c20d1	-0.06842197
18	0xbdb056c5	-0.086103
19	0x3c6e0797	0.014528177

weight f4 [20, 40]
0	0x3d07c07d	0.033142556
1	0x3dd2da9a	0.10295601
2	0xbd767c85	-0.060177345
3	0x3d1d2732	0.038367458
4	0x3da56545	0.08075956
5	0x3d002651	0.03128654
6	0x3d8bedcf	0.06832468
7	0xbdcb9a1e	-0.09941505
8	0xbd399917	-0.045312013
9	0xba76d2d2	-0.000941557
10	0x3dfad35e	0.12247346
11	0xbd8ff7eb	-0.070297085
12	0x3dcfac90	0.101403356
13	0xbd9826e1	-0.074292906
14	0xbd6a3f12	-0.057189055
15	0xbe3cf85d	-0.18454118
16	0x3e1b2ae4	0.1515308
17	0x3d9038a5	0.07042054
18	0x3db5c0b5	0.088746466
19	0x3d00ac8a	0.031414546
20	0x3e1d3dc1	0.15355588
21	0x3de6aa82	0.112629905
22	0xbdf80f14	-0.12112251
23	0x3e1fea83	0.15616803
24	0xbdb2ebf6	-0.08736412
25	0x3d7c9868	0.061668783
26	0xbe039428	-0.12849486
27	0x3e36127d	0.1778049
28	0xbd5a6d7b	-0.053327065
29	0xbde68b3d	-0.11257026
30	0x3e0b1a28	0.13584197
31	0x3cf108bb	0.029423108
32	0x3c5bfcd8	0.013426982
33	0xbd558232	-0.052126117
34	0xbdb3315f	-0.08749651
35	0x3df72441	0.12067462
36	0x3c1c2fff	0.009532928
37	0xbd967c04	-0.07347873
38	0x3d22c54c	0.03973894
39	0xbdba1c2f	-0.09087407
40	0xbdb27edd	-0.087156035
41	0xbd1649ed	-0.036691595
42	0x3da6a28f	0.08136474
43	0xbb715762	-0.0036825766
44	0xbe0de3da	-0.1385645
45	0x3d5bde46	0.053678773
46	0xba1bdf8d	-0.00059460924
47	0xbd309471	-0.043110315
48	0xbda2e441	-0.07953692
49	0x3dba2b67	0.090903096
50	0x3c0251c5	0.007954066
51	0xbdb0d386	-0.08634095
52	0x3e1d4dc8	0.15361702
53	0xbdb043b0	-0.0860666
54	0xbcebaaf1	-0.028768035
55	0xbd363ec7	-0.044493463
56	0xbde1ced0	-0.110257745
57	0x3c783a37	0.015150598
58	0xbe2a6837	-0.16641317
59	0x3d6fd009	0.058548007
60	0x3d8af28a	0.06784542
61	0xbd8e9696	-0.06962316
62	0x3cdc57ba	0.0268973
63	0x3d98a371	0.07453049
64	0xbd47ac74	-0.04874845
65	0xbd92ce41	-0.07168246
66	0x3d88451b	0.06653806
67	0x3de49507	0.11161237
68	0xbe0734ac	-0.13203686
69	0xbd29c577	-0.041448083
70	0xbb2e50e2	-0.0026598503
71	0xbdc633f0	-0.09677875
72	0xbd8e8ae3	-0.06960084
73	0x3da7d28b	0.08194455
74	0xbd8989b5	-0.06715719
75	0x3caf9c3f	0.021436809
76	0x3db8a5b8	0.09015983
77	0xbd81dd43	-0.063410304
78	0x3d8de997	0.06929319
79	0x3db8b9a9	0.09019787
80	0xbe0f0789	-0.13967718
81	0xbb5c5456	-0.0033619604
82	0xbda6a898	-0.081376255
83	0x3d975418	0.073890865
84	0xbd57ffbd	-0.052734125
85	0xbd90def8	-0.07073778
86	0xbd904c1b	-0.07045766
87	0xbe11535f	-0.1419196
88	0xbd02fe0f	-0.03198057
89	0x3dd45066	0.10366897
90	0xbe00ec56	-0.12590155
91	0xbd9012bc	-0.07034823
92	0xbd86f5a4	-0.06589821
93	0x3de891d1	0.11355937
94	0xbcd30d90	-0.025763303
95	0x3e0044de	0.12526271
96	0xbd88ce59	-0.06679983
97	0xbd8e332f	-0.06943356
98	0xba28873d	-0.00064288435
99	0x3db0292f	0.08601605
100	0x3df12114	0.11773887
101	0xbdbb286a	-0.09138568
102	0xbdc8bab9	-0.098012395
103	0xbda90bfa	-0.082542375
104	0xbd5dcd30	-0.05415076
105	0xbe1ce374	-0.15321141
106	0x3dc0f3b5	0.094214834
107	0x3db0ce5d	0.08633111
108	0x3e216026	0.15759334
109	0xbdc6fa54	-0.09715715
110	0xbd97d869	-0.07414324
111	0xbce401ec	-0.027832948
112	0xbe04c63a	-0.12966242
113	0x3d86a1ec	0.06573853
114	0xbcf33ad4	-0.029691137
115	0xbdbe7c6b	-0.093010746
116	0xbd01ec8d	-0.031719733
117	0xbd021d65	-0.031766314
118	0x3e1dfca4	0.15428406
119	0xbd3c0178	-0.04589984
120	0xbe398a47	-0.18119155
121	0x3dbdcd0f	0.092676274
122	0xbcb0f6a3	-0.02160198
123	0x3e108322	0.14112523
124	0x3cca9228	0.024727896
125	0x3d646cd0	0.055767834
126	0x3de42eb4	0.111417204
127	0xbd1a5614	-0.037679747
128	0xbe297660	-0.16549063
129	0xbdf06faa	-0.11740048
130	0xbc9f08b5	-0.019413332
131	0x3daddfd2	0.08489956
132	0xbe33b45e	-0.17549273
133	0x3dd69fe6	0.10479717
134	0xbe0973d1	-0.13423087
135	0x3d612fef	0.054977354
136	0x3d9cede4	0.076625615
137	0xbd4d0b5a	-0.050059654
138	0x3df455b0	0.11930406
139	0xbbf777eb	-0.007552137
140	0x3e1183a5	0.14210375
141	0x3becbc93	0.0072246282
142	0xbe2e1f6e	-0.17004177
143	0xbdb573f3	-0.08860006
144	0xbd87026c	-0.06592259
145	0xbd37ebc2	-0.04490257
146	0x3d5b2312	0.053500243
147	0xbc652586	-0.013985997
148	0x3de38e12	0.11111082
149	0xbdf30b3b	-0.118673764
150	0xbddf81d1	-0.109134324
151	0x3d7a635c	0.061129913
152	0x3d204370	0.039126813
153	0xbdd231e3	-0.102634214
154	0x3cf1505d	0.029457266
155	0xbe0d47da	-0.1379694
156	0xbdd2f64f	-0.10300886
157	0xbd630667	-0.055426028
158	0xbde2f8eb	-0.110826336
159	0xbdb2eee7	-0.08736973
160	0x3dba7ec2	0.091062084
161	0xbda19b4f	-0.07890951
162	0x3da7e3f6	0.08197777
163	0xbdb33525	-0.08750371
164	0x3cf94ba4	0.030431576
165	0xbc8b9e2a	-0.017043192
166	0xbe1c730d	-0.15278263
167	0x3e20105b	0.15631239
168	0x3c294726	0.0103319045
169	0xbd677247	-0.056505468
170	0xbe09d955	-0.13461812
171	0x3dbb35ec	0.09141144
172	0x3d6b4003	0.057434093
173	0xbe0bc728	-0.13650191
174	0x3c8a3802	0.01687241
175	0xbd3573ad	-0.04429977
176	0x3e0dd229	0.13849701
177	0x3d842b90	0.064536214
178	0xbdd0f386	-0.102026984
179	0xbe10b591	-0.14131762
180	0x3e025e1f	0.12731217
181	0x3dd4ae66	0.10384826
182	0x3de9a3c9	0.11408193
183	0x3dd9194a	0.10600527
184	0x3c8ddada	0.01731627
185	0xbdde1823	-0.108444475
186	0x3d551aea	0.05202762
187	0x3d327d66	0.04357662
188	0x3dcb0e35	0.09914819
189	0x3e2cc54c	0.16872138
190	0xbdda8809	-0.10670478
191	0xbd2ba42e	-0.04190462
192	0xbe08d18c	-0.13361186
193	0x3bd0a3ea	0.0063671963
194	0xbd90ab53	-0.070639275
195	0xbc3d5d6e	-0.01155792
196	0xbd5e0654	-0.054205254
197	0xbdcbea2b	-0.09956773
198	0x3e2431a5	0.16034563
199	0xbdd7d589	-0.105387755
200	0x3dbb9b9b	0.09160539
201	0xbd1b1df1	-0.03787035
202	0x3deb99c8	0.11503941
203	0x3d95f934	0.07322922
204	0xbdfe8a34	-0.12428704
205	0x3c72fb28	0.014830388
206	0xbd7c6dc8	-0.061628133
207	0x3c7946fa	0.015214676
208	0xbd9f79e5	-0.077869214
209	0x3e03d949	0.12875856
210	0xbd5b0f78	-0.05348155
211	0x3dd14715	0.10218636
212	0xbcd018e7	-0.0254025
213	0xbe123182	-0.14276698
214	0x3d50c973	0.050973367
215	0xbd9906b8	-0.074719846
216	0x3d7422cd	0.0596035
217	0x3da5911f	0.0808432
218	0x3e02af3a	0.12762156
219	0xbd8bfb91	-0.06835092
220	0x3cb212f3	0.021737551
221	0x3d85fcd7	0.06542366
222	0xbdbad633	-0.091228865
223	0x3d0b1265	0.03395309
224	0x3e116950	0.1420033
225	0xbda1103f	-0.07864427
226	0xbd2fb8d9	-0.042900894
227	0xbd8be5e9	-0.06830961
228	0x3ddb1a70	0.10698402
229	0x39a08f3e	0.00030624302
230	0x3db9c1d0	0.0907017
231	0xbdfa14e3	-0.12211015
232	0x3cc62bc6	0.024190795
233	0x3dd86f8e	0.10568152
234	0xbd3e0fb3	-0.04640169
235	0x3d8b20e0	0.0679338
236	0x3bbdf4d0	0.005797006
237	0xbdf65a57	-0.1202895
238	0xbdf6120a	-0.120151594
239	0xbbd675dd	-0.006544812
240	0xbe14926d	-0.14508982
241	0xbd9a9a41	-0.07548953
242	0x3d805867	0.062668614
243	0xbdc1e9dd	-0.09468434
244	0xbd267027	-0.0406343
245	0xbe0085dc	-0.12551063
246	0x3de82e56	0.11336963
247	0xbdc87dc9	-0.097896166
248	0xbd0ed5a1	-0.0348717
249	0xbcd5335d	-0.026025468
250	0x3d561710	0.052268088
251	0xbe2a07fa	-0.16604605
252	0x3d730e94	0.059340075
253	0x3c9a1e8e	0.018813398
254	0x3d9ece2d	0.07754169
255	0xba32473d	-0.00068007765

bias f4 [20]
0	0xbdf5c6e6	-0.120008275
1	0xbe1be2a2	-0.15223172
2	0xbc5f34b7	-0.013623408
3	0xbe02fa84	-0.12790877
4	0x3ba6aa2c	0.005086204
5	0xbcb580a1	-0.022156062
6	0xbc740594	-0.014893908
7	0xbd30e5c3	-0.043187868
8	0x3e001887	0.12509356
9	0x3d084cd0	0.03327638
10	0xbd0fb983	-0.035089027
11	0x3d9777a5	0.07395867
12	0x3cf69465	0.030100057
13	0x3c6dcd5c	0.0145142935
14	0x3de16557	0.11005657
15	0xbe0adf82	-0.13561824
16	0xbd212d96	-0.039350115
17	0x3dc37eb6	0.095456526
18	0xbd2df479	-0.042469475
19	0xbd05d75d	-0.03267609

weight f4 [10, 20]
0	0x3e6f8f34	0.23394471
1	0x3f131745	0.5745738
2	0xbe81796b	-0.25287947
3	0x3eda9541	0.42691997
4	0xbeb1c7c9	-0.34722736
5	0x3ec6dee1	0.38841918
6	0xbeb2918c	-0.34876668
7	0x3ecae6b5	0.3962914
8	0x3f1761c6	0.59133565
9	0xbed49354	-0.41518652
10	0x3e0cc00f	0.1374514
11	0xbd902278	-0.070378244
12	0xbe94c031	-0.2905288
13	0xbe313340	-0.17304707
14	0x3d053170	0.03251785
15	0xbf1f92cd	-0.62333375
16	0x3e805dbb	0.2507151
17	0xbf398ba0	-0.72478676
18	0xbd7900f1	-0.060791913
19	0x3e02a8a3	0.12759642
20	0xbe8d0c83	-0.27548608
21	0xbed53aef	-0.41646525
22	0x3ddf6726	0.10908346
23	0x3e5c7b00	0.21531296
24	0x3d21b6ad	0.039480854
25	0xbd4cf3fa	-0.05003736
26	0xbdb2b106	-0.08725171
27	0xbe94bc6f	-0.29050013
28	0xbd49e38c	-0.04928927
29	0xbd4d5879	-0.050133202
30	0xbe58b9c1	-0.2116461
31	0x3e1f7bf8	0.15574634
32	0x3ef99657	0.48747513
33	0x3e79367d	0.24337192
34	0x3e326586	0.1742154
35	0xbee7558c	-0.45182455
36	0x3e3446ad	0.17605086
37	0xbf1aa2c9	-0.6040464
38	0xbe2b590d	-0.16733189
39	0x3e1f9ca5	0.15587099
40	0x3bc922b0	0.0061381683
41	0x3d4a6058	0.049408287
42	0xbc3f5fda	-0.011680568
43	0xbc20a942	-0.009805979
44	0x3c13ad42	0.009013476
45	0x3b16b4e5	0.0022996005
46	0x3cb29fd2	0.021804724
47	0xbdbb4087	-0.09143167
48	0x3d90fbfe	0.07079314
49	0xbc33d62b	-0.010976355
50	0x3d81b5af	0.063334815
51	0x3cd00d62	0.025397006
52	0xbcf45338	-0.029824838
53	0xbc86dbe9	-0.016462283
54	0xbca1c78e	-0.019748475
55	0x3d2dabca	0.04240016
56	0x3d0214ff	0.031758305
57	0x3dc93fc7	0.09826618
58	0xbd997ebf	-0.07494878
59	0x3d65e0b9	0.056122515
60	0x3ea22869	0.31671456
61	0xbf170196	-0.58986795
62	0x3ead6d1c	0.33872306
63	0x3c8a7010	0.016899139
64	0x3eea0e4c	0.45714033
65	0x3e961d89	0.2931941
66	0x3beccb79	0.0072264043
67	0x3e7bde65	0.24596556
68	0xbee921a5	-0.4553348
69	0x3ee0383a	0.43792897
70	0x3e948576	0.29008073
71	0x3eab20ba	0.33423406
72	0xbea1c2a4	-0.31593812
73	0x3ddce6eb	0.107862316
74	0x3e8137af	0.25237796
75	0xbf0ec647	-0.557713
76	0x3e69c553	0.2282918
77	0x3dfce245	0.12347845
78	0x3f1c06a2	0.6094762
79	0xbf0ef1ce	-0.55837715
80	0x3d4364d6	0.047703587
81	0xbd383634	-0.044973567
82	0x3d81127e	0.06302355
83	0x3dbf5c59	0.09343786
84	0x3b7be9b4	0.0038438858
85	0x3d23322c	0.03984277
86	0x3d784265	0.060610194
87	0x3d74b909	0.059746776
88	0xba20303a	-0.0006110702
89	0xbd9b153f	-0.07572412
90	0x3d91c4d9	0.07117624
91	0x3d606462	0.054783233
92	0x3ce6bef3	0.028167224
93	0x3ce9dbc2	0.028547172
94	0x3dd7bce8	0.10534078
95	0x3d50bc6e	0.05096095
96	0xbd57295e	-0.052529685
97	0x3d7b23bb	0.061313372
98	0xbd65d6e7	-0.05611315
99	0xbd122906	-0.035683654
100	0xbc89fcd3	-0.016844189
101	0xbbec39f6	-0.007209058
102	0xbc4e9e13	-0.01261093
103	0xbbf74447	-0.007545981
104	0x3c18360e	0.009290231
105	0x3a478e90	0.0007612491
106	0x3c4e0b6b	0.012575964
107	0xbd1697de	-0.036765926
108	0xbad8893b	-0.001652039
109	0x3d167b6c	0.036738798
110	0xbd1f7c97	-0.038937178
111	0xbbdf3824	-0.0068121124
112	0xbc629620	-0.013829738
113	0x3c76fb70	0.015074596
114	0xbd67257f	-0.056432243
115	0x3cbc9313	0.02301935
116	0x3cba31bb	0.022728791
117	0x3cae112c	0.021248423
118	0x3c95b4cc	0.018274687
119	0x3d46028c	0.048342273
120	0x3df53681	0.119732864
121	0x3e27ae94	0.1637519
122	0x3e87a453	0.26492557
123	0x3d9eff68	0.077635586
124	0xbefa6fb3	-0.48913345
125	0x3dee5a62	0.11638333
126	0x3ea0f574	0.31437266
127	0x3f1af1bb	0.605251
128	0xbe4bdc87	-0.19908343
129	0xbeb27533	-0.3485504
130	0x3ead0266	0.33790892
131	0x3e32dc02	0.17466739
132	0x3ea83fe4	0.32861245
133	0x3e9dd740	0.30828285
134	0x3ee6692b	0.45002112
135	0x3eb6db8f	0.35714385
136	0xbee40b17	-0.4453971
137	0xbe05626f	-0.1302583
138	0xbcc348d9	-0.023838447
139	0xbee02f58	-0.4378612
140	0xbdf96ac4	-0.12178567
141	0xbddc20a6	-0.10748415
142	0xbe89a9ad	-0.26887265
143	0x3d8a5fe6	0.067565724
144	0x3d160e3d	0.036634672
145	0xbedd316b	-0.43201765
146	0x3ed3659a	0.41288453
147	0xbeb37f6e	-0.3505816
148	0x3e537239	0.20649041
149	0x3e39e533	0.18153839
150	0xbebe7779	-0.37200525
151	0xbec9750d	-0.39347115
152	0x3db98277	0.09058087
153	0x3ea6436d	0.32473317
154	0xbe263bb9	-0.1623372
155	0x3ec8f937	0.39252636
156	0xbeb264d5	-0.34842554
157	0x3e630584	0.22170073
158	0xbe947832	-0.28997952
159	0x3e01e805	0.12686165
160	0xbdaba02b	-0.08380159
161	0x3f0c6c8b	0.54853123
162	0xbef4ff1f	-0.47850892
163	0x3e056fbf	0.13030909
164	0x3e617cd1	0.2202027
165	0x3e4ca44c	0.1998455
166	0xbe5fc6f0	-0.21853232
167	0x3c893f48	0.016753808
168	0xbefd0065	-0.49414364
169	0xbe9cfed9	-0.30663183
170	0xbefeebbc	-0.49789226
171	0xbefd1bd2	-0.49435288
172	0xbea4b58a	-0.32169753
173	0xbebe413c	-0.37159145
174	0xbf0cea07	-0.550446
175	0x3e765bc5	0.24058445
176	0x3ea565f1	0.32304338
177	0x3ed3d4d8	0.41373324
178	0x3cdfcc06	0.027318966
179	0xbded97c7	-0.11601215
180	0xbdbecf43	-0.09316876
181	0x3d8f9f1c	0.070127696
182	0xbce6ac8d	-0.02815845
183	0xbef29fd4	-0.47387564
184	0xbe33af2c	-0.17547292
185	0x3d0fd2be	0.03511309
186	0xbe49acc1	-0.19694807
187	0xbea3699d	-0.31916514
188	0x3d4ce8a2	0.050026543
189	0x3eeb4946	0.4595434
190	0x3e7cd02a	0.24688783
191	0x3e85dd34	0.26145327
192	0xbe090b15	-0.13383134
193	0xbe9d8efc	-0.3077315
194	0xbf1d5df7	-0.61471504
195	0x3e53d215	0.20685609
196	0xbe793396	-0.24336085
197	0xbd409958	-0.04702124
198	0x3dd8832b	0.10571893
199	0x3e7a2c6f	0.24431013

bias f4 [10]
0	0x3f722c04	0.9459841
1	0x3f908013	1.1289085
2	0xbe7c2ef8	-0.24627292
3	0x3f59b1f8	0.85037184
4	0xbc261e71	-0.010139094
5	0xbe854300	-0.2602768
6	0x3f2ac1e5	0.6670211
7	0x3f4370b7	0.76343864
8	0x3f6902b9	0.9101978
9	0x3f98766c	1.191114

weight f4 [1, 10]
0	0xbf32668c	-0.69687724
1	0xbf163022	-0.58667195
2	0x3d93984e	0.07206784
3	0xbf3ecd56	-0.7453207
4	0x3ca71174	0.020394064
5	0x3de2afdb	0.11068698
6	0xbf4eec27	-0.8082909
7	0xbf7324d0	-0.94978046
8	0xbf458e15	-0.77169925
9	0xbf360464	-0.7110045
