Feaprotect/models/mobile_price/sc_h-talk_time-touch_screen-battery_power-four_g-three_g/ori/CLUB/model_0.pkl (torch, 14721 bytes, 11 tensors)

weight f4 [10, 1]
00000000: a527 3ebf 8506 113e e707 16ba 7af3 9c3a
00000010: 5aad 603f 7f09 47bf 90e2 c0bd e611 57b9
00000020: a80e b43e 952f 74bf
-0.7427924 0.14162643 -0.00057232234 0.0011974417 0.87764513 -0.77748865 -0.09418213 -0.00020510665
0.35167432 -0.95385104

bias f4 [10]
00000000: c551 2cbf 40cd 0b3d af76 003f 28cf 5c3f
00000010: 589b 573e 0a66 34bf d0e9 56be 6093 753f
00000020: 62e4 06be 964d 5dbf
-0.6731227 0.03413129 0.50181097 0.86253595 0.21055353 -0.704682 -0.2098763 0.95928
-0.13173059 -0.8644651

weight f4 [40, 10]
00000000: 62b7 5dbe a758 0a3e c97c 873e 1e81 82bc
00000010: 7cad 43bd 807e 2a3c 28bb e9bd 8dc9 6f3e
00000020: 9156 663e 76db 0e3e f1b2 243e e4c2 643c
00000030: cc39 41be e730 e33c ef7d b73c 654b 533c
00000040: b2a5 50be 0509 003e 2a6c 16be 2f35 f6ba
00000050: 83d0 56bc 8a00 5d3e a2c7 3bbd 8222 933d
00000060: 28fb 9e3d 4f60 403d 96d3 16be 7e35 8f3e
00000070: 8961 cb3d 6310 efbd ba5d 413e 333d 7dbe
00000080: 1c5f a5bd 3a0c 803e 5a30 22be 3d53 973d
00000090: 49e7 42bd 03d5 7dbe 0059 113e c5f3 503e
000000a0: e0b9 5f3c 0c93 51be 388c 17be ca9b 5dbd
000000b0: 804c 10be 6ed0 abbd f862 893d e1bc 87be
000000c0: 2208 fd3d 1a66 2ebd effb a73e 5769 2a3e
000000d0: b0bd 343e 88b8 35bd e1e1 e139 e97f 643e
000000e0: 00d6 c0bc f4e2 a83c 791d 513e f06a 3bbe
000000f0: 5408 87be fd1d 67be 3b7e 8d3e c59c 533e
00000100: 8fb5 2abe f1e0 d93c ac97 733e bb4b 423e
00000110: f1d5 55be dca1 50be 5cff 063e 505c 52be
00000120: 48ae 933e 29d3 28bc 702d b03d f32a 7cbe
00000130: a970 06be 6b83 123c 1d60 02bd 3c4a 1bbe
00000140: 0568 35be 4876 b23d 92d0 a5be f47f 013e
00000150: 8ae7 d43d d4fa 603e 9d5d 9cbe 2edd 803e
00000160: be94 b0be 5ffc dabd 0c62 a6bb 8427 8c3e
00000170: df2e 3a3e f2de 5c3e 3745 54be 7065 183e
00000180: fc33 22be 81d4 ca3d db35 f2bd dd40 1bbd
00000190: 4755 9e3d 2969 54be 48f3 32be d28f 7f3e
000001a0: 4fa5 ee3d 7a85 fabd 8989 273d aa14 da3c
000001b0: fda3 81bd d742 1a3e 7742 403e ec5a b4bd
000001c0: d2ae debd 906a e0bd 6b51 bd3d 77c9 80be
000001d0: 94da ff3d b600 853d d7ad 05be acca 08be
000001e0: e27d c0bd 374c 3d3e 2c10 1b3e f4ba 7bbe
000001f0: 3073 64be c0a3 bbbd b861 813e b50e 863d
00000200: 3539 5dbe 00e2 81be de07 413e cdb9 7bbd
00000210: 6897 a1be d217 89be f70a 91be c08a 14be
00000220: 0c18 963e 967c b0bb 3faf 50bd 3bef 443e
00000230: 5ab2 173e ef65 11be 21d7 1ebe a33e 1d3d
00000240: 4226 aa3c 5557 583d 2550 7b3e 3d81 8b3e
00000250: bdbe 98bb b3cb dc3d 5a69 7b3d 7765 02be
00000260: dbfd 6ebe 2282 613e 88d1 263e 1ffd 16be
00000270: a0a5 233e 7369 803e bf7a 9e3d 8510 50be
00000280: 791d 00be d3e2 25be f562 9dbd 2ffe 81be
00000290: d620 e93d 37af a33e e9fc 8f3e 3434 59be
000002a0: 7369 0e3e ed0e ecbd abb9 78be 5b98 44bd
000002b0: 74d1 f4bd 6ad1 4dbe 548b 2bbd 4926 3c3e
000002c0: 8c0e 6b3d 07ca d33c 9fd0 893d 5474 54be
000002d0: 1cda 723d ee8f b0bc 8cbd 88be 684e cbbd
000002e0: 78d8 c8bc cda3 f8bd 1bff 21be c67c 52be
000002f0: 7472 80bd 72bb 5abd fe2c 95be a3f8 10bd
00000300: b894 0abe a60c 9b3e 16d3 de3d 7c30 833e
00000310: becd 803e 3f2c 3fbd 1acd 463d 0384 893e
00000320: ef46 77be 59e4 b93d fb7b 8bbe d416 82be
00000330: 84cd 81be f064 8b3e f813 42bc 1d53 7f3e
00000340: b910 703e a219 c6bd 9494 2a3e 6140 a23c
00000350: 2ecd a63d dedc 8b3e dbb2 293d 7256 3e3e
00000360: a06d 853e f793 1bbe 82db 84be 601c 5f3e
00000370: 89b1 e13c 79d1 f43d 7d90 88be 2887 88be
00000380: 7146 b13c 652c 073e a059 67be 0fa0 15bd
00000390: 7dfb e93d 3342 3d3e c4e5 1cbe 3853 21be
000003a0: 5c6a f43d 78ea 653e f9fa c5ba 54a2 8cbe
000003b0: c8de 443e 9593 20be afac b0bd b1bc 5dbe
000003c0: 4da9 013d 110d 08be e3ae 1ebe f37c 81be
000003d0: f520 103e 6493 1a3e 3882 233e 6deb 9fbd
000003e0: 496a acbd 98b3 003e 4fd9 d8bd 8ac9 883e
000003f0: 83ee cdbd 1ddc 8ebd b6f6 2bbe 1836 3fbe
-0.21651986 0.1351038 0.2646239 -0.015930708 -0.04777287 0.0104061365 -0.1141265 0.2341673
0.2249396 0.13950905 0.16083886 0.013962481 -0.18869704 0.02773328 0.022398917 0.012896393
-0.20375708 0.1250344 -0.14689699 -0.001878416 -0.0131112365 0.21582237 -0.04584468 0.07184316
0.07762748 0.046966847 -0.14729151 0.279705 0.09930713 -0.116730474 0.1888341 -0.24730377
-0.08074781 0.25009328 -0.15838757 0.07388923 -0.047583852 -0.24788289 0.14194107 0.2040549
0.013655156 -0.2046625 -0.14799583 -0.05410365 -0.14091682 -0.08389364 0.0670833 -0.2651129
0.12355067 -0.04257784 0.32809398 0.16641746 0.17650485 -0.044365436 0.00043083637 0.22314419
-0.023539543 0.020616032 0.20421399 -0.18302512 -0.2637354 -0.22570033 0.2763537 0.20665272
-0.16670822 0.026596518 0.23788327 0.18974201 -0.20882393 -0.20374244 0.1318335 -0.20543027
0.28843904 -0.010304251 0.086024165 -0.24625759 -0.13128914 0.008942465 -0.031829942 -0.15165037
-0.17715462 0.087139666 -0.3238569 0.12646466 0.10395725 0.21970683 -0.3054017 0.25168747
-0.3448848 -0.10692667 -0.005077606 0.27373898 0.18181942 0.21569422 -0.20729528 0.14882445
-0.15840143 0.09903813 -0.11826678 -0.037903655 0.07731109 -0.2074324 -0.17475617 0.24957207
0.11652624 -0.1223249 0.040902648 0.026621182 -0.063301064 0.1506456 0.18775354 -0.088064045
-0.10873188 -0.10957825 0.09244045 -0.25153705 0.12492862 0.06494276 -0.13054596 -0.13358563
-0.0939901 0.18486105 0.15142888 -0.24583036 -0.22309566 -0.09162092 0.25269866 0.06545774
-0.21603854 -0.25367737 0.18850657 -0.06145649 -0.31560826 -0.26775986 -0.28328678 -0.14506054
0.2931522 -0.0053859456 -0.050948378 0.19231884 0.1481413 -0.14199041 -0.15511753 0.038389813
0.020770196 0.05281766 0.24542291 0.27247038 -0.0046614096 0.1078104 0.061379768 -0.12734018
-0.23339026 0.22022298 0.16290867 -0.14744996 0.1598115 0.2508045 0.07738256 -0.20318802
-0.12511243 -0.16199808 -0.0768489 -0.2538924 0.11383216 0.31969616 0.28122643 -0.2121132
0.13907413 -0.11526284 -0.24289577 -0.04799686 -0.119540125 -0.20099416 -0.04188092 0.1837398
0.05738692 0.02585317 0.067292444 -0.207475 0.059290037 -0.021553006 -0.26707113 -0.09927064
-0.024517283 -0.121406175 -0.15819971 -0.2055541 -0.0627183 -0.053401418 -0.2913589 -0.03539337
-0.13533294 0.30283087 0.10880105 0.25622928 0.2515697 -0.046673056 0.048535444 0.2685853
-0.24148153 0.09076757 -0.27243027 -0.2540804 -0.25352108 0.27225447 -0.011845581 0.24934049
0.23443879 -0.09672858 0.1665824 0.019806089 0.08144604 0.27316946 0.041430335 0.18587664
0.260602 -0.15193163 -0.2594872 0.21788168 0.027550476 0.11954016 -0.26672736 -0.26665616
0.021640034 0.13200529 -0.22592783 -0.036529597 0.11424921 0.18482284 -0.15322024 -0.15754402
0.11934349 0.22452724 -0.0015104703 -0.27467597 0.1922561 -0.15681298 -0.08626687 -0.21654011
0.0316556 -0.13286234 -0.15496401 -0.2529064 0.14075072 0.15095288 0.15967643 -0.07808576
-0.0841871 0.1256851 -0.10588323 0.26716262 -0.10055258 -0.06975577 -0.16793332 -0.18672979

bias f4 [40]
00000000: 79c6 4abe ee24 77be 8965 8f3e f04f 8abc
00000010: 9756 ba3d 5791 96be 68dd 943e f057 3fbe
00000020: 7c8e bbbd 4d91 69be 4dbb 243c 4cbe 03bd
00000030: 6075 803e 4241 993d af5b 81be 6a99 95be
00000040: f27e 21be 64bd 4fbe 5ea0 353e 5e27 c4bb
00000050: 78ce 60be bb9d 51be c999 1e3e 81de 2e3c
00000060: 1782 64bb cdd9 e1bd 6b21 15bc 5b6b 5b3e
00000070: ea5d 913e 48a7 38be e63f 97be aab1 9b3e
00000080: 883c db3d a347 afbc 4488 61be 931e 603d
00000090: 54bc 553e 92f2 d5bd 6837 863e 5abd c4bd
-0.19802274 -0.24135181 0.28007153 -0.01688382 0.09098547 -0.2940776 0.2907517 -0.18685889
-0.09158036 -0.22809334 0.010054422 -0.032163903 0.2508955 0.0748315 -0.25265262 -0.29218608
-0.15771082 -0.2028709 0.17736956 -0.0059861382 -0.21953762 -0.20470326 0.15488352 0.010673166
-0.0034867579 -0.1102787 -0.009102206 0.21427672 0.28391963 -0.18032563 -0.29540938 0.30408984
0.10704905 -0.021396464 -0.22024637 0.054716658 0.20872623 -0.10446657 0.26214147 -0.096064284

weight f4 [20, 40]
00000000: 8b2d cd3d 8d59 e53d 25e8 aabd 6599 7f3b
00000010: 32e7 b83d 3cf1 4fbd 3014 003e 92f8 c23d
00000020: 8139 b1bd 214e 433e aba0 113e f6cc 98bd
00000030: 8fa8 a63d 5035 083e cf9e d4bb 3165 b53d
00000040: 1a49 1cbe 721f 053e d20d b73d 84ff 0e3d
00000050: 21ad f4bd b0ee b3bc c924 fe3d 4c57 17be
00000060: ec54 b73d 9cbd 9dbd bec1 07bd fc1b 21bc
00000070: 2a9c 7f3c 2c6f 883d 686f 063e e7f9 a03c
00000080: dcf0 20be f986 293d ff77 d43d c624 d2ba
00000090: aad7 b9bd 8ed2 f53b 51b9 5bbd 24a7 0dbe
000000a0: 849c 5fbd b041 c0bd f8ff 67bd 5c05 4abd
000000b0: 8f12 b4bc 192e 7a3b 18c6 fb3d 9d8b 0dbd
000000c0: c122 913d 9483 da3d 3e07 173e 3d5a 9c3b
000000d0: ebbd fd3d de01 733d d49b b1bd 9a63 073e
000000e0: ff7b dc3d c0d2 a33d 89ce 39bd b5f0 45bd
000000f0: 31c8 853d 6109 773c 63a7 333e bcfd 40be
00000100: 4787 8c3d 1b96 713d d920 fabd d4c0 ecbd
00000110: 9f8a 0ebd af1d ddbd 1a33 83bd eb55 6f3d
00000120: 7517 20be c793 8f3d 5ae3 ed3c 85a1 bbbd
00000130: 0cf2 d73d 5c74 d1bd 6c38 043b 3fca 133e
00000140: 7b8a 5bbd a644 3a3c 14e2 f13d 2ad0 d6bb
00000150: befd c43a d309 a33d 9933 833d 2305 27bd
00000160: 6505 a6bc 1308 df3a 21c5 a3bd 9958 95bd
00000170: 5e31 b7b9 de7f cabd e248 8d3c 910a f73d
00000180: 186c 87bd 3018 033e 1db6 15bc 82b0 8e3c
00000190: 8b82 953d b884 223e 57b5 8ebc 5372 32bc
000001a0: 931b a0bd 780f f0bd 7eb5 383d 2021 863d
000001b0: a927 933d b171 90bd 45aa e03c 43e3 ba3d
000001c0: e2a5 c33d 8af4 9fbd 78e3 9dbd d56c 69bd
000001d0: 0c91 b5bc fda3 a9bd e3e7 bbbd 51ae 043e
000001e0: 7434 a7bd 5e1e 45bd d480 0cbe 366c a73d
000001f0: 09c5 82bc c183 9dbb 6496 adbc 7f6b b1bd
00000200: 5e75 87bd 081e 1a3c 0063 2b3d b2e6 e3bd
00000210: 3de8 2e3e 4601 98bd 16b9 62bd 611c 913d
00000220: fe0a 343d c637 d8bd 077b 03be 9eb5 bfbd
00000230: 6054 2e3d 1ed8 483d e6f0 04be 59c2 5abd
00000240: a920 13bd 0e13 64bd a71c 0dbb 6954 b1bd
00000250: c8c8 8abd 49e2 033d 9bda 953d 6204 863d
00000260: e0cc 16bc 1417 22bd 3703 353d 4f66 10bd
00000270: 507b 7d3d 4ab1 863c bf91 c6bd 96b0 9bbd
00000280: 15b6 013e c29a 103e 9e47 0cbe f551 fabd
00000290: 05de debd 601b 023e a43a bf3c 3ae8 a03c
000002a0: 6cc7 c0bb aac4 01be 73b4 0f3d ce18 a1bd
000002b0: 51f1 02be 7a61 bebb d9b3 aebd 6348 a5bd
000002c0: 9bd1 a83d 3a34 9f3d 4c68 da3d 8e6f 7fbd
000002d0: 1210 c8bd a653 763d f92a e2bd feaf a4bc
000002e0: 9f1b cbbd 2307 133c abac 233d 88fe bb3b
000002f0: f010 e33d 7afc e7bd ea17 be3b 8b96 39bd
00000300: 1ba1 17bc 8094 a73d 1664 f0bc 99f6 223e
00000310: 0408 263c e97e 2e3d f8b8 7b3b 901c 0ebd
00000320: 8cbd 023e a754 91bd f071 5bbd ffd8 373d
00000330: 8db5 603d 1a88 7c3d 120c 663d 57cf b9bd
00000340: 2d76 173d 8b84 14bd 090c b63d 7a9e cc3d
00000350: 6439 c6bd f841 69bc 0281 573d ea6b e3bd
00000360: 901b 403d 88a5 a73d ba3d 003e 7956 363d
00000370: 804a 863d 673e 823c f323 f4bd a231 debd
00000380: ba47 78bc 98b0 a13d 9c9d b73d 2c89 11bc
00000390: f426 ce3d b76a ed3d 5bce c3bc 2bb8 dcbc
000003a0: 3328 b3bd 70a3 973c 4d38 073d 397a 993c
000003b0: 55f9 ebbd 73af ffbc 687a ae3c 558e dc3d
000003c0: 8e80 ef3c 54cf b63d 618f 90bb 075c 5b3d
000003d0: e734 983d 70af 6bbd c690 1ebd d75a 163c
000003e0: e762 25bd 904c 19bd 0c6c 883d da8d e8bd
000003f0: db99 653d bcea 083e c85b 84bd 084a 2b3e
0.10018452 0.11198721 -0.08345059 0.0039001342 0.09028472 -0.05076717 0.12507701 0.09520067
-0.08653546 0.19072773 0.14221446 -0.07460968 0.08137619 0.13301587 -0.006488658 0.08857191
-0.15262261 0.13000277 0.08938183 0.034911647 -0.11947084 -0.021964401 0.1240936 -0.14779395
0.089517444 -0.07702181 -0.03314375 -0.009833332 0.015601197 0.06661829 0.13128436 0.019650413
-0.1571688 0.041388486 0.1037445 -0.0016032688 -0.09074338 0.0075019067 -0.05364353 -0.1383329
-0.054592624 -0.09387529 -0.056640595 -0.049321517 -0.021981506 0.003817445 0.12293643 -0.034556974
0.07086707 0.10669628 0.14748856 0.0047714994 0.123897396 0.059327953 -0.086723 0.13221589
0.10765838 0.07999182 -0.045362983 -0.04832526 0.06532324 0.01507792 0.17544322 -0.18846792
0.068617396 0.058981042 -0.122132964 -0.115602165 -0.034800168 -0.10796677 -0.06406231 0.058431547
-0.15633948 0.07010608 0.029039074 -0.09161667 0.10544214 -0.10227272 0.0020175232 0.1443262
-0.053598862 0.011368906 0.11810699 -0.006555577 0.0015029234 0.07960858 0.06406326 -0.040776383
-0.020266244 0.0017015956 -0.07996584 -0.07292289 -0.0003494126 -0.0988767 0.017246667 0.12062562
-0.06612414 0.12802196 -0.0091376575 0.01741815 0.0730029 0.1587094 -0.017420454 -0.010891515
-0.07817759 -0.117217004 0.04509496 0.06549287 0.07185299 -0.07052935 0.02742494 0.09125378
0.09553124 -0.07810314 -0.07709402 -0.056988556 -0.02216389 -0.082832314 -0.09175088 0.12957121
-0.081643015 -0.048124664 -0.13721019 0.081749365 -0.015963094 -0.004806966 -0.021189876 -0.086630814
-0.06614183 0.009406574 0.04184246 -0.11127986 0.1708078 -0.07422118 -0.055352293 0.07085491
0.043955795 -0.10557513 -0.128399 -0.093608126 0.042560935 0.04903423 -0.1298252 -0.053408
-0.03591982 -0.055682234 -0.002153197 -0.08658678 -0.06776577 0.032198224 0.07317086 0.06543805
-0.009204119 -0.03957279 0.04419252 -0.03525382 0.061885178 0.01644196 -0.096957676 -0.076020405
0.12667115 0.14121535 -0.13699195 -0.12222663 -0.108821906 0.12705755 0.023343392 0.019641984
-0.005883148 -0.12672678 0.0350842 -0.07866059 -0.12787367 -0.00580996 -0.08530397 -0.08070447
0.08243104 0.07773633 0.10664424 -0.062362246 -0.0976869 0.060138367 -0.11043353 -0.02010345
-0.09917378 0.0089738695 0.03995959 0.0057371296 0.11087215 -0.11327453 0.0058011906 -0.045309585
-0.009254719 0.08182621 -0.0293446 0.15914382 0.010133747 0.0426015 0.003840981 -0.034695208
0.12767619 -0.07096224 -0.053575456 0.044884678 0.05486064 0.061653234 0.056163855 -0.0907275
0.036977936 -0.036259215 0.08889014 0.099911645 -0.09678915 -0.01423692 0.052613266 -0.11104567
0.046901286 0.081858695 0.12523547 0.04451606 0.065571785 0.015898896 -0.11920919 -0.108493105
-0.01515382 0.07895011 0.089656085 -0.008882802 0.100660235 0.1159262 -0.023902109 -0.026943287
-0.08747902 0.01851055 0.033012677 0.018735038 -0.11522166 -0.03121159 0.021298602 0.10769335
0.029236104 0.089262635 -0.0044116233 0.05355456 0.07431965 -0.057540357 -0.038712285 0.009176931
-0.040377524 -0.03742653 0.06661233 -0.11355181 0.05605493 0.13370794 -0.064628184 0.1672746

bias f4 [20]
00000000: 84b2 6c3d b530 edbd 8f1a 1ebe 840a d03c
00000010: cc0f fb3d cc16 993c ae8b b43d 87c3 21bd
00000020: 5d0d c5bd e792 bbbd 61b2 b4bd 5bb3 e3bd
00000030: 25cd 26bd 91ef e43d 2f41 c23d b578 28bd
00000040: 7e66 c3bd b0a2 d3bd 3601 fcbd bd86 e3ba
0.057787433 -0.11581556 -0.15439819 0.02539564 0.122588724 0.018687628 0.08815704 -0.03949311
-0.096216895 -0.09158879 -0.088230856 -0.11118194 -0.040722985 0.11178506 0.09485089 -0.04113074
-0.09541033 -0.103337646 -0.123049185 -0.0017358881

weight f4 [20, 40]
00000000: 7e99 c6bd faaf 4b3c f1e6 2fbd fb98 78bc
00000010: b88a 94bd d7b0 cb3d 7857 57bc 0193 b13d
00000020: b99d 00be 7565 c9bd 63cf edbb 5577 23bd
00000030: 6a61 bd3c 1286 acbd 9a3a 4ebd 92db 24bd
00000040: 3a33 903a e9cf 28be f61f a93d 48f3 a33d
00000050: 43a2 aebd 78f1 01be 225c 6ebd 2bf1 cf3c
00000060: 1400 09be 4898 41bb a948 943d e4f9 7d3d
00000070: aa7d eabd 01f3 d0bc 6894 1d3e 4829 c4bd
00000080: e8b7 7dbd 3c51 033e 6cf6 063e 672b e73d
00000090: 3fa4 33bd 32cd 77bd cf5f e8bd d611 bc3d
000000a0: e503 623d 2094 8c3d 2b73 c5bd f74d e03d
000000b0: c95b 09be 384f 273e 8108 3d3d fd0d cfbd
000000c0: 71ff ef3c c729 973c 6364 223c 9810 fa3c
000000d0: 512c 0abe 10ed 3f3d b676 c43d 4991 fcbd
000000e0: 15a6 e6bd f68f 163e 1da5 e03d 2401 1bbe
000000f0: c4a8 d4bd c5fd 75bd 4f48 d83c 855d 3c3d
00000100: e97d 38bd 25c1 afbd 7cc5 e2bd 1888 41bd
00000110: 20ab ba3d dc0d 1e3e 59e7 f8bd 8c6b 013e
00000120: 384d cd3d 2c61 143d 8e40 7fbc ba8a 10bd
00000130: c050 a73d 95d0 993d 978f 513d ec3f a3bd
00000140: df7c fdbc c64c 74bd b1e7 2d3d 2b9e b4bc
00000150: 41c2 f5bd 4b54 e3bd 38a1 e23d 695e f0bd
00000160: 03f3 6c3d a632 7ebd dfd6 9f3b 8f32 bc3d
00000170: 11b4 113d 9919 3c3e 1188 333d 2a50 e73d
00000180: 22e8 d0bd cf91 323e 36e8 97bd 90e5 0abe
00000190: 3fb9 01be 2766 26be 234e fc3d ddda 0dbd
000001a0: 9f6f 163e ed45 44bd ca70 99bd 8d4a bcbd
000001b0: ac4d ebbd f92b 41be b5ea a13d 1ec1 28be
000001c0: 9bfd 363d cdfe cf3b db6a 4c3d a99a aebd
000001d0: fa42 7b3c e5f0 ce3d 8326 88bc 7bd1 33be
000001e0: 2912 02be 5d69 60bc 8a96 be3d 4056 523d
000001f0: 2703 d23b 4b88 b13c 3807 13be 42dc 09bd
00000200: 1570 4c3d 1ba5 03be 0b52 633d bbc0 96bd
00000210: 1e90 0d3e 0033 05be 33cc f43d 4055 cd3c
00000220: 6522 c7bd 6274 c63d 1887 8f3d 7a14 af3c
00000230: 14d2 0a3e 2339 603d 46ee 803d 8e31 ab3d
00000240: 588a 183e 14ee 043e 3065 f33b 78ff a8bd
00000250: 0741 853d 6902 57bc 0afa 9abd 23dc ca3d
00000260: 46e2 913d b70a f53d 5f3f d43d 0b00 9cbd
00000270: d769 83bc 04fb aebd 7201 9f3d 61de c93c
00000280: 6f2f d8bd 9c7c 56bd e4c8 0abe bd0f 713c
00000290: fa35 05be 271f f73c c6cb 2e3c d607 c0bd
000002a0: e717 3b3e 31a3 ed3d b06c 183e 2135 babd
000002b0: 0695 b33d fe0d f5bb d03e ba3d 810d 0c3e
000002c0: af58 c33d 4a0b 7d3d d153 b53d 5b4f d6bd
000002d0: c88f 8d3d a8a0 793d 306b 00be b71d 72bd
000002e0: 9f6a c4bd 18ae 9a3d 4422 98bc f4b3 ad3d
000002f0: 996e 1f3e 92ed 5cbd 7356 fc3d f4aa 7f3d
00000300: a791 353d 841a 543d 6c30 d2bd 0fa4 ebbd
00000310: 8416 1a3e d6d6 a33d c19e a1bd 8ecb 0bbd
00000320: 2a5d ae3d 2075 d9bd 438d 053e 1d7c 683d
00000330: 4659 1d3d de7e 04be 3a3c 393c 3623 61be
00000340: 653a 9bbd 1e0f a8bd 4428 30bd 196e 29bd
00000350: d579 f13d 4b2c e33c cb2c efbd af8e 5abb
00000360: 824d e3bd db8f eb3d ae11 353c fafd 2e3e
00000370: 18c7 e2bd 8bc9 3ebc ba5a 8f3d 91e4 d2bc
00000380: 1951 ca3d bd02 a9bd 0cde 133d c659 b53d
00000390: 7adb a6bd eebf eb3c 2cc4 19bc 1277 f73c
000003a0: 363b 7fbd 9a23 7dbd 924f cdbd 9066 33bd
000003b0: 78ba 98bd fd2e 8dbc ec4d cdbd 282c 09bc
000003c0: ddac a83d 0ea5 c53b 5c8d 84bd 1ad4 f8bc
000003d0: 549e 5fbd 7bbe a33d d7b5 f1bd ccd6 1a3d
000003e0: d188 b53b 77a0 163e e9f2 953d 7ff5 143e
000003f0: b73a d93d 18a2 5b3d f4de 323d 985a 01be
-0.09697245 0.012432093 -0.042944852 -0.015173192 -0.07253021 0.09945839 -0.013143413 0.08670617
-0.12560166 -0.098338045 -0.0072573884 -0.039908726 0.02311774 -0.084240094 -0.050348856 -0.04024846
0.0011001595 -0.16485561 0.08258049 0.080053866 -0.08527043 -0.1268977 -0.058193333 0.025383553
-0.13378936 -0.002954023 0.07240421 0.062005892 -0.1144975 -0.025506498 0.15388644 -0.09578186
-0.061942965 0.12823957 0.1317994 0.11287575 -0.04385781 -0.060498424 -0.11346399 0.091830894
0.055179495 0.0686419 -0.09641107 0.109523706 -0.1341392 0.16338813 0.046150688 -0.1011009
0.029296609 0.018452538 0.009911629 0.03052549 -0.13493468 0.04685694 0.09592955 -0.123323984
-0.112621464 0.14703354 0.10968993 -0.15137154 -0.10383752 -0.060056467 0.026401667 0.045987625
-0.045041952 -0.08581761 -0.110728234 -0.04724893 0.09114671 0.15434974 -0.12153501 0.12638682
0.10024494 0.036225483 -0.015579356 -0.03528855 0.08169699 0.07510487 0.05116233 -0.079711765
-0.030943332 -0.05964353 0.042457286 -0.022048077 -0.119999416 -0.11100062 0.11065906 -0.11736757
0.05784894 -0.06206002 0.0048779096 0.09189331 0.035572115 0.1836914 0.043830935 0.11294587
-0.10200526 0.17438434 -0.074173376 -0.13564134 -0.12668322 -0.16249906 0.12319591 -0.034632552
0.14691018 -0.04791825 -0.07492216 -0.09193907 -0.11489424 -0.1886443 0.07906095 -0.16479918
0.04467545 0.0063475133 0.049906593 -0.08525593 0.015335793 0.10104541 -0.016619926 -0.17560379
-0.1270224 -0.013696996 0.09306057 0.051351786 0.006409067 0.021671435 -0.14358222 -0.03365732
0.049911577 -0.12855951 0.055498164 -0.07360979 0.13824508 -0.13007736 0.119530104 0.025065064
-0.09723357 0.09690167 0.07008189 0.021372069 0.13556701 0.05474199 0.06295447 0.08359061
0.14896524 0.12981445 0.007427834 -0.08251852 0.065065436 -0.013123133 -0.075672224 0.09905269
0.07123236 0.11964934 0.103636496 -0.07617196 -0.01604168 -0.08543971 0.077639475 0.024642171
-0.10555922 -0.05236493 -0.13553196 0.014713225 -0.13008872 0.030166222 0.010668701 -0.093764946
0.18270837 0.11603392 0.14885211 -0.09092165 0.08768658 -0.0074784746 0.09094012 0.13677026
0.095383994 0.061778344 0.08853877 -0.104643546 0.0691219 0.06094423 -0.12540889 -0.05911037
-0.09590649 0.07552737 -0.018571027 0.08481589 0.15569533 -0.053937502 0.123211764 0.062418893
0.044328358 0.0517831 -0.10263142 -0.11505901 0.15047652 0.07999961 -0.07891608 -0.03412967
0.085138634 -0.10618043 0.13042168 0.05675899 0.038415216 -0.12939021 0.011305863 -0.21986088
-0.07579497 -0.082060084 -0.04300715 -0.041364763 0.11790816 0.027731081 -0.116784655 -0.0033349206
-0.11098768 0.11502048 0.011051578 0.17089072 -0.1107313 -0.011644731 0.069997266 -0.025743755
0.098787494 -0.082524754 0.036100432 0.088550135 -0.081473306 0.028778043 -0.00938515 0.030208144
-0.062312327 -0.06180153 -0.100249425 -0.043798983 -0.07457441 -0.01723432 -0.10024628 -0.008372344
0.08236096 0.006031639 -0.06472275 -0.030374575 -0.054594353 0.07995316 -0.11802261 0.037802503
0.0055399914 0.1470965 0.07321722 0.14546774 0.10606902 0.05362138 0.043669656 -0.12632215

bias f4 [20]
00000000: 823d 853d e637 1cbd 4365 033e 4e2b 333d
00000010: 3631 0a3b 6050 d1bd 2654 21bd 61c4 83bd
00000020: 2710 043e 66aa 8d3d 0235 e3bd 545a 223a
00000030: 835b 05bc bf28 03be c592 323d b432 fe3b
00000040: dc93 71bd d48a 01be 6ce8 cdbc 4539 adbd
0.06505872 -0.038139246 0.12831597 0.04374247 0.002108646 -0.102204084 -0.03938689 -0.06433941
0.12896787 0.069172665 -0.11094095 0.00061932695 -0.008139494 -0.12808512 0.043597 0.007757509
-0.0589789 -0.12650615 -0.025135241 -0.08458189

weight f4 [10, 20]
00000000: 6927 fabd a90d 95be 1398 12be 05e2 ecbc
00000010: 8fa1 d7bd 9946 13be 706f acbd 9e4e 5f3d
00000020: 061f 5b3d d96c f53c 9b18 583e d3f8 6fbc
00000030: eb6f fd3d 6dc3 073c c800 123e 303f 80be
00000040: afb8 883d cd84 8fbe 80e2 713c b36d 8c3e
00000050: 7b25 bcbe 685c 033f 1454 95bd e1bc 933e
00000060: 3e45 2bbe 1374 d53d 3345 71be 8e83 5abe
00000070: da07 073e 07d5 fabe 7237 203e d12e 073f
00000080: 290c 0c3f 3bca 6c3e 1a00 ca3c 9635 993e
00000090: a8ed debe f51d 2e3f 6c98 763d 8bad 1d3e
000000a0: 6cdd efbd 2323 c5be 8061 d23e 4988 633d
000000b0: 4303 013e 002f 0fbf 54df 133e 869e 9dbe
000000c0: 3ee8 cd3e 4f80 62be 11fe 15bf 64ba a53c
000000d0: 2497 9abe 18fe d4be 0c07 503d 8951 193e
000000e0: 16c5 d23e 532f 363e a13c 6ebe e21e 68be
000000f0: 89b0 b33c 3cc7 793c 7d17 e3bb 05ba 2abc
00000100: de7e 603c 603b 7cbd 447c 203d 2ce4 a83c
00000110: 27c3 fbbb a108 bd3c 86ef 88bc 82fb d9bc
00000120: fd75 67bc a39d 4a3b 1bf8 1a3b 142b febb
00000130: d05c 093d a8c7 05bd 8948 bebb 07f7 40bd
00000140: 33bd bd3e b001 2a3e 061e 593e 5440 e0be
00000150: ec1f 12be ef58 0bbf 74a7 4abd 9f8a b73d
00000160: 105a 14bf 0d56 bc3e caf3 f73e 6fd5 62be
00000170: aaa3 1f3e 3605 873e a53e de3d dc2a 8e3e
00000180: 7415 15bd 9674 12bf f22a 5b3e 9b99 90be
00000190: f16c c53e eb77 d83e da33 acbe 3a9f c73e
000001a0: c269 e33d f84c 8d3e 1b57 603e a8c0 d63e
000001b0: 9f4b 06be da87 893e c71a 34be e9da c5bd
000001c0: c2ec 57bd c7c1 bebe 709b cd3e 3632 6a3e
000001d0: 35a7 763e ec12 e7be f38c 32be 219c 8ebd
000001e0: 3f1d 9b3c b60a f43c b1ec 4ebd 5763 703c
000001f0: 1526 15bd 8f5f 353c 3556 3fba 0f8a 933c
00000200: a0bd 643a b226 c53c 11f1 0d3d 3814 2abd
00000210: 7bf9 07bc 5036 ae3c 4ca4 923c 41d7 ab3c
00000220: 0d74 1c3d 0a0d 7fbd 21d2 4a3c 7e84 34bd
00000230: 8176 f4bd 8818 00bf 5b57 91be 82e0 02bf
00000240: dfd0 e1bd f262 c23e fdaa d1b8 e494 f13e
00000250: 7f94 38be dbbe bd3e 9b4a 11bd cc26 a13e
00000260: 4a9c 713e fbf3 a13d 13be 0dbf 5456 ebbe
00000270: a80b 9fbc 8cea 143f 170f 943e 60c5 fc3e
00000280: dcd9 d0be dc1e 8abe a079 eb3d be8b 86bb
00000290: 1730 ac3d ddfe 763e b9df 0f3d 0e13 f5be
000002a0: 0173 2f3e aa75 bbbe e04b a13e 68eb d9be
000002b0: d1be 88be a5ce 033e 1ce2 3abe 61d2 22bf
000002c0: a92c c9be ffe4 d6be 4c1e dd3c 381b 55bd
000002d0: 328d 1e3d 9cff dc3c 9e5a 943b c872 c23c
000002e0: 2521 30bd 0231 213d ddcb 07bd 3a5d 233d
000002f0: d52d b53c b470 0c3d e133 c7bc 43f1 a0bc
00000300: 75f9 82bc 7262 f53c 1ef0 8dba 5761 4f3c
00000310: 3b3d aabc 3484 98bc 0413 18bc 275a 32bd
-0.12214548 -0.29111984 -0.14315824 -0.028916368 -0.10528862 -0.143824 -0.084196925 0.054518335
0.053496383 0.02995913 0.21103136 -0.014646727 0.12374862 0.008286339 0.1425811 -0.25048208
0.066758506 -0.28031006 0.014763474 0.27427444 -0.36747345 0.51312876 -0.07291427 0.2885504
-0.16725633 0.1042253 -0.23561554 -0.21339247 0.13186589 -0.48990652 0.1564615 0.5280581
0.54706055 0.2312402 0.024658252 0.29923695 -0.43540692 0.6801446 0.060203955 0.15398233
-0.11712155 -0.3850337 0.41090012 0.055549894 0.125989 -0.5593109 0.14440662 -0.30785006
0.4021625 -0.22119258 -0.585908 0.02023048 -0.30193436 -0.41600108 0.05078797 0.1497251
0.4116599 0.1779149 -0.23265316 -0.22668031 0.021934764 0.015245255 -0.0069302903 -0.010420327
0.0137021225 -0.061580062 0.03918101 0.020616613 -0.007683176 0.023075404 -0.016715776 -0.026609186
-0.014127252 0.0030916713 0.0023646418 -0.0077566 0.03353578 -0.03266111 -0.0058069867 -0.047110584
0.3705841 0.16602206 0.2120286 -0.43799078 -0.1426999 -0.54432577 -0.049476102 0.08961987
-0.57949924 0.36784402 0.48428184 -0.22151731 0.15589777 0.26371163 0.10851792 0.27767074
-0.036397412 -0.57209146 0.21403101 -0.28242192 0.38559678 0.4227899 -0.3363331 0.38988668
0.11104156 0.27597785 0.21908228 0.4194386 -0.13114785 0.2686146 -0.1758834 -0.096608944
-0.052716024 -0.37257215 0.40157652 0.22870716 0.24087222 -0.45131624 -0.1743658 -0.06963373
0.018934844 0.029790264 -0.050518695 0.014672122 -0.03641327 0.011070146 -0.00072989176 0.018010167
0.0008725766 0.024066303 0.034653727 -0.04152319 -0.008299227 0.021266133 0.017900608 0.020976664
0.038196612 -0.062268294 0.0123792 -0.044071667 -0.11936665 -0.5003743 -0.2838696 -0.5112382
-0.11026167 0.37966114 -9.997746e-05 0.47183907 -0.18025397 0.37059674 -0.03547154 0.31474912
0.23594776 0.07907864 -0.55368155 -0.459643 -0.019414738 0.5817039 0.28917763 0.49369335
-0.40791214 -0.2697667 0.114978075 -0.004106014 0.0840761 0.2412066 0.035125468 -0.478661
0.17133714 -0.36613208 0.315032 -0.42562413 -0.2670808 0.12871797 -0.18250316 -0.6360226
-0.39291885 -0.41971585 0.026991986 -0.05202791 0.038708873 0.026977353 0.004527404 0.023736373
-0.04300036 0.039353378 -0.033153404 0.03988383 0.022116581 0.03428717 -0.02431673 -0.019646293
-0.015988091 0.029954169 -0.0010829007 0.012657485 -0.02078115 -0.018617727 -0.009281877 -0.043543007

bias f4 [10]
00000000: d760 943e 7465 943f 1542 723f 8721 2cbe
00000010: 71e8 5d3f 391b 703f e59c bcbd 1895 983f
00000020: a63e 803f 3216 29be
0.28980133 1.1593461 0.94632083 -0.16809665 0.866828 0.9379154 -0.09209613 1.19205
1.0019119 -0.16512373

weight f4 [1, 10]
00000000: f3d8 81be 831e 51bf 6553 74bf 9e21 943d
00000010: e52d 44bf 3108 66bf 2d1d d73b d427 44bf
00000020: 1b59 74bf 1256 dc3d
-0.25360832 -0.8168718 -0.9543975 0.072329745 -0.7663253 -0.8985625 0.0065647573 -0.7662327
-0.95448464 0.10758604
