Feaprotect/models/mobile_price/sc_h-talk_time-touch_screen-battery_power-four_g-three_g/ori/CLUB/model_1.pkl (torch, 14721 bytes, 11 tensors)

weight f4 [10, 1]
00000000: da81 e8bd a03a 7fbd 2f58 3a3f 8cb4 cabe
00000010: ba6c 49bf 227d 5fbe 95fd b6be 90b7 3d3f
00000020: bf42 a33e 001c 17bb
-0.11352892 -0.06231177 0.7279081 -0.3959087 -0.7868153 -0.21825078 -0.35740343 0.7410822
0.3188686 -0.002305746

bias f4 [10]
00000000: 30b3 b43e 50e0 e6bd 8034 9b3e 52cc 15be
00000010: 8e94 d9be 6a88 a1bd 4c0e 03be 85f5 5a3f
00000020: a7f0 4c3f 2617 4abf
0.3529296 -0.11273253 0.30313492 -0.14628723 -0.4249615 -0.07887347 -0.12798423 0.85530883
0.80054706 -0.7894157

weight f4 [40, 10]
00000000: d271 883e 5a3e 9abd 1b50 223e 6380 ffbd
00000010: 19b8 7fbe 902d 863e e638 47bd dedb 62bd
00000020: c600 0fbe d69f 0bbe 9a7e 8b3d e99e 42be
00000030: b53b 863d e6a8 77be 3f97 26be cca9 4e3e
00000040: b54f 7cbb 996a 723d 54ea 6fbe 2767 4bbe
00000050: 14ea 0a3d 4938 273e d14e 723e 79f6 283e
00000060: 8b41 63bc eaed 8fbd 7d72 d13d f818 8e3e
00000070: 42b1 40be e78d 7fbe 6e70 86be 9cd4 853e
00000080: a261 c0bd 8e80 2abe b6ad 8c3e b493 af3e
00000090: 9cfb 1d3e faa1 debd 9303 953d 158c 98be
000000a0: 6f1f 2a3e 0370 7ebe 2a6b 0c3e 629a bdbd
000000b0: 98c9 a13d 92cd 47be 9bcf a93e 4faf 6dbe
000000c0: 11fa 2a3d 87fe 4abe 51d3 943e afd5 fa3c
000000d0: aa21 50bd fb29 0b3e b79d 623e ab24 ee3d
000000e0: d5f2 a13d b6b7 23be 9f74 9a3e 3832 873d
000000f0: deee ee3d d3b4 2ebe 7474 4c3e f155 f93d
00000100: f23a 203d b24f 013e fe89 4cbc 35d1 7fbe
00000110: 1a54 3abd bf42 5dbe 23dd 153e 0c79 75be
00000120: d300 333e ee96 febc 874e 8abe e2ef 773e
00000130: 789d 133d 25a2 03bd 421f 67be 5f49 54be
00000140: 721a bdbc 47fe 5ebe acce 2a3e a235 353e
00000150: 3b50 11be d532 8bbd 724b 8cbe 27b0 57be
00000160: 4f6f 143e 0f84 cd3d 5dde acbd 98a5 bcbc
00000170: 3b92 6abe 063e f13b 67a8 81bd 2695 4fbe
00000180: 4603 5bbe 73be 32be 317b 973e e576 7d3d
00000190: 5a36 7fbb 49a3 43be 1455 00be fe13 823e
000001a0: bb0b 163e c34d fb3d d8c9 bfbb 2674 0cbe
000001b0: f096 0e3d 95cc 9fbe 28b2 6c3e 82fd 9f3e
000001c0: b4e8 f83d 6153 89be 5273 c8bd 7ed8 3ebe
000001d0: 9ed2 63be 3ada 84be ecde 93be e06d 95bd
000001e0: 42ef 5d3d cd9e 3dbe 0956 77be 0031 643e
000001f0: 0648 d8ba 0d92 aa3d cb06 77be f499 9cbd
00000200: cf56 453e 409c a0bb ab6e 4dbe f9c0 81be
00000210: f76f 683e 11e0 9f3c 3d08 6bbd d143 7abe
00000220: 015f b43e a8b3 0ebe 4b29 963e 321b 313d
00000230: 362d 893e 56e2 2dbe 303c 2cbc 4880 01bd
00000240: 06ad 86bc cfc9 8bbe ff8e d3bd 0df4 94be
00000250: 6804 193e 7f16 a5bd 4e0c 06be d034 303e
00000260: 0fba 373d 361e 943e 4bdf debd a514 383c
00000270: 56cc ffbd 5e0b fabd 166c 34be c5ca 86be
00000280: c2ba 6fbd b6c9 4cbe 9924 9f3e 2fcb 8ebe
00000290: 5bc0 6e3e 8242 473e 4b48 883e c7bb 2fbe
000002a0: 6e57 61be a83c 94be 6fd5 0bbe 027b 453e
000002b0: 9c4f 253e 6f76 6b3d d88e 12be 7ec2 edbc
000002c0: 2471 9abd 9e2b 6dbd c8fd 49bc 25d6 863e
000002d0: 881d ffbd 3878 ddbd 02fc 2b3e adb5 9fbd
000002e0: 57ee 4ebe e66d bdbd b0d5 babd 2234 8d3e
000002f0: abdc 99be faee acbd 0199 79be 2825 4ebe
00000300: fc63 83bd 8e7e e9bd f066 6dbe d4cf 74be
00000310: f91f 88be e44d 713d 6632 ae3d d313 993e
00000320: 95e0 a63d c728 75be c44b 963e 5399 7d3e
00000330: 3ad7 273e dbdc fe3d 3fc4 8f3e f6c7 71be
00000340: fb4d 433e 713e e9bb 30ee f43d 75c9 70be
00000350: ba79 2bbd 90b6 1fbe e649 42be 6580 463d
00000360: 6a30 73be 319e 5bbe 5e88 923e 982d f13d
00000370: 87a1 903e 047a 99bd f9c6 82bd e7e1 d6bd
00000380: d966 96bd 147b 2ebe 3ed3 14be 2d63 823e
00000390: 1ceb 103e 4356 19bd 0098 573e 1cca 60be
000003a0: 0bf0 90be aa38 42be ba34 10be c085 ab3e
000003b0: a698 90be e5f4 223e 55ad 4a3e 6042 5fbc
000003c0: 53fa 963e 12d9 be3d 266f 1b3e bd70 a83c
000003d0: 5d32 8e3e f7ba 073e 46cf 853e 4726 65bd
000003e0: f33a 9fbd 9cd4 12be 6743 99be f8df 493e
000003f0: d3d4 07be a4cb 943e e5e5 cd3c 4b6c 1c3e
0.26649338 -0.07531424 0.1585087 -0.1247566 -0.24972571 0.26206636 -0.048638247 -0.055385463
-0.13965139 -0.13635191 0.06811257 -0.19005932 0.06554357 -0.24185523 -0.16268633 0.2018196
-0.0038499658 0.05918369 -0.23429233 -0.19863568 0.03391464 0.16330065 0.23662879 0.16500272
-0.013870607 -0.070278004 0.10226915 0.27753425 -0.18817618 -0.24956475 -0.26257652 0.2613877
-0.09393622 -0.16650602 0.2747628 0.34292376 0.15428013 -0.10870738 0.07276072 -0.29794374
0.16613553 -0.24847417 0.13712755 -0.09257962 0.07899779 -0.19512013 0.33166203 -0.23211406
0.04174239 -0.19823657 0.29067472 0.03061947 -0.050813355 0.13590233 0.22130476 0.116280876
0.07907645 -0.15988049 0.301671 0.06601375 0.11666654 -0.17061166 0.19966298 0.12174595
0.039118715 0.12628058 -0.012484072 -0.2498215 -0.04549036 -0.21607493 0.14635138 -0.23971957
0.17480783 -0.031077828 -0.27013037 0.24212602 0.036038846 -0.032137055 -0.22570518 -0.20731114
-0.0230839 -0.21776687 0.16680402 0.1769624 -0.14190762 -0.06796805 -0.2740131 -0.2106329
0.14495586 0.10034954 -0.0844085 -0.02302818 -0.22907345 0.00736213 -0.06330948 -0.2027174
-0.21387967 -0.17455463 0.29586175 0.061880965 -0.0038942308 -0.19105257 -0.12532455 0.25405878
0.14652912 0.12270691 -0.005852919 -0.13716182 0.034811914 -0.3121077 0.23114836 0.312481
0.121537596 -0.26821426 -0.097876206 -0.18637273 -0.22248313 -0.25947744 -0.28881013 -0.072963476
0.054183252 -0.18517609 -0.24153914 0.22284317 -0.0016500957 0.08328638 -0.24123685 -0.07646552
0.19271396 -0.004901439 -0.20061748 -0.2534254 0.22698961 0.019516023 -0.057380904 -0.24439932
0.35228732 -0.13935721 0.2932838 0.043238826 0.26792306 -0.16980872 -0.010512397 -0.03161648
-0.016439926 -0.27302405 -0.10330009 -0.29092446 0.14943087 -0.080609314 -0.13090631 0.17207646
0.044855174 0.289293 -0.108824335 0.011235391 -0.12490146 -0.12209199 -0.17619357 -0.26326576
-0.058527716 -0.19998822 0.3108261 -0.27889392 0.23315565 0.19458964 0.26617655 -0.17161475
-0.22006008 -0.28952527 -0.13655637 0.19285205 0.1614365 0.057485994 -0.14312303 -0.029023405
-0.07541111 -0.057902925 -0.012328573 0.26335254 -0.124568045 -0.108139455 0.16795352 -0.07798324
-0.20208107 -0.09249477 -0.09122789 0.27578837 -0.3005117 -0.08444019 -0.24374773 -0.20131361
-0.06415555 -0.114010915 -0.23183799 -0.23907405 -0.26586893 0.058912173 0.085057065 0.29897937
0.081483044 -0.23941337 0.2935468 0.2476552 0.16390696 0.124444686 0.2807941 -0.23611435
0.19072716 -0.0071180393 0.11959493 -0.2351435 -0.041864134 -0.15596986 -0.18973503 0.04846229
-0.23748937 -0.21447064 0.28619665 0.117762744 0.28248236 -0.07493976 -0.06385607 -0.10492306
-0.073438354 -0.17039138 -0.14533707 0.2546629 0.14152187 -0.03743578 0.21054077 -0.21952099
-0.28308138 -0.18966928 -0.14082614 0.3350048 -0.28241462 0.15913732 0.19792683 -0.013626665
0.29487857 0.093187466 0.15179119 0.02056157 0.277728 0.13254915 0.261347 -0.055944707
-0.077749155 -0.14338917 -0.29934236 0.19714344 -0.1326478 0.29061615 0.025134036 0.15275685

bias f4 [40]
00000000: d1c8 6cbe f4c8 4abe 4776 5a3e fc39 fa3d
00000010: 1519 91be d63b a53d 0105 833e bf78 d7bb
00000020: 2b6d 53bd 778b 033e 8988 6bbe 2e59 463e
00000030: 08a0 82bd 1055 533d 9702 9bbd 601d 3fbe
00000040: 3f05 32bc 8b86 1d3e 20d6 193e b29f 8c3e
00000050: 1a6f f93d 5621 c73d 8c2b fcbd 45aa d6bd
00000060: 8fc2 3abd 5ed3 90be ce7d 19be 33cb a5bd
00000070: 3d33 903e 0177 e4bd 4798 2d3d dc4a 30be
00000080: 9ae6 9dbe 78e4 debc c672 013d c40c 533e
00000090: 84fc 5ebe 7e46 35be c7fd 843e b3aa 53be
-0.2312348 -0.1980322 0.21334182 0.12218091 -0.2833945 0.080680534 0.25589755 -0.0065756734
-0.051617783 0.1284617 -0.23001303 0.19369957 -0.0637818 0.051594794 -0.07568853 -0.1866355
-0.010865509 0.15383355 0.15023088 0.27465588 0.12179394 0.09723155 -0.123129934 -0.10481695
-0.0455957 -0.2828626 -0.14989397 -0.08095398 0.28164092 -0.11155511 0.04238155 -0.17216057
-0.30839998 -0.027208552 0.031603597 0.20610338 -0.21776015 -0.17702672 0.25974867 -0.20670585

weight f4 [20, 40]
00000000: eeed 6ebd 4e34 453d ace7 283e b7a7 a9bd
00000010: ed7e 76bd 090a a33d 6e2a a3bd cd96 b8bd
00000020: a5fb b8bc 5377 bf3d 8886 26bd 293b a73d
00000030: 9d6f 123d baaf 683d 5fb8 7d3c 7fbc 86bd
00000040: f9e0 8c3c 88d6 be3d eb9b 553d bd4a 07be
00000050: b936 09bd e349 7abd 94ac d63d cff3 8fbd
00000060: 8d7c 313d c684 9bbd 6c5f 873c b6d0 2abc
00000070: a8d9 babd 8089 383d 8b61 1fbd 9d33 1dbc
00000080: e26b 613d 417d c2bd 4c12 f13d 9c54 3c3d
00000090: 9367 c63d dc83 94bd 34a2 30bc f116 92bd
000000a0: 79d3 d4bc b154 193e e5a2 07be a80a 9cbc
000000b0: e0d3 ef3c aae5 91bd 7f42 05be 0014 d03d
000000c0: 276a 30bc 2717 a9bd 4560 9fbd 4940 77bb
000000d0: b865 b03d a902 7c3d e18b ec3d 320e 213d
000000e0: 257f d4bd 4181 0fbd 248e 99bd 5049 ebbd
000000f0: 45b4 a03b 7327 7abd c57e 90bd 738c bdbd
00000100: d32c ad3d 009a 203c 1296 07be dfc0 653d
00000110: 8db6 2b3e 593d c6bd 475e e73d f1a7 ab3c
00000120: 8adb e8bd aa0f 063e ab99 853d 2507 1ebc
00000130: 55c7 08be 9511 9fbd c465 3cbd d637 fabc
00000140: def9 883d 6c08 f53d 652e dbbd 3e3b 233d
00000150: 83c3 063e 76bf 003e 6b56 a83d 5b27 b7bd
00000160: f3b0 f33d 2160 e4bd fd61 463d 21a0 30bd
00000170: 7281 f83d 8b5c 81bc eb7a 3aba 7d3c 053e
00000180: b994 a2bd 22d2 4cbd ecbe ff3d 862e 3b3d
00000190: 8c83 18be 0472 b83c 61b8 1e3e 61e7 02be
000001a0: d3d1 07bb 18f4 183c 9476 ad3d 80b2 693c
000001b0: 4163 fa3c 0a8f 433d e4ba 7dbc a60f 00be
000001c0: f357 d2bd a97f a93c 33e9 89bd c30f 193c
000001d0: 4b56 4cbd 09b7 f43d ce17 dabd a33c 0bbd
000001e0: c565 3a3d 93b6 433d bbde 0a3e 65dc 903d
000001f0: 1de4 a73d 4336 38bd 7345 eebd 4292 9dbd
00000200: ba4c 20bc a225 413d cb6e 22be fd05 c73d
00000210: 7f5d 6f3d f078 06bd df32 cbbd e51f f13d
00000220: ad30 03be 340a 523c 370a a63c c586 b53d
00000230: 7fa4 d1bc 895b 6e3d 1094 3ebe 394a ff3c
00000240: 16cf 293e 9c11 03be c8cb af3d faa3 353d
00000250: b4e2 093e e652 23bc 9674 babd 387e f73d
00000260: 7705 a2bc f9da c2bd 99ca 173d 2890 92bd
00000270: ef9c dbbd 8e97 513d 0a5a dd3d b25b ca3d
00000280: 5368 01be b6d4 e23d 970f 78bc ec8b 263e
00000290: f711 6a3d bb7f 873d caf7 243b 56e1 fc3d
000002a0: e7c1 3c3e f7f6 40be 9cb4 b53d e6fa f03d
000002b0: 2b99 d7bd 94f1 433d e0ef e8bd d5c6 f53d
000002c0: 1984 b0bd 87bd cd3c d928 9bbd ec5e 6c3d
000002d0: a886 f8bd 42bb d1bd edfc 423d 6d94 c03d
000002e0: a5f4 33b9 164b c6bc 1dcd a5bd d6f5 bfb9
000002f0: 312e 41bd 5bc7 ffbd 782f a73d 5121 1a3d
00000300: 4d11 a1bd fda1 2bbd 5e3a 01bd 8e08 2fbe
00000310: 6d69 fcbd 564d d8bd 856b 9ebd 8a3f 67bd
00000320: 1ec3 cc3d c67b 433d 94fc d8bd ef09 08be
00000330: 91af cdbd 55cf e83c e0e2 bebc 96d7 fcbd
00000340: 9d96 0fbe 0360 ce3d 77b4 b03d 0e0e 9b3d
00000350: 35e5 8d3d ecc8 bb3d c38b 5bbd d01d 16be
00000360: b843 a93d a5d5 063e d45e 013e 5e0d d1bd
00000370: 9789 ea3d ec83 433d 50ba a0bd 9e87 7abc
00000380: de41 1c3d 33d1 743d fecc 09bd b21b 223e
00000390: c142 043e fc03 98bc 30c0 90bd 636b c9bd
000003a0: 189d 843d b515 85bd 5721 0bbd 2d07 bfbc
000003b0: c350 a0bc 1611 8c3d 4eb1 073e 930d 1bbd
000003c0: 921f 7ebc 81e9 a53d 672e fabd b2b1 08bd
000003d0: 49f3 57bc bc5c ec3c d2a5 703d 5844 b1bd
000003e0: 91e2 4a3d 44e0 903d 44fc 12bd d398 0cbe
000003f0: 55e2 75bd a404 393d 7811 e23d 94f4 c33d
-0.058332376 0.048145585 0.16494626 -0.08283942 -0.06017964 0.079608984 -0.07967077 -0.09013138
-0.022580931 0.09348931 -0.040655643 0.08165581 0.035750974 0.05680821 0.015485852 -0.065789215
0.01719712 0.09318262 0.052150648 -0.13212104 -0.033499453 -0.06110562 0.104821354 -0.07028925
0.04333167 -0.07593684 0.016524993 -0.010425737 -0.09123546 0.045053005 -0.038911384 -0.009594825
0.055034526 -0.094965465 0.11771068 0.045979127 0.09687724 -0.07251713 -0.01078086 -0.07133282
-0.025979744 0.14973713 -0.13245733 -0.01904805 0.029275835 -0.07123883 -0.13013647 0.10160065
-0.010767496 -0.08256369 -0.07782034 -0.0037727526 0.08613151 0.061525974 0.11550117 0.03932018
-0.103758134 -0.035035376 -0.07497814 -0.114885926 0.0049043023 -0.061072778 -0.07055429 -0.09255304
0.08455815 0.009802341 -0.13240841 0.05609214 0.16768856 -0.0967967 0.11297279 0.020954104
-0.11369999 0.13091913 0.065234505 -0.009645258 -0.13357289 -0.077670254 -0.04599549 -0.030544203
0.066882834 0.11964497 -0.107022084 0.03985142 0.1316052 0.12573037 0.08219608 -0.08943053
0.11898985 -0.11151148 0.048433293 -0.04312146 0.12134065 -0.015791198 -0.0007113653 0.13011356
-0.07938523 -0.050005086 0.12487587 0.045698665 -0.14893931 0.022515304 0.15500022 -0.12783577
-0.002072443 0.00933554 0.084698826 0.014263749 0.030564906 0.047743835 -0.015486453 -0.1250597
-0.10270681 0.020690756 -0.06733932 0.009342137 -0.049886983 0.11948974 -0.10649072 -0.033993375
0.04550721 0.04778154 0.13561527 0.07073287 0.08197806 -0.044973623 -0.1163434 -0.07693912
-0.009783918 0.04715503 -0.15862577 0.09717939 0.058438774 -0.03283018 -0.09921812 0.117736615
-0.12811537 0.012819815 0.020268543 0.08863596 -0.025591133 0.058192763 -0.18611169 0.031163322
0.16582903 -0.12799686 0.0858379 0.044345833 0.13465387 -0.009968495 -0.09104268 0.12084621
-0.019777996 -0.09514422 0.037058447 -0.07156402 -0.10723292 0.051169924 0.10808189 0.09880771
-0.12637453 0.11075728 -0.015140436 0.16264313 0.05714604 0.066161595 0.0025172108 0.12347667
0.18433343 -0.1884421 0.08872339 0.11766605 -0.10527261 0.04783781 -0.113738775 0.12000815
-0.08618946 0.025114788 -0.075761504 0.057707712 -0.12135059 -0.10240795 0.04760449 0.0940331
-0.00017161907 -0.024205726 -0.08095763 -0.0003661352 -0.047163192 -0.12489196 0.08163351 0.03762943
-0.07864628 -0.04190253 -0.031549804 -0.17093107 -0.12324796 -0.10561626 -0.077353515 -0.05645708
0.09998153 0.04772546 -0.105950505 -0.1328504 -0.10043252 0.028419176 -0.023301542 -0.12345807
-0.14022298 0.100769065 0.08628171 0.0757104 0.069284834 0.09169182 -0.053600084 -0.1465981
0.082648695 0.13167436 0.1263383 -0.10207628 0.114520244 0.047733232 -0.07848036 -0.015291123
0.038148753 0.05976982 -0.03364276 0.15830877 0.1291609 -0.018556587 -0.07067907 -0.098349355
0.06475276 -0.06498281 -0.033967342 -0.023318851 -0.01956976 0.068391964 0.1325123 -0.037854742
-0.015510457 0.08101178 -0.12215882 -0.03337259 -0.013180562 0.028852813 0.05875189 -0.08655614
0.049532477 0.07074025 -0.03588511 -0.13730173 -0.0600303 0.04517044 0.11038488 0.09568134

bias f4 [20]
00000000: 7999 2abd f5f4 09bd 6363 ea3d 6837 7cbd
00000010: 8381 d63d bcad c2bd b09c fbbc 870e 863b
00000020: cb01 b9bc 8a05 e73c d9f8 0f3e d8a7 02be
00000030: 10c7 8cbd 7ba3 05be d227 b3bd 4cf8 843d
00000040: b02d cb3b 4d4e 913c cd60 093e afe2 e23d
-0.04165027 -0.033680875 0.11444738 -0.061576277 0.10473921 -0.095057935 -0.030714363 0.0040910873
-0.022583863 0.028200883 0.14059772 -0.1275934 -0.06873906 -0.13050644 -0.087478295 0.06492671
0.0062005147 0.017737532 0.13415833 0.11078393

weight f4 [20, 40]
00000000: 9a29 b1bd fa88 1c3d e565 953c ea5d 06be
00000010: 658e ca3d d868 24bd 863d 95bd 1199 bbbd
00000020: c78b 943d 55ee 31bd 6745 32bc d55f 3fbd
00000030: d8a2 a93d 92c9 893d a059 10bd 1497 dbbd
00000040: 7d44 dfbc e7b3 b53c 9b3b 4d3c f1d3 9bbd
00000050: 4afb 6f3d 6c5c f0bd c172 29be c27b 863d
00000060: cd5e c6bd 9a9e bfbd f6a1 efbd 7064 60bc
00000070: a8a1 e83d 6e8d 593d 4340 003d d221 6cbd
00000080: dd01 bc3d 885f f2bd d274 c9bd 9d77 4fbe
00000090: 3336 12bc 56c5 8d3d 36fa 21bd 4d86 203e
000000a0: 4e1d 343e b438 55bd c8d9 9cbd 35a8 9f3d
000000b0: 1d03 18be 1909 df3c 3369 d2bd 7ec9 88bd
000000c0: c842 e1ba 8bb8 0e3d 22a3 a23d 927e 83bc
000000d0: a421 2dbe c72d d43d 9588 013d afc7 d9bc
000000e0: 47a7 75bd b20f 273c f8b0 d63d 4753 1bbe
000000f0: 88f6 2ebc 252e 6cbd 2fe4 acbd 3aae 4c3c
00000100: 0ef3 6dbd 6bcb 0dbd aeb4 3cbd ad72 53bc
00000110: 2466 4cbd 35cd 86bd 8a41 8c3c ce97 a5bd
00000120: 101e 933d a5ad ab3b 4329 aebd 7289 94bc
00000130: 33f7 20bd cc91 583d 7692 ba3c f1cb b53b
00000140: a13a 0bbe 719d 9e3d d638 41bc 5cbf 21bd
00000150: f715 1ebd 30c5 e83d 12e2 9cbd 6e91 6fbd
00000160: 23ee bd3d 7cbf 9c39 7989 56bd b024 223c
00000170: dddb 9cbd 0403 f2bd aaca 30bc 346f 593d
00000180: ae87 1cbe 06e4 223d 5a57 193e fc12 d43b
00000190: 125f a0bd 7daa 3e3d 7265 00be 2493 01be
000001a0: 39ca 3d3d 9ccf 053d 3a6a 163e 35b1 67bd
000001b0: 52f6 123d 44f5 843d b695 35bc b0eb 9a3d
000001c0: 03bc 31bc 059b 0cbe 65f6 ee3d 0353 05bd
000001d0: bc6e aabd 237d fabd 4ccd 02be 6324 4e3d
000001e0: bf8f bbbd 2a6e aabd ac91 d5bc acb0 763d
000001f0: 0647 e53c dbc4 98bd aaff c2bd a231 893c
00000200: f55d c5bd 37a3 46bd f6fb c73c cfd7 033c
00000210: a4fe 8bbd 09c2 0abd 6f76 cfbb 65ba 193e
00000220: 58dd 01be 6856 993d a04d 28bd 624e dcbd
00000230: 6d0a d03a 3a9a 0c3e 0735 1b3e 9a78 a53d
00000240: 26c5 413d f8b0 2cbe 8191 c73d 51c1 293d
00000250: 36d8 e0bd 94b6 eebd a1c6 56bd 60d6 103e
00000260: 7377 74bd 1a47 e2ba 0252 1cbd 97d1 81bd
00000270: 3407 88bd 0d3b 20be 6f76 0e3e 746c 963d
00000280: a9da 2bbd c1c8 d0bd 1ce7 12be 9374 babd
00000290: 971d b13d a996 60bd 96fa c0bd 0ece 903d
000002a0: 63eb d33c ef64 c8bd c2cf 45bb a73f 30bd
000002b0: b86e 183d a017 953d 73e3 e33d af28 b3bc
000002c0: 2d3c 46bd cebf 003c e99a 9c3d ee61 b1bb
000002d0: a237 94bd 65f8 f73d 64d9 0abe ec3d 05be
000002e0: bf7e 9c3d 01ae 93bd 18f9 033e ab53 bb3d
000002f0: 8f47 dc3d 91f9 a0bd 1e39 8d3d 5f78 d63d
00000300: e9b2 a2bc 0918 85bd ddee a8bd 0127 1cbe
00000310: 093c 3dbd 33a4 18bd a1ef efbd bd52 19be
00000320: f5c5 2c3d da82 b13d e298 4e3d c741 ac3d
00000330: 6085 b1ba 1d25 3bbd 40f4 afbd bc6e 673c
00000340: 371d 43bd 0974 973d 4480 fcbc 57c4 943d
00000350: 9eeb e03c 1eca e7bd 4426 d73d eb77 4b3d
00000360: 1795 84bd 913b 2bbe 8043 fb3d a37a a3bd
00000370: ef36 003e a782 aa3d 8fdf d7bd 51ab 763c
00000380: 434a e8bd ac3d 0a3e fc9c 8e3d 3a6e bdbd
00000390: fb28 8abc 5b60 ed3d ec37 e5bd 98b9 b23d
000003a0: 64b8 03be 23d4 0d3e e7c8 e83c 0e28 373d
000003b0: 8c21 04be 8d2c cf3d 665c 27be 0210 b63d
000003c0: 5bc1 343e 7610 6b3d 60bd b53d 13ac a63d
000003d0: b459 acbd a26c 2abe 5313 83bc bde9 31bd
000003e0: d7b8 fe3d 33a3 8d3b 6357 4b3c cf8c e83d
000003f0: d15c bcbc 0845 0ebd b960 183e 61c6 e8bd
-0.08650513 0.03821657 0.018237064 -0.13121763 0.09890441 -0.04013905 -0.07287125 -0.091600545
0.07253223 -0.04344018 -0.010880805 -0.046722252 0.08283013 0.067278996 -0.035241723 -0.10722175
-0.027254337 0.02218051 0.012526418 -0.07608784 0.058589257 -0.11736378 -0.16547681 0.06566574
-0.096860506 -0.09356423 -0.117008135 -0.013695821 0.113589585 0.053113393 0.031311285 -0.05764944
0.09180043 -0.118346274 -0.09836735 -0.20260473 -0.008924055 0.069224045 -0.03954526 0.15676232
0.17589304 -0.05205603 -0.07658726 0.07795755 -0.14844938 0.027226018 -0.102739714 -0.066790566
-0.001718604 0.034843963 0.07941271 -0.016051564 -0.16907364 0.10360294 0.031624395 -0.026584474
-0.05997398 0.010196613 0.10482973 -0.15168487 -0.010678895 -0.057661194 -0.0844196 0.012492711
-0.058093123 -0.034617823 -0.046070747 -0.012905759 -0.049902096 -0.06582109 0.017121095 -0.08085595
0.07183468 0.005239206 -0.08503964 -0.018131945 -0.039298248 0.052873418 0.022774916 0.0055479934
-0.13596584 0.07744873 -0.011793336 -0.039489135 -0.038595166 0.113657355 -0.07660307 -0.058488302
0.092739366 0.00029897306 -0.052377198 0.009896442 -0.07659123 -0.118169814 -0.010790506 0.053084567
-0.15286133 0.03976824 0.14974728 0.0064719897 -0.07830633 0.04654931 -0.12538698 -0.12653786
0.046335433 0.032668695 0.1468896 -0.056565482 0.03587944 0.06492093 -0.011083057 0.07564485
-0.010848048 -0.1373101 0.1166809 -0.03254987 -0.08321902 -0.12230899 -0.12773627 0.05032767
-0.09158277 -0.083217934 -0.026070438 0.06022708 0.027987968 -0.07459422 -0.0952142 0.0167473
-0.096370615 -0.048495498 0.024412137 0.008047058 -0.06835678 -0.033876453 -0.006331257 0.1501251
-0.12682092 0.07487184 -0.041089654 -0.10757138 0.0015872248 0.13730708 0.15156947 0.080796435
0.047307156 -0.16864383 0.097445495 0.041444127 -0.10978739 -0.11655918 -0.05243552 0.14144278
-0.05968423 -0.0017263622 -0.038164146 -0.06338804 -0.06641999 -0.15647526 0.13912366 0.073449045
-0.041956577 -0.10194541 -0.14345974 -0.09104266 0.08648222 -0.05483118 -0.094227955 0.07070552
0.025869077 -0.097848766 -0.0030183648 -0.043029454 0.037214965 0.07279897 0.11127367 -0.021869985
-0.04839723 0.00785823 0.07646734 -0.0054132855 -0.072371736 0.12107924 -0.1355949 -0.13011903
0.076413624 -0.07210923 0.1288799 0.09146818 0.10755836 -0.07860101 0.0689566 0.10472178
-0.019860702 -0.06498725 -0.082486846 -0.15249254 -0.046199832 -0.037265968 -0.117156275 -0.14972968
0.042180974 0.08667536 0.05043877 0.084109835 -0.0013543777 -0.04568969 -0.08591509 0.014125522
-0.047635283 0.07395179 -0.03082288 0.07264011 0.027456101 -0.11317848 0.105053455 0.04967491
-0.06473749 -0.16721942 0.12268734 -0.079823755 0.12520956 0.08325701 -0.10540687 0.015055493
-0.11342289 0.13500088 0.06963536 -0.0924954 -0.016865244 0.11590644 -0.11192307 0.087268054
-0.12863308 0.13850455 0.02841611 0.044715934 -0.12903422 0.10115919 -0.16343841 0.08889772
0.17651884 0.057388745 0.08874011 0.08138289 -0.08415547 -0.16643003 -0.016000425 -0.0434358
0.12437599 0.0043224334 0.012410971 0.11354982 -0.022993477 -0.034733802 0.14880647 -0.11365963

bias f4 [20]
00000000: f98e b43d a1b1 873d 44a3 9c3c afa2 3ebd
00000010: c0fb 8e3d d014 fc3d ba89 08bc a502 683c
00000020: 49eb 023d 9973 993d 251e 0f3d 9830 7fbd
00000030: b6ef b6bd db41 f2bd 1120 e33d 3eca ffbb
00000040: e915 09bd a69e 88bd d1f3 b93d 85d7 5b3d
0.08816332 0.06625677 0.01912082 -0.046541866 0.06981611 0.12308657 -0.008333618 0.014160787
0.031962667 0.07492752 0.034940857 -0.062302202 -0.0893244 -0.11828967 0.110901006 -0.0078060916
-0.03346816 -0.06670885 0.090797074 0.053672332

weight f4 [10, 20]
00000000: b084 933c c604 5fbd 50e8 303d 8731 a93c
00000010: 0d40 0dbd 553e 0c3d 6a7a b53c 690e 28bc
00000020: bc92 563c 9cef 57bd 59fd 1f3c 31f0 1b3b
00000030: 82b7 3dbd a203 4a3d 9f75 533a fa6b 5dbd
00000040: 1d43 8cbb 5215 2a3d a9e5 f93c 9928 6bbd
00000050: 7e85 a8be adc8 89be 1d71 db3e bbab 96be
00000060: 097c 5b3e 9cba 9cbe 7344 2e3e 68f9 1bbf
00000070: 8f08 8bbe a920 b63e e05f c7be 52f0 23be
00000080: 8c20 b93e 2d4a d0bd 8f3c 053f 216d 4dbe
00000090: ed00 db3d 1236 21bf 721a 12bf cadb cebe
000000a0: 2e9a aa3c 34fa c5bc cc0e 5f3c 0605 743c
000000b0: 8329 ec3c b08b 5abc 2edd 553c faa9 23bb
000000c0: a4c8 24bc 9e31 9f3c e8cd 913c 1fc6 cf3c
000000d0: 5dbe f93c fb44 7f3c 1be0 943c 8e57 6dbc
000000e0: 2c92 c4bc 0e0f 963c 0264 6fbb fe97 8bbc
000000f0: 67f6 f8be d14e 833e 8ea6 b63d 8238 e5be
00000100: 34de 04bf 24e2 8a3e a889 283e 54a7 62be
00000110: 648e 0d3f cb1a 05bf 4731 bf3e 13b5 eabd
00000120: 6d76 fdba 0bab 0d3f fda8 023f 1960 f1be
00000130: 0263 bfbe d58f 783e 6710 873e efb4 863d
00000140: 0225 063f d002 fdbe 5b45 bdbe 3259 c93e
00000150: e8a3 c73e 73fa 24bd 794e 043e 4e52 253f
00000160: 3b17 a9be 01fd b83e c31c 13bf 726c ad3e
00000170: 262a 80be 71be a03d a7f5 8c3e 3a17 f2be
00000180: aa26 8d3e 5b36 4ebe d629 003f 8ac3 98be
00000190: 7712 42bd 15b6 57bc f76f a6bc de75 c8bc
000001a0: 87c9 6b3b b09a fdba 9d1d 16ba 8c6f 04bd
000001b0: e2ee 783b 86c0 10bc 8604 c1bc 9736 ba3c
000001c0: 2189 0bbd 5252 4bbb b34c 8bbd 52da c33b
000001d0: 904e 0a3b 5611 f53c 1e77 11bc ce48 d7bc
000001e0: 3301 ea3e fa03 cb3d d547 de3d 83ce c53e
000001f0: d787 0cbf 533c 9dbc 13d3 813e 3d2d 653e
00000200: 61bb 49be 89c8 5b3e 5b49 cf3e a22f b13d
00000210: 1864 9a3e 4b31 733d 41cd babe 8751 eb3e
00000220: eb6f e4be 7f4f ca3e b31e 4dbe 8f7b 933e
00000230: efed 953e b132 08be 528e 913e 8d39 a5bd
00000240: eaa1 ec3e df9f a53e e5b6 4bbe d9cb debd
00000250: d344 073f 6f2b f83d 219e 373c 1e6f d63e
00000260: 97e1 e5be 82b3 b93e b93f 72be 3cc9 c13e
00000270: 3981 4f3e 4c4e 53be 9d0c d7be af01 abbe
00000280: 671f f2be 7d1e 043f d6f7 26bf 41d2 663d
00000290: 962f 533e 6441 40be 30e0 d7be 6952 233b
000002a0: f477 3fbe 0003 b5be 5bee 6dbe 45f5 1cbf
000002b0: 6daa 99be 45c6 3dbf 3089 e9be c492 ed3d
000002c0: 52e6 dd3e da33 02bd b299 d33e e7f3 fd3e
000002d0: 2acc b6bc 5934 923d 9251 c43c eac2 debb
000002e0: 53e3 1dbd 6855 d439 f904 70bc 54b5 003d
000002f0: 3d6d 5f3c 8f92 52bc ecdc 4a3d 136b 543c
00000300: 9f7e 7a3d 0f90 09bb fc1d 47bc 95b9 313b
00000310: e3d1 e43a 0ced f13c d0bc 313c fe46 073d
0.018007606 -0.05444791 0.0431903 0.0206535 -0.03448491 0.034239132 0.022153098 -0.010257342
0.013096508 -0.052718744 0.009764993 0.0023794288 -0.046317585 0.04931987 0.0008066538 -0.054058053
-0.0042804615 0.04152424 0.030505018 -0.057411764 -0.32914346 -0.26910916 0.42859736 -0.29427895
0.21434034 -0.30611122 0.17018299 -0.6092744 -0.27154967 0.35571793 -0.38940334 -0.16009644
0.36157644 -0.10170398 0.5204553 -0.2006116 0.10693536 -0.6297313 -0.570716 -0.4040206
0.020825472 -0.024167158 0.013614368 0.014893776 0.028828388 -0.013338968 0.013053222 -0.002497314
-0.010057602 0.019432839 0.017798379 0.025363026 0.03048628 0.015580411 0.018173268 -0.014486207
-0.023995481 0.018317726 -0.0036528115 -0.017040249 -0.4862549 0.2564607 0.089184865 -0.44769675
-0.51901555 0.27125657 0.16458762 -0.22134143 0.55295396 -0.5199401 0.37342283 -0.114603184
-0.0019337662 0.55339116 0.51039106 -0.4714363 -0.37380224 0.24273618 0.26379701 0.06577479
0.5240022 -0.49416208 -0.36966977 0.39325863 0.38992238 -0.04027791 0.1292056 0.6457871
-0.33025536 0.36130527 -0.5746576 0.338718 -0.25032157 0.07848824 0.27531168 -0.47283345
0.2756856 -0.20137922 0.50063837 -0.29836684 -0.04738089 -0.01316597 -0.02031706 -0.024470266
0.0035978274 -0.0019348469 -0.00057264586 -0.032332942 0.0037984182 -0.008834964 -0.023561727 0.022731109
-0.034066323 -0.0031024409 -0.068017386 0.0059769535 0.0021103956 0.029915493 -0.008878497 -0.026279833
0.4570404 0.09912868 0.108535446 0.38634118 -0.54894775 -0.019193804 0.2535635 0.22380538
-0.19700386 0.21463217 0.40485653 0.08651663 0.3015449 0.05937318 -0.3648472 0.45960638
-0.44616637 0.39513776 -0.20031242 0.28805205 0.2928309 -0.13300587 0.28428894 -0.080676176
0.4621728 0.32348534 -0.19893987 -0.108787246 0.5283939 0.12117659 0.011207134 0.4188165
-0.44898674 0.36269766 -0.23657121 0.37848842 0.20264138 -0.20635337 -0.4200181 -0.33399722
-0.47289583 0.5160902 -0.6522192 0.056352858 0.20623621 -0.18774945 -0.4216323 0.0024920946
-0.18698102 -0.3535385 -0.23235457 -0.6131175 -0.30012837 -0.7413066 -0.45612478 0.11600259
0.43339783 -0.03178773 0.41328198 0.49600145 -0.02231415 0.07138891 0.023964677 -0.006798138
-0.03854687 0.00040499424 -0.014649623 0.031422928 0.013636884 -0.012852325 0.049527094 0.012964982
0.06115591 -0.0020990407 -0.012153145 0.0027118672 0.0017457571 0.029531978 0.010848239 0.033026688

bias f4 [10]
00000000: 04fc bcbe 66b9 a33f 0d44 0dbe 024d 7a3f
00000010: f9db a23f 2390 69be f85f 773f 0fad 813f
00000020: 0393 a13f 9475 68be
-0.36911023 1.2790954 -0.1379549 0.97773755 1.272338 -0.2280889 0.9663081 1.0130938
1.262299 -0.22701102

weight f4 [1, 10]
00000000: 5bda 1c3e 590a 3bbf b3ca 0b3e 7a3c 5ebf
00000010: 238b 46bf 41f8 ec3d 3176 83bf 028d 4ebf
00000020: 49fe 49bf 4755 203e
0.15317671 -0.73062664 0.13651542 -0.8681103 -0.77556056 0.11570788 -1.0270444 -0.8068391
-0.78903633 0.1565753
