Feaprotect/models/mobile_price/sc_h-talk_time-touch_screen-battery_power-four_g-three_g/ori/VarUB/model_0.pkl (torch, 14721 bytes, 11 tensors)

weight f4 [10, 1]
000000 c8 d2 6a 3e 00 95 a5 3d 72 c9 21 bf 44 74 88 39
       0.22931969 0.0808506 -0.63198006 0.00026026566
000010 6c 14 07 bf 56 e0 e3 3d af c6 69 bf 63 d3 63 3f
       -0.52765536 0.11126773 -0.9131879 0.88994426
000020 e3 6d 86 be 31 ea de be
       -0.26255712 -0.4353805

bias f4 [10]
000000 0c 4d 29 bf 78 0a 32 bf f9 bd 43 be 3c 3d 4e 3f
       -0.6613319 -0.69547224 -0.19115438 0.80562186
000010 23 5c 0d 3f 92 48 2e bd 8a a7 74 3f 7d b8 ad be
       0.55218714 -0.042549677 0.95568144 -0.33929816
000020 ea a3 a2 bd 96 c5 06 be
       -0.079414204 -0.1316131

weight f4 [40, 10]
000000 bc 83 5f be b9 58 8c be 14 28 7f 3e ab a2 14 3c
       -0.21827596 -0.2741144 0.24917632 0.009071986
000010 57 1a 70 3d f5 9c 64 3e 82 8a 8c be f0 8d bf bd
       0.05861887 0.223255 -0.27449423 -0.09353244
000020 66 00 60 3e 42 db 62 be ba 50 9c 39 31 97 3a 3e
       0.21875152 -0.22153953 0.00029814785 0.18221737
000030 26 a4 78 3d 88 aa 70 be 3d 30 9f bd f9 31 7f be
       0.06070342 -0.23502553 -0.077728726 -0.24921407
000040 86 ed ed 3d df 79 fd 3a 48 de 49 3e 53 b0 a9 3d
       0.116175696 0.0019338689 0.197137 0.08285584
000050 00 f1 00 be 91 84 9b 3e 48 34 5f 3e f7 f4 3d 3e
       -0.12591934 0.30374578 0.21797287 0.18550478
000060 33 a5 52 3e 4d 0a 23 be fe 23 7a 3e 2c ee 0a be
       0.20570831 -0.15921898 0.24427792 -0.13567418
000070 9e 3b 0c be 28 9c 63 3e 9b 80 98 be 53 7e 40 bd
       -0.13694617 0.22227538 -0.29785618 -0.046995472
000080 31 34 88 3e 8a 56 84 3d 35 da 16 3c 3b 17 5a bd
       0.2660232 0.064618185 0.009207298 -0.05324481
000090 7e ef 76 3e 03 70 10 3d 6e 7e dc 3b 66 01 be bd
       0.24114797 0.035263073 0.006728939 -0.092776105
0000a0 61 b2 54 be 2d 59 4b 3e 00 f4 f1 bd 92 90 50 3e
       -0.20771171 0.19858237 -0.118141174 0.20367649
0000b0 27 20 78 be 48 99 c4 bb 7b 43 84 3e 0b 10 23 bd
       -0.24231015 -0.005999718 0.25832734 -0.03981022
0000c0 9f da 81 3d 10 9b 93 be b9 8d 18 3e 53 15 5b bd
       0.06340527 -0.2882924 0.14897813 -0.053487133
0000d0 09 cd 78 3e 5b fe 89 3e ad 8d 4c bd 30 7d 4c be
       0.24296965 0.2695187 -0.0499398 -0.1996963
0000e0 62 c4 2a be 3a 40 1f be 50 ad de bc 69 e3 14 3e
       -0.16676477 -0.15551844 -0.027182251 0.14539875
0000f0 16 d5 14 3e ee 13 54 3e 12 9c 84 3e 20 40 5a 3e
       0.14534411 0.20710728 0.25900322 0.21313524
000100 ba 5c 2c 3e 5f c6 2f 3e 51 47 59 3e 78 a9 78 3e
       0.16832247 0.17165516 0.21218611 0.24283397
000110 f0 58 1c 3e 5b 91 52 be 54 87 5a be e0 3f 1a 3d
       0.15268302 -0.20563261 -0.21340686 0.037658572
000120 55 40 a7 bd e5 c7 3f 3e d3 93 5d be 91 00 22 3e
       -0.08166567 0.18728597 -0.21638422 0.15820529
000130 72 3f 32 be 63 29 83 be 07 c6 92 3e 55 16 83 be
       -0.17407015 -0.25617513 0.28666708 -0.25602975
000140 6c b3 8e bd e7 48 a1 3e 97 bc 1c be d8 e7 03 be
       -0.06967816 0.31500933 -0.15306316 -0.1288141
000150 6e a2 6f be 32 f0 00 be 41 cc 82 3e 7b 0c 92 be
       -0.23401806 -0.12591627 0.25546458 -0.28525147
000160 15 44 e7 3d db d1 3a be b3 e8 67 3e 4e 26 d8 3d
       0.112922825 -0.18244116 0.22647361 0.10554181
000170 39 0e 86 3d 4e 40 03 3d 4d 62 4b be b6 c8 4e 3e
       0.065456815 0.032043748 -0.19861718 0.20193753
000180 e0 56 7c be 14 34 f0 bd 16 99 7a bd cf 29 a0 3d
       -0.24642515 -0.11728683 -0.06118115 0.07820474
000190 fa 54 01 3e 15 8d 2a be 08 ca 8a be 4f 75 1a bd
       0.12630072 -0.16655381 -0.27107263 -0.03770953
0001a0 fb 1e e3 3d 20 42 75 be 0f c3 94 be 10 e9 42 bc
       0.110898934 -0.23951006 -0.29055068 -0.011896387
0001b0 99 b8 22 3e ed 68 f1 3b 50 c5 2f 3d 73 3c 0e 3e
       0.15890731 0.0073672445 0.04291278 0.13890247
0001c0 54 c5 27 be dc c1 2b 3e 73 50 ab 3d d7 14 72 be
       -0.16383868 0.1677317 0.08364954 -0.23640762
0001d0 c4 f2 ea bc 17 5e ba 3d 7c 31 5d 3d 03 81 a9 be
       -0.028680213 0.090999775 0.05400227 -0.3310624
0001e0 b7 0f 96 3e 19 73 41 3e 1b a4 10 3e 96 b1 56 3e
       0.29308864 0.18891563 0.14125101 0.20966181
0001f0 3f 47 83 bd 8b df f3 3d 86 9e 45 bc 15 d6 67 3e
       -0.064100735 0.11907872 -0.012061721 0.2264026
000200 b6 73 65 3e 36 5e cb bd cc 83 b9 3c 39 81 08 bc
       0.22407421 -0.09930079 0.022645853 -0.00833159
000210 de 26 3f 3e 31 4d c2 3b 38 d6 72 be 62 10 96 bd
       0.1866717 0.005929612 -0.2371453 -0.073273435
000220 c9 93 68 3c 84 5e 6b 3e 7b 79 80 be be c3 91 bd
       0.014195391 0.22985274 -0.25092682 -0.07117413
000230 5d 9f 18 3e 15 ea 9c 3e 26 2d 57 be 9b 2c b1 bc
       0.14904542 0.3064734 -0.21013317 -0.021627715
000240 62 ab 8d bd 01 ef 95 bd c4 e3 6a 3e b9 36 0f 3c
       -0.06917454 -0.07320977 0.22938448 0.008741074
000250 bc 15 aa 3e e9 4a 35 be 6c 6d 4f be c1 46 c4 3d
       0.33219707 -0.17704357 -0.20256585 0.09583808
000260 f9 00 7c 3e 2c 28 4a 3e 64 dc 1e be e9 bc 73 3e
       0.24609746 0.19741887 -0.1551376 0.23802532
000270 d6 1b 5e be a2 1d 00 be 26 35 ba bd ee 4f 05 3e
       -0.21690306 -0.12511304 -0.090921685 0.13018772
000280 a2 af 41 be 0f 22 5c be 2a 75 3b be b7 80 eb 3d
       -0.18914655 -0.21497367 -0.18306413 0.1149916
000290 43 5f 35 3e ff a1 44 3e c7 15 b7 bd fc 52 20 3e
       0.1771212 0.19202422 -0.089397006 0.15656656
0002a0 ca f5 5c be 30 65 00 bd e3 a2 f6 3d ca ce 2a 3e
       -0.21578136 -0.0313465 0.12042787 0.16680446
0002b0 fa b0 87 be 92 fa a5 3e ee b7 61 3e b0 e8 68 be
       -0.2650221 0.32417732 0.2204282 -0.22745013
0002c0 99 71 b5 bc f0 54 3e 3e 91 7e 7f 3d a6 6f cc bd
       -0.022148894 0.18587089 0.062376563 -0.09982233
0002d0 ae e2 58 3d a9 13 25 be 43 b2 ca 3d 21 7e c5 3d
       0.052950554 -0.16120781 0.09897282 0.09643198
0002e0 ff cf 94 bd 59 9b c2 3d 30 d2 d0 bc d5 46 89 bd
       -0.072662346 0.095022865 -0.02549085 -0.06702963
0002f0 f9 8e 3c bd 80 4c 9f 3e af 76 3c be f2 f6 68 be
       -0.046034787 0.31113052 -0.18404649 -0.22750452
000300 33 80 a0 3e 7c 42 e1 bd 1a 1b 7e 3e 47 43 56 3e
       0.31347808 -0.10999009 0.24815026 0.20924102
000310 55 4a b2 3d 48 0c 5e be ac a9 ad 3e 21 34 c3 bc
       0.08705584 -0.21684372 0.33918512 -0.023828568
000320 9b 5c 8f 3c f1 47 7e 3e d7 f1 62 bc e0 6f 24 be
       0.017500212 0.24832131 -0.013851604 -0.16058302
000330 2f 75 6f 3e bb f6 af 3d ed 93 a5 bc a6 93 b9 bb
       0.23384546 0.08591982 -0.020212138 -0.005663353
000340 92 40 0d be ba aa 69 be fd 94 ec 3d 31 28 98 be
       -0.13794163 -0.22819033 0.11551855 -0.29718164
000350 7e bd 36 be d7 a8 27 3e 15 a8 76 be ee 74 3a 3e
       -0.17845723 0.16373001 -0.24087556 0.18208668
000360 66 7b 43 be a8 c2 bb 3c 79 03 35 be e4 c6 77 bd
       -0.19090042 0.022919968 -0.17677106 -0.06049241
000370 80 3c 92 3e bd d0 0f be de c6 16 3e 87 ac a1 3d
       0.28561783 -0.14044471 0.147243 0.07894235
000380 aa 27 83 3e b7 aa 2d 3d ae 90 a6 3d 4c c8 a5 bd
       0.256162 0.042399134 0.08133064 -0.08094844
000390 18 88 f7 3c 28 fa e0 bd 69 92 1f 3e 04 26 0a 3e
       0.030216262 -0.109852135 0.15583195 0.13491064
0003a0 b5 00 79 3d de bc 85 be b6 d1 8a be d0 de ce 3d
       0.06079169 -0.26120657 -0.27113122 0.10101092
0003b0 b5 3a 64 3e f4 75 3e 3e e1 78 a4 be 77 0e 4b 3e
       0.2228802 0.18599683 -0.32123473 0.19829737
0003c0 c4 8f f8 3d 8e 16 62 be e1 ae 18 be 74 36 4a 3e
       0.12136796 -0.22078916 -0.14910461 0.19747335
0003d0 31 98 98 bd c8 ca 0b be fa 06 37 3e cc 38 28 3e
       -0.07450903 -0.13651574 0.17873755 0.16427916
0003e0 9c ec 38 3e 71 3f 99 be ad 66 3e 3d 88 26 99 be
       0.1805901 -0.29931214 0.046484638 -0.2991221
0003f0 28 7b ad 3e 4c 2b 5d 3e af b1 68 be 4f 99 02 3d
       0.33883023 0.21598548 -0.22724031 0.031884488

bias f4 [40]
000000 4d d0 4a 3e ff 29 5d 3e f1 c9 1f 3e 37 b4 50 bc
       0.19806023 0.21598051 0.15604378 -0.012738279
000010 2b 09 a9 3d a6 f7 2c 3e f6 82 2a 3e 89 bd 8a bc
       0.08253702 0.16891345 0.1665152 -0.01693608
000020 a7 db 7d bd c0 7c 8b 3e 26 34 65 3e ab 55 7a be
       -0.061977055 0.27243614 0.22383174 -0.24446742
000030 e0 f0 45 be 7d e3 31 be bb 31 a6 bc 48 f2 39 bd
       -0.19330168 -0.17371936 -0.020287385 -0.045397073
000040 5f e9 20 3e c5 9c 37 3d 3c 2f 91 be eb 02 5a 3e
       0.15714024 0.04482724 -0.2835635 0.21290176
000050 10 af 7e 3d 5c f1 a2 be 14 dc bf 3c 92 09 6a 3d
       0.06217867 -0.31824768 0.023420371 0.057138033
000060 7c 1e 51 3e 33 45 62 be 19 c9 02 3e 97 57 6f 3e
       0.20421785 -0.2209671 0.12772025 0.23373257
000070 16 93 17 bd 82 f8 89 bc ce ac 2d be 97 67 32 3d
       -0.037005506 -0.01684213 -0.16960451 0.043555822
000080 03 7f e7 bd 17 17 57 bc 32 1a 80 3c 3f ed 11 be
       -0.113035224 -0.013128064 0.01563749 -0.14250658
000090 3f a1 56 3d 4f 86 3f 3e d7 ad 33 bd ed 1b 76 3e
       0.05239987 0.18703578 -0.04386696 0.2403409

weight f4 [20, 40]
000000 b1 20 c0 bd 29 cf 51 3d 91 b3 36 3d de 92 c6 3c
       -0.093812354 0.051222954 0.04460484 0.024239954
000010 e1 77 36 be 66 91 03 3e 58 bc 8a 3d bd 9e ad bc
       -0.17819168 0.12848434 0.06774205 -0.021193856
000020 0c 79 a6 3d 89 25 47 3d d3 27 f5 3d 2a 99 b8 3d
       0.081285566 0.04861978 0.119704865 0.09013589
000030 48 24 23 bd be 1a 3f bd 01 70 a6 bc c5 b4 1c bd
       -0.039829522 -0.046656363 -0.02031708 -0.038258333
000040 25 4b 0a be 1b 87 d3 bd c6 53 0a be 61 d2 c4 bd
       -0.13505228 -0.10328504 -0.1350852 -0.09610439
000050 ca 8e 01 be 2a 1b da 3d d6 32 39 3d 7f 41 47 3c
       -0.12652126 0.106497124 0.045214497 0.012161612
000060 25 5f c4 39 4e bd 7d 3d aa 0a 6d bd 93 66 82 bd
       0.0003745492 0.061948113 -0.0578715 -0.06367221
000070 fd da fd 3d 79 57 92 3d ae 19 8c 3d db 66 d3 3c
       0.12395284 0.0714559 0.068408355 0.025805881
000080 36 44 9e bd 0c 98 a4 3c d3 bc a1 bd bb d8 0f 3d
       -0.07727854 0.020092033 -0.078973435 0.0351188
000090 fa de 2d 3e a5 f7 b2 bd c4 ac 08 bd 0d 42 2a be
       0.1697959 -0.08738641 -0.033367887 -0.16626759
0000a0 99 00 ee 3d 11 5f ff bd 3e 97 44 bd 93 37 d7 3d
       0.11621208 -0.12469304 -0.0479958 0.10508647
0000b0 4f 73 06 be 3b f6 e1 3d e3 93 d6 bd 98 27 42 3c
       -0.13129924 0.11033293 -0.10477426 0.01185026
0000c0 0b 53 37 3d 49 68 f4 bc 47 06 0e be bc ae 84 3d
       0.04475693 -0.029834883 -0.13869582 0.064786404
0000d0 fa 4e 2c 3a 3a 91 fe bc f9 7e 5f bb 46 57 9e bd
       0.0006573048 -0.031075109 -0.0034102781 -0.0773149
0000e0 18 a9 4b 3d b2 69 a2 3d 7f 7c 8b bd e7 3b 49 bd
       0.049721807 0.07930316 -0.06810855 -0.049129393
0000f0 94 bb a5 bc 85 a6 f2 bd 9d 78 96 3d 28 55 53 bd
       -0.020231046 -0.11848167 0.07347224 -0.051594883
000100 b5 59 27 3c a1 31 e6 3d 61 7a 9d bd d3 ee f7 3d
       0.010214259 0.11239935 -0.076893575 0.12106099
000110 86 b4 ea 3d 0d 1d 2d 3d b9 e0 a1 bd 2e 00 4b 3d
       0.11460213 0.042264033 -0.079041906 0.04956072
000120 ea 7f 2e bd ab 3c 36 3d 6e 97 60 bd 6f 80 1b 3c
       -0.042602457 0.04449145 -0.054831915 0.00949107
000130 e4 33 55 3d 75 c0 b2 bd 71 50 59 3d 16 da 01 be
       0.05205144 -0.087281145 0.05305523 -0.1268085
000140 a7 ec 95 3d 99 91 d4 3d c5 c3 47 3d c3 06 3a 3d
       0.073205285 0.10379333 0.048770685 0.045416605
000150 aa f0 fd 3d 4f d9 ae bd f8 44 04 3e a3 4d 70 3d
       0.12399419 -0.08537542 0.12916934 0.05866779
000160 6b 8f 25 3d 9e c6 89 bd 22 03 93 3d 98 7b 75 3d
       0.040419977 -0.06727336 0.07178332 0.05993232
000170 a8 0e af bd 67 1a e6 3c d2 4e 71 bb 38 b6 07 3e
       -0.08547717 0.028088761 -0.0036820662 0.13253105
000180 9d a3 6c 3d 64 1a c9 bd b1 e8 1e 3e 14 6b 1a be
       0.05777322 -0.09819487 0.15518452 -0.1507991
000190 21 08 95 3d 7b 4e c9 bd 99 62 a7 bd bd 13 39 bc
       0.07276941 -0.09829422 -0.08173103 -0.01129621
0001a0 a8 1a 06 be 2b 3a cb bd 28 f3 30 3e 68 68 33 3d
       -0.13096106 -0.09923204 0.17280257 0.04380074
0001b0 19 1a 04 3e 05 df d3 bd e2 d7 20 3e 39 b0 0d 3e
       0.1290058 -0.10345272 0.15707353 0.13836755
0001c0 40 04 b4 3c f1 d9 37 bd 52 98 33 bd 33 c6 d9 3d
       0.021974683 -0.04488558 -0.043846436 0.106335066
0001d0 0a 37 40 bd df e2 cf bc a7 45 42 3d e7 78 fa 3d
       -0.04692749 -0.025376735 0.047429707 0.122300915
0001e0 19 45 bb bd 0c 46 cd 3d 34 1a f3 3d c5 84 e2 3c
       -0.09144039 0.10023126 0.11870232 0.0276512
0001f0 e2 d9 97 ba 8f 93 df 3d 42 27 20 3d d9 b9 67 3d
       -0.001158532 0.109168164 0.03909994 0.056573723
000200 cd a7 4b bc 9b 4d 85 bd 83 0a 42 3d 06 12 1d 3b
       -0.012430144 -0.06508943 0.047373306 0.0023967042
000210 5e b4 a6 3d ac b4 d2 3c 0a a9 af 3d 2f e9 d1 3c
       0.08139871 0.025720917 0.085771635 0.025623886
000220 46 f1 ed 3d 54 9e 25 bd e0 98 e2 3b 38 be 94 3d
       0.11618285 -0.040434197 0.006915197 0.07262844
000230 8b 3f 1e 3e 45 e6 79 3d d2 35 46 3d 2f ba 21 be
       0.15453927 0.061010618 0.04839117 -0.1579368
000240 49 dd b8 bd 50 a2 0c be df 75 48 3d c5 dd 23 3e
       -0.09026582 -0.13733792 0.048940536 0.16002567
000250 25 ff 89 3d 73 87 80 bd 1d 10 26 3e bb 64 70 bd
       0.06738118 -0.06275835 0.16217084 -0.058689814
000260 f6 b9 29 3b 96 91 c0 bd 8c f6 36 bc 14 e0 22 be
       0.0025898195 -0.09402768 -0.01116718 -0.15905792
000270 a4 34 07 bd 77 c6 60 3d a7 e2 89 3d e7 e9 02 3d
       -0.033009186 0.05487677 0.06732684 0.031961348
000280 1e 61 fb bc 0a b6 06 3e 9a a9 ff 3c 5f da e9 bd
       -0.030685958 0.1315538 0.031208802 -0.11418604
000290 44 af 0b be 1c 5b 0e 3d a0 7e 80 3d b0 04 a1 bd
       -0.13641077 0.034754857 0.06274152 -0.07862222
0002a0 c8 32 c5 3c dd a7 18 3e 2c 57 1b 3b 4a d3 e2 3c
       0.024072066 0.14907785 0.0023703082 0.027688641
0002b0 06 ed 68 bd 9b 68 f0 bc c1 e8 c9 3d c0 75 89 bd
       -0.05686667 -0.029346755 0.098588474 -0.06711912
0002c0 5a 73 d8 3d 2f df af bd 7e ef 83 bd f5 96 67 3d
       0.105688766 -0.08587491 -0.06442164 0.05654045
0002d0 4c c6 a4 3d c4 11 d4 3d 9e 1d 88 bd 3b bd 84 3d
       0.080456346 0.10354951 -0.06646274 0.06481405
0002e0 df 4e 98 3d 00 1f be 3d 3b 42 70 bd 1b d1 79 3c
       0.074369185 0.092832565 -0.058656912 0.015247609
0002f0 82 ef d5 3d 86 dd 11 be 1d 28 ba 3c c9 24 d1 3c
       0.10446073 -0.1424466 0.022724206 0.025530236
000300 f0 5d c3 3d db 01 02 3d 79 2c 8e 3d fa 45 08 3e
       0.095394015 0.03174005 0.06942076 0.13307944
000310 ce 0d 63 bd c7 46 5b bd 01 2f 09 3e 6d a0 c5 bd
       -0.055433087 -0.053534295 0.13396837 -0.096497394
000320 8f fe 74 3d 6c ca dc bd 82 1c fa 3d b5 6b 67 3d
       0.05981308 -0.107807964 0.12212469 0.0564992
000330 15 6c 9f bd 5e e3 16 3d 1a 27 15 bd 94 80 62 bc
       -0.07784287 0.036837928 -0.036414243 -0.013824601
000340 2b 7c 87 bd 84 aa a3 bd 58 d0 db bd d8 f2 76 bc
       -0.0661548 -0.07991508 -0.10733098 -0.015072547
000350 e2 db 13 be 71 14 0b be 29 57 2b bd 86 94 ab 3d
       -0.14439347 -0.13582017 -0.04183117 0.08377938
000360 3a 15 63 3d 1b fe 4f 3d 26 45 2a be 5a 41 b1 bc
       0.055440165 0.050779443 -0.1662794 -0.021637607
000370 36 2f c1 3b 6c 56 19 3e c9 9b aa bd 12 a8 c1 bd
       0.0058955206 0.14974374 -0.08330495 -0.09455885
000380 d3 b2 cb bd bf 92 9b 3d e9 4e d4 bd 20 d1 9f 3c
       -0.099462174 0.07596349 -0.103666134 0.019508898
000390 ae 04 bd 3d f1 f2 e4 bc e2 4b 98 bd b6 49 39 bd
       0.09229408 -0.027947875 -0.074363485 -0.04523631
0003a0 92 8e ef 3d 13 de 7d bd 74 24 b9 bd e3 59 cc bb
       0.11697115 -0.061979365 -0.09040156 -0.0062363013
0003b0 b2 56 6e bc e6 be e2 bd ff 48 de 3d 37 fb 17 3e
       -0.014547037 -0.11071567 0.10853767 0.14841925
0003c0 7c d1 73 bc e2 42 aa 3c 7a 7b ce bd b0 a7 a7 bd
       -0.014881488 0.020783845 -0.10082145 -0.08186281
0003d0 ac 3a e7 3d a8 eb 8f 3c 7c 32 9e bd 4f 48 6d bd
       0.11290488 0.017568424 -0.07724473 -0.057930287
0003e0 ca 29 36 bd 39 82 d4 bd 1f 94 2c 3e 27 9a ed bd
       -0.044473447 -0.103764005 0.16853379 -0.11601668
0003f0 b4 b2 a1 3c 1f f3 04 be db 8f e2 bc 67 14 1c bd
       0.019738533 -0.12983368 -0.027656486 -0.038105395

bias f4 [20]
000000 28 29 93 3d c4 f1 3c bd 4d 29 56 bc c6 c5 b0 bd
       0.07185584 -0.046129003 -0.01307137 -0.08631472
000010 49 c2 bf 3c 1c 2a 4b 3a 35 d2 df bb d8 b9 58 bd
       0.023408072 0.000775011 -0.0068304786 -0.05291161
000020 ce ed 5d 3d 01 92 08 bd 3d 8e d9 3d 05 f2 3d 3c
       0.054181866 -0.033342365 0.10622833 0.0115933465
000030 8e dd 00 ba 98 82 57 3b b0 7b 30 bd a3 3d 6d 3d
       -0.0004915827 0.0032884236 -0.043086708 0.05792011
000040 d0 f8 07 3d 51 b6 71 bd 1b 3d f8 bd 06 0e 11 3e
       0.03319627 -0.05901176 -0.1212103 0.14165506

weight f4 [20, 40]
000000 1e 7c 1e 3d b5 94 0e 3d 4c 04 15 3d e8 1f cc bd
       0.038692586 0.034809787 0.03638105 -0.09967023
000010 0c c7 df 3d 09 eb fe 3c 69 77 9a 3c 36 c3 0f bd
       0.10926637 0.031117933 0.018855767 -0.035098277
000020 de 6b d5 bc af f6 1d 3d da c3 0f be 41 21 48 3d
       -0.026052412 0.038565334 -0.14039555 0.04885984
000030 bc a0 bd 3a 94 37 a6 3c 0c 3b ea 3d be 1c e7 3c
       0.0014467458 0.020290174 0.114370435 0.028211948
000040 57 73 99 3d 42 04 6e 3c c9 bf 06 3e 80 77 f8 bd
       0.074927025 0.014527382 0.13159098 -0.12132168
000050 bb 01 33 3e b5 70 bc 3d 4f 3d 14 be e3 ab 93 3d
       0.17481129 0.09201185 -0.14476512 0.07210519
000060 2d b5 02 be b0 18 97 3d 66 d6 d0 3d f0 0c 04 be
       -0.12764426 0.07377756 0.10197143 -0.1289556
000070 13 78 eb 3d 7f fe 74 bd ff 08 ca bd 88 66 92 bd
       0.11497512 -0.05981302 -0.09864997 -0.071484625
000080 03 79 b1 3d 02 38 1a 3d 25 8b 6a 3d 64 fd bc bc
       0.08665659 0.03765107 0.057261605 -0.023070045
000090 c9 39 a9 3d a4 86 c9 3c 18 5b f0 3d ab 3e 69 bd
       0.08262975 0.024600334 0.11736125 -0.05694453
0000a0 dc ac cb bd ec 86 63 bb 2f 14 33 3d 09 66 e2 3d
       -0.0994508 -0.003471787 0.04372042 0.11054618
0000b0 1e 74 16 bd b5 14 b5 3d 1e 6f 1f 3c 7b 4d d5 3d
       -0.03673183 0.0884184 0.009731082 0.10415169
0000c0 67 bb b0 bd 99 3f c2 bd d6 f3 d1 3c 2d ad 87 3d
       -0.08629494 -0.094847865 0.025628965 0.066248275
0000d0 4e 2a 86 3c b3 2b 30 3e ab 21 ab bd 79 c3 ab 3d
       0.016377594 0.1720417 -0.08356031 0.08386893
0000e0 18 18 16 bd c7 3a 10 be 47 58 6f bd 38 5b c2 3c
       -0.03664407 -0.14084922 -0.058433797 0.023725137
0000f0 0c 48 37 bd ab ec 27 3d db 0c d8 3d d2 38 9f 3d
       -0.044746444 0.04099719 0.10549327 0.077745095
000100 3a 0c b4 3d 07 a3 9a bd f4 88 3c 3d d3 1c cf 3d
       0.087913945 -0.07550626 0.046029046 0.1011292
000110 43 95 a6 3d 65 d3 39 3d 7e 7c 07 bd b0 c2 a3 bd
       0.08133938 0.045367617 -0.03307771 -0.07996118
000120 fb c7 e8 3d 1b 78 d8 3d 39 97 60 3d ca 3c 38 3c
       0.11366268 0.10569783 0.054831717 0.011244962
000130 16 17 ce 3d 41 46 64 3c 93 98 f2 bd 70 33 2e bc
       0.10062997 0.013932765 -0.118455075 -0.010632381
000140 29 59 14 be 7d e9 8e 3d 9c 7b ae bd d6 55 f2 3c
       -0.14487137 0.06978128 -0.0851967 0.029581945
000150 f5 cd 73 3d 14 91 00 3d 38 72 2a bd 73 c2 f1 bc
       0.059522588 0.031388357 -0.041612834 -0.029511666
000160 e2 8c e1 3b c5 2a fa bd f7 fb c5 3a 2d ac 01 bc
       0.0068832496 -0.12215189 0.0015104999 -0.007914585
000170 a0 3a f3 3b 1f 36 a3 3d 4e 0c 03 bd a2 66 37 bd
       0.00742276 0.07969307 -0.031994157 -0.044775613
000180 b8 b6 58 bd b5 d8 fc bc 48 6c 8f 3d 09 b5 9c bc
       -0.05290863 -0.030865053 0.07003075 -0.019129293
000190 45 a3 b8 bd 7a 6e 9e 3d 9b 2c a5 3d 87 5f 0c 3d
       -0.09015516 0.077359155 0.080651484 0.03427079
0001a0 25 71 e9 bc c2 f6 d6 3d 1f 13 cc 3c b0 08 0a bd
       -0.028496334 0.10496284 0.024911461 -0.03369969
0001b0 e5 22 d6 bd 83 84 f5 3d cc 29 a6 3d 0c c2 bd 3d
       -0.10455874 0.11988165 0.08113441 0.09265527
0001c0 db 66 2f bd 4a f8 e7 bd 42 cf f4 3d 40 61 bb bb
       -0.0428227 -0.11326654 0.11953594 -0.00571838
0001d0 3f 9b 06 3e 2a d7 be 3d e3 fd 0a be d7 94 db bd
       0.13145159 0.09318383 -0.13573413 -0.10721748
0001e0 b4 b1 c3 bc c3 81 05 be 4b 0d e5 3b 2f c4 a5 bd
       -0.023888446 -0.13037781 0.00699011 -0.0809406
0001f0 0a 67 0a bd 59 91 a4 bd 6a be 9a 3d 1f dc 87 bd
       -0.033789672 -0.08035535 0.0755585 -0.06633782
000200 72 b4 88 3d bb 1f f3 bc 65 2b e0 3c e7 33 af 3d
       0.06675042 -0.029678216 0.027364442 0.085548215
000210 80 42 be bd f3 59 90 3d fc 71 61 3d da 75 e0 3d
       -0.092900276 0.070484065 0.055040345 0.109599784
000220 11 26 a2 bd c6 21 36 bd e2 86 c9 3d 68 56 d5 bd
       -0.07917417 -0.044465803 0.0984018 -0.10416871
000230 cb d6 3a be b0 df f4 bd 18 0e ee 3a 1b 30 d2 3d
       -0.18246 -0.119567275 0.0018162159 0.10263082
000240 5d 0a 27 3d bf db 9f 3d d8 70 b6 3d 7e 63 97 3d
       0.040781368 0.07805585 0.08908242 0.073920235
000250 b0 67 26 bd 22 5f 56 3d f5 d2 95 3c b1 8a bd 3d
       -0.040626228 0.05233682 0.018289069 0.09254969
000260 e5 15 e4 3d d5 98 2e be d9 45 8e 3d a5 7e e9 3c
       0.111369886 -0.17050488 0.06946916 0.028502772
000270 35 9f 8d 3d bf cb e9 3b 3b 9f 15 be d3 20 1a 3c
       0.06915132 0.007134884 -0.14611523 0.00940724
000280 ef 82 2a 3e 9c a5 5e bd 00 09 f9 3d ed 46 a6 bd
       0.1665151 -0.054357156 0.1215992 -0.08118997
000290 d8 23 a1 3d 5b 67 9d bd 2a a4 32 3d 37 fa 57 3d
       0.07868165 -0.07685729 0.04361359 0.052728858
0002a0 8f 4e e8 3d 93 8e c2 3d fe a8 b6 3d 00 b5 b5 bc
       0.11343109 0.0949985 0.089189515 -0.022181034
0002b0 83 69 64 3d e6 a6 f3 3d 93 3e 3a bd 3d 29 a1 3b
       0.055764686 0.11897068 -0.04546983 0.004918246
0002c0 3e ad 93 bc d4 13 b8 bc 90 f4 b9 bd d2 3b 1b bd
       -0.018026944 -0.022470392 -0.0907985 -0.037898846
0002d0 44 77 d9 3d 12 a4 c3 3d 77 63 50 3d cb d5 a2 bd
       0.10618451 0.09552778 0.050876107 -0.07950934
0002e0 d1 14 9a 3d 11 ad f2 bd d9 3d ca 3d 67 1b b4 bd
       0.07523502 -0.11849416 0.09875078 -0.08794289
0002f0 02 40 92 3d 93 1c 3f bc 7b d7 d2 bd c8 5b de bd
       0.07141115 -0.0116645275 -0.10295006 -0.1085735
000300 83 c0 36 bc 09 10 0a be 5a 86 2e bd a7 41 af bd
       -0.011154297 -0.1348268 -0.042608596 -0.08557444
000310 7a 5e 03 be a0 2d bf bd 70 a5 78 bd 65 8b a5 bd
       -0.12829009 -0.09334874 -0.06070465 -0.08083228
000320 12 9f 5a bd eb ab 17 3e 80 28 95 bd 6f 1b d9 bb
       -0.053374358 0.14811675 -0.072831154 -0.006625585
000330 f6 b4 3a 3d 23 11 bb bd 0b 90 89 bd 5d bf 17 3c
       0.045582734 -0.09134128 -0.06716927 0.009261933
000340 43 8a b5 bd 9a 44 1b be 25 ef a3 bc f1 ac 15 3d
       -0.08864262 -0.15162888 -0.020011494 0.036541883
000350 ec 64 b2 3b 67 7d 12 bd e4 6d 74 3d d6 51 a6 3b
       0.0054441597 -0.035764124 0.059675112 0.0050756736
000360 75 f3 c4 bd 42 d5 dd 3c 9d 36 8c bd a0 9e 3d 3d
       -0.09616748 0.027079228 -0.06846354 0.046293855
000370 de 81 af bd b6 09 91 3d 02 1d de bd dc 71 34 bd
       -0.08569692 0.0708193 -0.108453766 -0.044053897
000380 67 0a e1 3c 6f 01 29 3e d8 65 f5 bd 6f af 7f ba
       0.02747078 0.16504453 -0.11982316 -0.00097536197
000390 bc e8 e5 bd 8b 4e 84 bc 94 29 eb bd a7 3f db 3b
       -0.11226031 -0.016150733 -0.1148254 0.0066909376
0003a0 9e 43 85 bd 53 d0 35 bd 32 46 74 3c 9c ab 83 3d
       -0.065070376 -0.044388127 0.014909314 0.06429216
0003b0 ff d8 2d bd 2f 77 62 bd 2e 4d f4 bc 75 27 19 3d
       -0.04244327 -0.055289444 -0.029821958 0.037391145
0003c0 83 c6 2b 3e 49 f6 e7 3d 93 b4 01 3e 45 78 ad 3d
       0.16774945 0.11326272 0.1266654 0.08470205
0003d0 90 6e 00 3e fc 34 bc bd 54 db aa bd 4a 56 1e 3e
       0.12542176 -0.091897935 -0.08342615 0.15462604
0003e0 de 88 65 3d 54 94 81 bd eb 78 17 3d d4 4d f4 bd
       0.05603873 -0.063271195 0.03698055 -0.11928907
0003f0 bd be 4a 3d 50 4b 02 3e da af 64 bd fc 87 76 3d
       0.04949831 0.12724042 -0.055831768 0.06018828

bias f4 [20]
000000 41 df 01 3e eb 8f fd bd ed 3b 0f 3e e7 0d c2 3c
       0.12682821 -0.12380966 0.13987704 0.02368827
000010 60 ea db bb f4 25 05 3e 7c 99 ce bd 88 38 13 3d
       -0.0067112893 0.13002759 -0.100878686 0.035942584
000020 65 b7 7f bd e7 2e 31 3d 2f 72 0d be 06 87 c3 3d
       -0.062430758 0.04325762 -0.13813089 0.09547238
000030 79 59 07 be 51 97 26 3e 1f 87 c9 bd 08 1b d6 bd
       -0.13217725 0.1626866 -0.098402254 -0.104543746
000040 e5 4c c7 bc 03 94 2c bd 7e 90 c3 3d 2d b5 59 3d
       -0.024328658 -0.042133342 0.09549044 0.0531513

weight f4 [10, 20]
000000 0d a6 c3 3d 72 d2 aa 3e d5 a3 a6 be 41 04 d0 bc
       0.09553156 0.33363682 -0.3254687 -0.025392653
000010 0b a3 e1 3d 1c ce f8 3d a1 26 1c be d6 96 8b be
       0.11017426 0.12148687 -0.15249111 -0.27263516
000020 f6 fd ad bd 17 dd 1d 3d 8e dc bb be 86 86 88 3e
       -0.08495705 0.038540926 -0.36691707 0.26665133
000030 bc b7 c5 be 39 95 26 be fc 44 54 3e 73 07 7a 3e
       -0.3861674 -0.16267861 0.2072944 0.24416904
000040 6f 1a f0 3e 75 c6 ea 3e 73 81 19 3b de 03 0b bf
       0.46895167 0.45854536 0.0023423105 -0.54302776
000050 95 1c cc bd 69 f7 e6 3e 81 48 dc be f3 a6 36 be
       -0.09966389 0.45110634 -0.43024066 -0.17837124
000060 cf 59 85 3e 73 d7 49 be 33 ad 58 bd db 32 2e 3e
       0.2604508 -0.19711094 -0.05289955 0.17011587
000070 e2 31 c6 3e ac 05 ea be 0d 61 1a 3f 32 32 bf be
       0.38709933 -0.45707452 0.6030434 -0.37342983
000080 cb 0b 98 3d fb b2 cb 3e 99 9c 57 3e df 49 ae bc
       0.07424124 0.3978499 0.21055831 -0.021275459
000090 a1 23 52 3e f0 86 f1 bc 42 94 be 3e 7e ae e5 3e
       0.20521404 -0.029483289 0.37222487 0.4485969
0000a0 bd 66 fa be d6 d9 23 3e c5 af d4 3e c6 03 6a 3e
       -0.48906508 0.16001067 0.41540352 0.22853002
0000b0 ff 25 34 3e 4b 17 23 3d ef f6 1f 3d 72 bd 1b 3f
       0.1759262 0.039817136 0.039053854 0.60835946
0000c0 38 ee e5 3e dd 82 09 be ba aa 6f be c8 2a 03 3f
       0.4490831 -0.13428827 -0.23404971 0.51237154
0000d0 6c 2f b5 be e8 1c f0 be 6c 21 ef be 80 db e6 3e
       -0.35387743 -0.46897054 -0.46705186 0.4508934
0000e0 50 14 ec 3d f8 9d d3 3d e6 74 c4 3d 20 30 91 be
       0.11527312 0.103328645 0.09592609 -0.2835703
0000f0 6e ca cb 3e 93 86 09 bd 04 af f5 bd cb 75 a0 3e
       0.3980288 -0.033575606 -0.11996272 0.3133987
000100 8a 25 b8 be e1 6b b1 be 21 ae cb be 25 c1 91 be
       -0.3596614 -0.34652618 -0.39781287 -0.2846767
000110 3b fc 18 3c ff aa e5 3d 8e 59 aa 3e 3d 65 c5 be
       0.00933748 0.112142555 0.3327145 -0.385538
000120 5c 92 11 3e a9 07 d2 3e d3 00 b9 bd e9 4f 4d 3e
       0.14215988 0.4102147 -0.0903336 0.20050015
000130 6e 59 81 bd ef 3e 90 be 71 b3 90 be 09 80 ca 3e
       -0.063158855 -0.28173015 -0.28261903 0.39550808
000140 26 8e ee 3e ab 9d b4 be 29 ce 0d 3f 51 b8 dd be
       0.46592826 -0.3527654 0.553927 -0.43304685
000150 b2 42 fa bd ff 10 52 be d6 00 a4 3e 94 8c 5a 3b
       -0.12219752 -0.20514296 0.32031888 0.0033347951
000160 bf 55 72 3e c2 83 04 3e 0f 84 18 be 2f 7c 4e be
       0.23665522 0.12940887 -0.14894126 -0.2016456
000170 0b 0c 9b 3c f9 59 8a bb ed bb f9 bd ba 45 74 be
       0.018926641 -0.0042221514 -0.12194047 -0.23854724
000180 30 37 16 3f 84 ea e2 be 9e ee 07 bf 6a 2e 10 be
       0.5867796 -0.44319546 -0.53098476 -0.14080206
000190 a5 ae c9 be 10 fb ca be 9c 66 bb 3e 80 72 54 3e
       -0.39391056 -0.3964467 0.36601722 0.20746803
0001a0 a4 9f 07 bf cc c2 e5 3e fe 1f f1 3d d6 0c 40 be
       -0.5297797 0.4487518 0.1177368 -0.18754897
0001b0 93 29 cf be 2f b8 87 3e b3 e5 02 3f 88 93 af 3d
       -0.40461406 0.26507708 0.51131743 0.08573061
0001c0 14 fc bd bc 20 19 f5 be 2c 08 c8 3e 46 95 ec be
       -0.02319149 -0.4787073 0.39068735 -0.46207637
0001d0 1a 6f 10 be 0d 4e 80 3e 4d 4f 0d be 0d 56 68 be
       -0.14104882 0.25059548 -0.13799782 -0.22689076
0001e0 5a 99 b8 3c 45 3c 25 3c 52 9e 80 bd 6a f2 54 bd
       0.022534061 0.01008517 -0.06280197 -0.051988997
0001f0 6d 25 98 bc c5 c4 95 bd e9 c5 78 3d 38 48 df bc
       -0.018572534 -0.073129214 0.060735617 -0.027256116
000200 5b 9c 66 3c 5b f1 6b 3c 19 7b 6e 3c 29 da a5 3c
       0.014075364 0.014400805 0.014555716 0.020245628
000210 4d 67 87 3d 1c 45 45 bd 19 7f d5 3c 1a 43 68 3c
       0.066115 -0.04816161 0.026061581 0.0141761545
000220 85 e1 2d 3c 28 34 83 bd ed 26 2d bd 9f 33 56 3d
       0.01061285 -0.064064324 -0.04227345 0.052295323
000230 48 eb c6 3e 85 c9 a3 be 31 d8 5f be 5a 70 4a be
       0.3885138 -0.31989685 -0.21859814 -0.19769421
000240 13 ae ae 3e 62 66 00 3e 1a 48 aa be 19 b6 92 bc
       0.34117183 0.12539056 -0.33258134 -0.017909097
000250 7c 75 bb be ac f5 08 3e 60 e1 9d be 42 cc ef 3e
       -0.3661307 0.13374966 -0.3083601 0.46835524
000260 61 7c bf 3c e4 48 32 be 62 63 98 3e 93 e9 18 ba
       0.023374738 -0.17410618 0.29763323 -0.0005833145
000270 ff e0 b5 be 93 e2 b6 bd 67 26 8f bd 94 7e c5 3d
       -0.3552322 -0.08929934 -0.069897465 0.096432835
000280 46 08 f5 be 16 5c 14 3e 56 31 c7 be 74 17 3a be
       -0.47857875 0.14488253 -0.38904828 -0.18173009
000290 87 2c 56 3e c0 78 29 be 47 c4 00 3f 1c 53 6b bd
       0.20915423 -0.16549969 0.50299495 -0.057452306
0002a0 3a 84 b4 3e 4d 57 a2 be 79 2d 0e bd 17 c5 e6 be
       0.3525713 -0.3170723 -0.034711335 -0.45072243
0002b0 a6 b7 52 3e 27 f6 02 3e 65 7c 33 bf 1f 5e a8 be
       0.20577869 0.12789212 -0.70111686 -0.3288431
0002c0 7b ed cf be 08 26 6f 3e e9 43 22 3e 39 18 06 3e
       -0.4061087 0.23354352 0.15846218 0.13095178
0002d0 6b a4 68 bd d0 6b 38 3c 6d 65 b5 3c 3a db d7 3c
       -0.056797426 0.011256173 0.02214309 0.026349653
0002e0 d9 67 ee 3b 56 1a d0 3c 09 73 0b bd 42 d1 b8 3c
       0.007275563 0.025403183 -0.034045253 0.02256072
0002f0 21 46 f6 3c 88 b5 73 3d cc 6b 98 3d a0 60 16 3d
       0.030062737 0.059499294 0.074424356 0.036713243
000300 5a 98 90 3d f2 d2 a9 3c f2 a2 9f 3c ac 50 3e bd
       0.07060309 0.02073047 0.019486878 -0.046463653
000310 ec 64 ab bd e2 18 f5 3c 5a 52 84 3d 35 67 b2 3c
       -0.08368859 0.029919092 0.0646102 0.021777729

bias f4 [10]
000000 e2 bf 40 3f d3 86 30 3f d7 25 90 3f f4 cf 59 3f
       0.7529279 0.68955725 1.1261548 0.85082936
000010 ce 0a 4a 3f 86 28 3a 3f ef 9a 0f be fd 08 3f 3f
       0.78922737 0.72718084 -0.14023946 0.7462309
000020 60 66 7c 3f 37 7a 17 be
       0.9859371 -0.14792715

weight f4 [1, 10]
000000 99 e9 5a bf cb dc 4e bf 5d d5 22 bf 4b 37 45 bf
       -0.8551269 -0.80805653 -0.63606817 -0.77037495
000010 fd d5 21 bf 64 bf 49 bf fc 38 11 3e 77 2f 47 bf
       -0.63217145 -0.78807664 0.14181894 -0.778068
000020 64 c8 26 bf e1 40 e3 3c
       -0.6514952 0.027740898
