Feaprotect/models/mobile_price/sc_h-talk_time-touch_screen-battery_power-four_g-three_g/ori/VarUB/model_3.pkl (torch, 14721 bytes, 11 tensors)

weight f4 [10, 1]
0	0x3cf2df5f	0.029647527
1	0xbeace824	-0.3377086
2	0x3d5f3796	0.05449637
3	0x3cce26a8	0.025164917
4	0x3dcc9d36	0.09990923
5	0xbf14be8f	-0.5810327
6	0xbf4f4e51	-0.80978876
7	0xbc5b3fc0	-0.013381898
8	0x3f0d1984	0.5511706
9	0x3daa1e00	0.08306503

bias f4 [10]
0	0x3ebbc046	0.3667013
1	0xbf7b9a46	-0.9828228
2	0x3deb27c7	0.11482196
3	0x3f35622b	0.7085292
4	0x3f0c439e	0.54790676
5	0xbf798ead	-0.9748333
6	0x3f255331	0.64580065
7	0x3e5b959d	0.21443792
8	0xbf253d53	-0.645467
9	0xbf0ba7ee	-0.54553115

weight f4 [40, 10]
0	0xbac13547	-0.0014740609
1	0xbe97b60b	-0.29631075
2	0xbeb10ed0	-0.34581614
3	0xbe06c9d6	-0.13162932
4	0xbe47245c	-0.19447464
5	0xbe351576	-0.17683968
6	0xbe507440	-0.20356846
7	0xbe301bfd	-0.17198177
8	0x3d7d9c7b	0.06191681
9	0xbe9cf763	-0.3065749
10	0xbe85649f	-0.2605333
11	0xbd4ccff2	-0.050003
12	0x3e91839f	0.2842073
13	0x3e71550f	0.23567604
14	0xbe48b843	-0.1960154
15	0x3c028910	0.007967249
16	0x3e050cfd	0.12993236
17	0x3e5dcfac	0.21661252
18	0xbdbb25c7	-0.09138065
19	0xbe874e94	-0.26427138
20	0xbea9a6be	-0.33135027
21	0x3deed278	0.116612375
22	0x3e046e25	0.12932642
23	0xbcafe775	-0.021472672
24	0x3dfbc0cc	0.122926325
25	0xbd81ea5b	-0.06343528
26	0x3db4b049	0.08822686
27	0x3e8e489a	0.27789766
28	0x3cee9c97	0.029127402
29	0x3e1d8e26	0.15386257
30	0xbdab90a3	-0.08377197
31	0x3d3d139a	0.04616127
32	0xbe92b2ce	-0.28652042
33	0xbc104c7e	-0.0088073
34	0xbe872e45	-0.26402488
35	0x3e622192	0.22083119
36	0x3df91eae	0.12164055
37	0xbe8ba7a0	-0.27276325
38	0xbdc8d23b	-0.09805723
39	0x3e4a1392	0.19734028
40	0xbbe78a40	-0.007066041
41	0x3e893e43	0.26805314
42	0xbe530648	-0.20607865
43	0x3e99ec64	0.30063164
44	0xbd0c6d77	-0.03428408
45	0xbe65f060	-0.22454977
46	0xbe3c11e5	-0.18366201
47	0x3d7dd592	0.061971255
48	0x3b87d225	0.004144924
49	0xbe83fe69	-0.25780037
50	0x3e899334	0.2687012
51	0x3d393c54	0.04522355
52	0x3e6479cd	0.22312088
53	0x3d2a160b	0.041524928
54	0xbd349628	-0.044088513
55	0x3e5d369e	0.21602866
56	0xbe8242ea	-0.25441676
57	0xbe8aebe7	-0.27133104
58	0x3ddd44de	0.10804151
59	0xbc8fabd2	-0.017537985
60	0xbe73afc6	-0.23797521
61	0xbd3f937d	-0.046771515
62	0xbc9b8a8b	-0.01898696
63	0x3e44afc7	0.19207679
64	0xbdb55012	-0.08853163
65	0x3ca443c8	0.020051852
66	0xbdc5b153	-0.096529625
67	0x3dfc8f89	0.12332065
68	0xbdaae261	-0.083439596
69	0x3e03b865	0.1286331
70	0x3e483c5d	0.19554277
71	0xbcb1f1b7	-0.021721704
72	0x3df4ad7c	0.11947152
73	0xbe551aec	-0.20811051
74	0x3db2583b	0.08708235
75	0xbd30bcd8	-0.043148845
76	0x3e4aa936	0.19791111
77	0xbe79a780	-0.24380302
78	0x3b88c91c	0.0041743647
79	0xbe2b5dec	-0.16735047
80	0xbe0cb301	-0.1374016
81	0x3e46ac32	0.19401625
82	0x3e27e199	0.16394652
83	0xbe6e2980	-0.23258018
84	0x3e8669cd	0.26252595
85	0xbe750a82	-0.2392979
86	0x3e519bb5	0.20469554
87	0x3c9bc522	0.019014899
88	0xbe905834	-0.28192294
89	0x3e9320d0	0.2873597
90	0xbd0bd01b	-0.03413401
91	0x3e1f899e	0.1557984
92	0x3e4a6014	0.19763213
93	0xbe59ee35	-0.21282275
94	0xbdd0aafc	-0.10188863
95	0xbe417c7b	-0.18895142
96	0x3b26fac8	0.0025479067
97	0x3e4f737d	0.20258899
98	0x3d59cf76	0.053176366
99	0x3e355c13	0.17710905
100	0x3e59e518	0.21278799
101	0xbd7053f8	-0.05867383
102	0x3e8a1300	0.2696762
103	0xbdb84417	-0.08997362
104	0x3d2b7ad5	0.04186519
105	0xbddb420e	-0.10705958
106	0xbe7b594b	-0.24545781
107	0xbc33ee97	-0.010982177
108	0xbe0a90a5	-0.1353174
109	0xbd9ffed4	-0.078122765
110	0xbda9e2e9	-0.08295233
111	0xbd0cdf02	-0.034392364
112	0x3eceeb08	0.4041369
113	0xbe9518bb	-0.2912043
114	0xbe53cee5	-0.20684393
115	0xbe901650	-0.28142023
116	0xbe8a3265	-0.26991573
117	0x3e6d5bde	0.23179576
118	0x3c5c0196	0.0134281125
119	0xbc855a0d	-0.016278291
120	0x3ce0778e	0.027400758
121	0x3e3ec2bf	0.18628977
122	0xbe2a14b7	-0.16609465
123	0x3e0d76ef	0.13814901
124	0xbe9bd1a3	-0.30433378
125	0x3e1bf646	0.15230665
126	0x3e6281f2	0.22119883
127	0xbd8af970	-0.06785858
128	0xbcb1350f	-0.021631746
129	0xbe18e9fe	-0.14933011
130	0x3e029b70	0.12754607
131	0xbe331728	-0.17489302
132	0xbe83f6cb	-0.25774226
133	0x3e7ec460	0.24879599
134	0x3d4cd264	0.05000533
135	0x3d09ef62	0.03367556
136	0xbe8d4823	-0.27594098
137	0xbdd2df0a	-0.102964476
138	0xbc504608	-0.012712009
139	0xbe996bd9	-0.29965094
140	0xbe98a110	-0.2981038
141	0x3dc8f797	0.09812849
142	0xbdb09c46	-0.08623557
143	0x3e053e6e	0.13012096
144	0xbe8cebc1	-0.27523616
145	0xbe8a6b3b	-0.27034935
146	0x3e241314	0.16022903
147	0x3da6663d	0.08124969
148	0x3e055f7b	0.13024704
149	0xbe844a0b	-0.2583774
150	0x3e7638e2	0.24045137
151	0x3e901f56	0.28148907
152	0xbe8343fb	-0.25637802
153	0xbd64e080	-0.055878162
154	0xbe0b5b78	-0.13609111
155	0xbdfe3782	-0.12412931
156	0x3e2dc845	0.16970928
157	0x3e6df5c0	0.23238277
158	0x3dfda9b5	0.12385885
159	0xbdc033ea	-0.09384902
160	0xbe51f6ef	-0.20504354
161	0x3e8239b4	0.2543465
162	0xbe09b9b9	-0.13449754
163	0x3eabb586	0.3353693
164	0xbe1135f6	-0.1418074
165	0x3d98022b	0.074222885
166	0xbe4e6bdc	-0.20158333
167	0x3e4e4b37	0.2014588
168	0xbd1ad896	-0.03780421
169	0xbe6f11a0	-0.23346567
170	0x3d678a92	0.056528635
171	0x3e1c6c77	0.15275751
172	0x3e1bd78f	0.15218948
173	0xbe151231	-0.1455772
174	0xbc6dc0df	-0.014511316
175	0x3d939c20	0.07207513
176	0xbcc9860c	-0.024600051
177	0x3cce373d	0.025172824
178	0xbe14bfc3	-0.14526276
179	0xbe5e4935	-0.21707614
180	0xbe045f7b	-0.12927048
181	0xbd37c74d	-0.044867802
182	0xbe481210	-0.1953814
183	0xbe57b8e8	-0.2106663
184	0xbe06f5a5	-0.13179643
185	0xbddc80fd	-0.1076679
186	0xbe2f2d16	-0.17107043
187	0xbdadc80f	-0.08485424
188	0xbe555ba2	-0.20835736
189	0xbe0a8181	-0.13525964
190	0x3e749798	0.23885953
191	0x3e487b71	0.19578339
192	0x3e49b60c	0.19698352
193	0xbe3c7415	-0.18403657
194	0xbe84d84a	-0.25946265
195	0xbda98c4b	-0.08278712
196	0x3e7f251c	0.249165
197	0xbe474690	-0.19460511
198	0x3e81f645	0.253832
199	0x3e3fd6ec	0.1873433
200	0x3e82beff	0.25536343
201	0x3d703083	0.058640014
202	0xbe2a192f	-0.1661117
203	0x3cf6bfb9	0.030120717
204	0xbe1046d2	-0.14089516
205	0x3e1b39c3	0.15158753
206	0xbdb54257	-0.08850544
207	0xbd545765	-0.05184116
208	0x3eb37881	0.35052875
209	0x3e419737	0.1890534
210	0xbe81ede0	-0.25376797
211	0x3e55f861	0.2089553
212	0x3e8156ff	0.25261685
213	0x3e577e9c	0.21044391
214	0xbda0f062	-0.078583494
215	0x3dd1682d	0.10224948
216	0xbe8f9661	-0.28044418
217	0xbda9c674	-0.08289805
218	0x3e05dbd1	0.13072135
219	0xbe4e3e98	-0.20141065
220	0xbd23522c	-0.039873287
221	0xbe079211	-0.13239314
222	0xbe6c61c2	-0.23084167
223	0x3e2bd036	0.16778645
224	0xbe1a22c8	-0.1505233
225	0xbe765a45	-0.24057873
226	0xbe28e61d	-0.16494031
227	0xbc01a83c	-0.007913645
228	0x3e12a8cf	0.14322208
229	0xbe8910d1	-0.26770642
230	0x3c459e35	0.012061645
231	0xbe94a236	-0.29030007
232	0xbe4eeb5c	-0.2020697
233	0x3df23720	0.118269205
234	0xbe9aca04	-0.3023225
235	0x3e21d395	0.15803368
236	0xbe502b36	-0.20328984
237	0x3ddfc1fa	0.1092567
238	0xbd87e46a	-0.066353634
239	0x3e18e84e	0.14932367
240	0x3df9fb18	0.122060955
241	0xbe6f6d70	-0.23381591
242	0xbd105c58	-0.035244316
243	0xbdf5e0b0	-0.12005746
244	0xbd7622b5	-0.060091693
245	0xbe591434	-0.21199113
246	0x3d2104cb	0.03931121
247	0xbd91561b	-0.070965014
248	0xbdb127e1	-0.086501844
249	0x3e370769	0.1787392
250	0x3c5ede7c	0.013602849
251	0x3cd4e1fb	0.025986662
252	0x3e3e7467	0.18599091
253	0xbe96e33a	-0.29470235
254	0x3e397a16	0.18112978
255	0x3e216f4c	0.15765113

bias f4 [40]
0	0x3e3580cd	0.17724915
1	0x3dc636e0	0.09678435
2	0xbdbdf38d	-0.09274969
3	0x3e5f2498	0.21791303
4	0xbdc6f09e	-0.09713863
5	0xbe5106f8	-0.20412815
6	0xbe5073db	-0.20356695
7	0x3e254f53	0.16143541
8	0xbda01307	-0.07816129
9	0x3e84a07a	0.25903684
10	0xbe412fff	-0.18865965
11	0x3b95bb44	0.004569443
12	0x3e868212	0.2627111
13	0xbe3c2f84	-0.18377501
14	0x3e1c8105	0.15283592
15	0x3df9ef36	0.12203829
16	0xbe0644e2	-0.13112214
17	0xbe66e570	-0.22548461
18	0xbe61fd5c	-0.22069305
19	0xbdda4fce	-0.10659753
20	0x3e07a9a3	0.13248305
21	0x3e3d00ee	0.18457386
22	0x3e5d03e5	0.21583517
23	0x3e82e4c5	0.25565162
24	0xbe267a7b	-0.1625766
25	0x3d4ee67d	0.05051278
26	0x3c3228c4	0.010873977
27	0xbb069151	-0.0020533393
28	0xbe5f85d1	-0.2182839
29	0x3e39b930	0.1813705
30	0x3d96da56	0.07365863
31	0x3e8a5901	0.2702103
32	0xbdacb1c3	-0.08432343
33	0xbe6d9356	-0.23200735
34	0x3b4e3271	0.003146317
35	0xbe9389a1	-0.2881594
36	0x3e122fec	0.14276093
37	0x3ead3bef	0.33834788
38	0xbe4b297d	-0.19840045
39	0xbcaa6d1d	-0.020803982

weight f4 [20, 40]
0	0xbe2d51bf	-0.16925715
1	0x3d0a91b7	0.03383037
2	0x3da7d534	0.08194962
3	0xbe3345be	-0.17507073
4	0xbda29bb5	-0.07939855
5	0x3d88e777	0.066847734
6	0x3dd651ed	0.10464845
7	0x3bf82711	0.0075730165
8	0xbdd5e45d	-0.104439475
9	0x3ad2f1f0	0.0016093832
10	0x3d85e060	0.06536937
11	0xbddf79e9	-0.109119244
12	0xbd0df5a6	-0.034658097
13	0xbe019d13	-0.12657575
14	0xbe1b3f86	-0.15160951
15	0x3e218896	0.1577476
16	0x3d53f8db	0.051751
17	0xbe1da07c	-0.15393251
18	0x3ddad1bd	0.10684536
19	0xbdd5dff4	-0.10443106
20	0x3de5457c	0.11194894
21	0x3c2fd548	0.010732003
22	0xbce3fa50	-0.02782932
23	0x3d24e61f	0.040258523
24	0x3d58bb8e	0.05291324
25	0xbd4d4b73	-0.050120782
26	0xbe0d213d	-0.1378221
27	0xbce00f1f	-0.02735096
28	0xbd8d6a34	-0.06905022
29	0xbdca10ad	-0.09866462
30	0xbdac990e	-0.0842763
31	0xbddaaa93	-0.10677066
32	0x3e0dc2c1	0.13843824
33	0xbdd35817	-0.10319536
34	0x3e037e4d	0.12841149
35	0xbb8adc75	-0.0042377063
36	0x3cb8854a	0.022524495
37	0xbd55b9d6	-0.05217918
38	0x3c5cfd20	0.013488084
39	0xbd868dde	-0.06570028
40	0x3dec1727	0.115278535
41	0x3d230e09	0.039808307
42	0xbccf82b7	-0.025330884
43	0x3d8fbd71	0.07018555
44	0xbe228311	-0.1587031
45	0x3d94f1e3	0.07272699
46	0xbe3584fe	-0.17726514
47	0xbde7ff01	-0.11327935
48	0xbcee5567	-0.029093457
49	0x3d9d2f82	0.07675077
50	0x3dfe59d2	0.124194756
51	0x3d13ae71	0.036055032
52	0x3b3cea14	0.0028826045
53	0xbc406911	-0.0117438
54	0x3db8ae45	0.09017614
55	0xbd0d7a19	-0.03454027
56	0xbd33d6ab	-0.043905895
57	0xbcc08d6b	-0.023504933
58	0x3d4180bf	0.047241922
59	0xbc384e6a	-0.011249164
60	0x3d2ef40e	0.042713217
61	0x3d2bd3ee	0.04195016
62	0xbdce7100	-0.10080147
63	0x3d4b7eb8	0.049681395
64	0x3be07849	0.0068502766
65	0x3d1b9a8a	0.037989177
66	0xbe1a4988	-0.15067112
67	0x3d7ed1ce	0.062211804
68	0xbad9cb43	-0.0016616363
69	0x3e26cc0c	0.16288775
70	0xbd8b1c65	-0.06792525
71	0xbe11beb0	-0.14232898
72	0xbe0ea5bc	-0.1393041
73	0x3d5abe0b	0.053403895
74	0xbc2800b0	-0.01025407
75	0xbd1b5963	-0.037927043
76	0x3d12fcb0	0.035885513
77	0x3d5abde0	0.053403735
78	0xbe22001d	-0.15820356
79	0x3dbb2c2a	0.09139283
80	0x3e00d6a9	0.12581886
81	0x3e04ce0e	0.12969229
82	0xbc4847d7	-0.012224159
83	0x3daec394	0.08533397
84	0xbb8d491e	-0.0043116948
85	0x3d8f8920	0.070085764
86	0x3d6cdf07	0.057829883
87	0x3c3f7d37	0.011687568
88	0x3d6b338d	0.05742221
89	0xbe0071ba	-0.12543383
90	0xbe01aebc	-0.12664312
91	0x3dd152c9	0.10220868
92	0xbe0cbae7	-0.13743173
93	0xbdcdefdf	-0.100555174
94	0x3d52a0bb	0.051422816
95	0xbdc03a2c	-0.093860954
96	0xbb8f0057	-0.004364054
97	0xbbdf3609	-0.0068118614
98	0xbdc70885	-0.09718422
99	0xbdf5c924	-0.12001255
100	0x3da0f3bc	0.07858989
101	0xbe1b6cd7	-0.15178238
102	0x3db31b00	0.08745384
103	0xbdfc6bae	-0.12325226
104	0x3d8613f3	0.06546774
105	0x3e10e21b	0.14148752
106	0x3e29c24d	0.16578026
107	0x3d5628e5	0.052285094
108	0xbc991b81	-0.018689873
109	0xbd3345c0	-0.04376769
110	0xba92a11f	-0.0011186934
111	0xbc8a94ef	-0.01691672
112	0x3db80c15	0.089866795
113	0xbe189b4d	-0.14902993
114	0x3d481c28	0.048854977
115	0xbd7cbd9f	-0.061704274
116	0xbdefc700	-0.11707878
117	0xb9ce9255	-0.00039400408
118	0x3d556bfa	0.052104928
119	0x3d631e60	0.05544889
120	0xbc869bc9	-0.016431706
121	0xbcd39d46	-0.02583183
122	0x3d2e6fa6	0.042586945
123	0x3e09f6f1	0.13473107
124	0x3db5c8ec	0.088762134
125	0x3d21cb15	0.039500315
126	0xbdca6e02	-0.098842636
127	0xbe10bd17	-0.14134632
128	0x3d8731c4	0.06601289
129	0x3da2596c	0.07927212
130	0x3d1b23fa	0.037876107
131	0xbe1db717	-0.15401874
132	0x3c09797b	0.00839078
133	0x3d8fbb9c	0.070182055
134	0xbe175170	-0.1477716
135	0x3d8bdfff	0.06829833
136	0x3df5bd29	0.1199897
137	0x3dea6e5e	0.11446832
138	0x3d0994e2	0.03358925
139	0x3dc96045	0.09832815
140	0x3d6c2b63	0.057658564
141	0xbd89f9e4	-0.06737116
142	0xbdc84b86	-0.0978003
143	0xbd9792ad	-0.07401023
144	0x3e1d871c	0.15383571
145	0xbdfcb62c	-0.12339434
146	0xbd3a9ec6	-0.045561574
147	0x3dedc067	0.116089635
148	0xbd6a18bd	-0.0571525
149	0xbcb74e13	-0.022376096
150	0x3bf6eda5	0.0075356537
151	0x3db8524e	0.090000734
152	0xbe1cb4a0	-0.15303278
153	0x3d007ae1	0.031367186
154	0xbd48a774	-0.04898782
155	0xbda459af	-0.08024918
156	0x3e0cc956	0.13748679
157	0x3e118fff	0.14215086
158	0x3d8f8641	0.07008029
159	0xbe050a69	-0.12992252
160	0x3df5601e	0.119812235
161	0x3dd03fd4	0.10168424
162	0x3d3198ef	0.04335874
163	0x3d141591	0.03615338
164	0x3d724521	0.059147958
165	0xbde2d941	-0.11076594
166	0x3ddd2769	0.107985325
167	0x3d4d8fa7	0.050185826
168	0xbda526f9	-0.08064074
169	0xbda06b98	-0.07833022
170	0x3c8e5f4d	0.017379427
171	0xbd4d9bcc	-0.050197408
172	0xbe103b9c	-0.14085239
173	0xbe11f208	-0.14252484
174	0xbdc4abd7	-0.09603088
175	0x3db3ec2f	0.08785283
176	0xbd004992	-0.031320162
177	0xbd28286f	-0.041054185
178	0xbe085c8c	-0.13316554
179	0xbe2757b1	-0.16342045
180	0xbd791fe7	-0.06082144
181	0x3d9756bb	0.073895894
182	0x3d512a21	0.051065568
183	0xbbbc9e01	-0.00575614
184	0xbe0a1883	-0.13485913
185	0xba242622	-0.0006261786
186	0x3cb1c082	0.02169824
187	0xbdfadacc	-0.122487634
188	0x3d8dbc76	0.06920712
189	0xbd2ce520	-0.042210698
190	0x3da9a91c	0.08284208
191	0xbcb4997b	-0.022045841
192	0x3e082aec	0.13297623
193	0x3d4af89c	0.0495535
194	0xbd910b5d	-0.070822455
195	0xbc57a980	-0.013162971
196	0xbd6ea7ed	-0.058265615
197	0xbde878a1	-0.11351133
198	0xbc87e8be	-0.016590472
199	0x3cc56159	0.02409427
200	0xbe0e33fc	-0.13887018
201	0xbe0f78cf	-0.14010929
202	0x3d39d8aa	0.045372643
203	0x3dabeda1	0.083949335
204	0x3d4496d0	0.04799539
205	0x3c85618d	0.016281867
206	0xbd66f31e	-0.0563842
207	0xbe279615	-0.16365846
208	0xbbb6e00d	-0.005580908
209	0xbd0373bd	-0.0320928
210	0xbde22376	-0.1104192
211	0x3e107343	0.14106469
212	0x3d5239ae	0.05132454
213	0x3dcbb956	0.099474594
214	0xbbcea1da	-0.0063059153
215	0x3d902bc5	0.070395984
216	0x3de9aef3	0.11410322
217	0x3d8a1f81	0.0674429
218	0xbcd8b3e9	-0.026452975
219	0x3e248853	0.16067629
220	0x3dd16598	0.102244556
221	0xbd12b072	-0.035812803
222	0xbd0afd04	-0.0339327
223	0xbbf350c5	-0.0074254
224	0x3db56069	0.088562794
225	0x3da18576	0.07886784
226	0xbe168ae0	-0.14701414
227	0xbd8989ed	-0.067157604
228	0xbdc89a37	-0.09795039
229	0x3d068967	0.03284588
230	0x3d31c46a	0.043400206
231	0xbd4af333	-0.04954834
232	0x3dcadcf0	0.09905422
233	0x3daa41d9	0.08313341
234	0x3bdbb22c	0.0067045894
235	0x3de69572	0.11258973
236	0xbdc12ac7	-0.09431987
237	0x3d87ddc3	0.066340946
238	0xbe0fbe6b	-0.14037482
239	0x3e1c9659	0.15291728
240	0x3de7bc04	0.11315158
241	0xbda7f316	-0.08200662
242	0xbdd1cecd	-0.10244522
243	0xbc8c8e04	-0.017157562
244	0xbe22e19e	-0.15906379
245	0x3d8f1ea6	0.069882676
246	0xbdef2ccd	-0.11678467
247	0xbd987a5f	-0.074452154
248	0x3d9be032	0.07611121
249	0x3ce664a3	0.02812416
250	0xbde0de40	-0.10979891
251	0xbd7d8f72	-0.06190438
252	0xbdb31812	-0.087448254
253	0x3db68030	0.089111686
254	0x3db9b525	0.09067754
255	0x3d9a468d	0.07532988

bias f4 [20]
0	0x3c93066d	0.0179474
1	0xbdc15a9c	-0.094411105
2	0x3d84d27f	0.064854614
3	0x3bfe4960	0.007760212
4	0xbdeacf55	-0.11465327
5	0x3d396358	0.045260757
6	0xbd94ae05	-0.07259754
7	0x3d4ebc73	0.050472688
8	0xbd588e8c	-0.05287032
9	0xbc26e977	-0.010187498
10	0xbdf4b665	-0.119488515
11	0xbd2eb6dd	-0.04265486
12	0xbd809d50	-0.06280005
13	0x3bf17475	0.007368619
14	0x3c8f0a2c	0.017460905
15	0xbdada790	-0.08479226
16	0x3d0580b3	0.03259344
17	0xbe04714a	-0.12933841
18	0x3e2eaf08	0.17058957
19	0x3e0194bd	0.12654395

weight f4 [20, 40]
0	0xbd991e99	-0.07476539
1	0xbe07abca	-0.13249126
2	0xbcc29ce5	-0.023756454
3	0x3d4364c3	0.047703516
4	0x3dd662aa	0.104680374
5	0xbe06334a	-0.13105503
6	0xbde93383	-0.11386778
7	0xbc2049d2	-0.009783225
8	0xbd6b7a82	-0.05748988
9	0xbdbacf01	-0.09121514
10	0x3dd3deca	0.10345228
11	0xbcc40549	-0.023928301
12	0xbddd4d80	-0.108057976
13	0xbcfa11c4	-0.03052605
14	0x3b840f76	0.0040301634
15	0xbd8c5e4d	-0.06853924
16	0xbdf86722	-0.12129046
17	0xbe04ab8f	-0.1295607
18	0xbdac3a2b	-0.08409532
19	0xbc6d6f36	-0.014491847
20	0xbd82c49b	-0.06385156
21	0x3dc90916	0.09816186
22	0x3dd5bfb1	0.10436953
23	0xbd6907ff	-0.05689239
24	0x3e07c61e	0.1325917
25	0xbcf294e2	-0.029612008
26	0xbdcde984	-0.10054305
27	0x3def2ac8	0.11678082
28	0x3de22da7	0.11043864
29	0xbdf01ff3	-0.11724844
30	0xbd891fb1	-0.06695498
31	0xbd900551	-0.07032264
32	0xbd6ef2b8	-0.058336943
33	0xbcae4941	-0.021275165
34	0x3d8c671a	0.068556026
35	0x3d67a8b9	0.05655739
36	0x3e0cb7ac	0.1374194
37	0xbdd99e24	-0.10625866
38	0xbca8e9ab	-0.020619234
39	0x3cef0999	0.029179381
40	0x3dcd741e	0.10031913
41	0x3d3f899f	0.046762105
42	0x3d9ab7b0	0.07554567
43	0x3c9e1400	0.019296646
44	0x3db7cab5	0.0897421
45	0x3dcc06cb	0.09962233
46	0xbda02565	-0.078196324
47	0x3d85be53	0.06530442
48	0xbdc31e94	-0.09527317
49	0x3d8fc87e	0.07020663
50	0xbd8d9190	-0.069125295
51	0xbde942f8	-0.113897264
52	0xbe21536d	-0.1575448
53	0xbdab9f29	-0.08379967
54	0xbd4a95b0	-0.04945916
55	0x3dbc615e	0.09198259
56	0x3de5d67e	0.11222552
57	0x3e236b1a	0.15958825
58	0x3e0e64da	0.1390566
59	0xbd28f11e	-0.041245572
60	0xb9d58705	-0.00040727123
61	0xbd81b794	-0.06333843
62	0xbd9f3e25	-0.07775525
63	0xbdab504f	-0.08364927
64	0xbdc70fd8	-0.09719819
65	0x3e1a6fed	0.15081759
66	0xbdbf3a32	-0.09337272
67	0xbcc9a0f7	-0.024612887
68	0x3dcaf112	0.09909262
69	0x3ddcd09f	0.10781979
70	0xbd1f357a	-0.03886936
71	0xbd2df4df	-0.042469855
72	0x3dc3b5bd	0.09556148
73	0x3d99fda2	0.0751908
74	0x3e285eec	0.1644246
75	0x3c5edf40	0.013603032
76	0xbc705a58	-0.014669977
77	0x3d3379de	0.043817393
78	0x3df80f72	0.12112321
79	0x3ded78f4	0.115953356
80	0x3e1e6888	0.15469563
81	0x3c9bec10	0.019033462
82	0x3de00e03	0.109401725
83	0xbdf7ded5	-0.12103049
84	0x3dbe6364	0.09296301
85	0x3d5326e5	0.051550765
86	0xbca35f55	-0.019942919
87	0xbd574900	-0.052559853
88	0x3dc9d6e1	0.09855438
89	0x3dfe4c0b	0.12416848
90	0xbb8a0d73	-0.004213029
91	0xbd790557	-0.060796108
92	0x3c3b0605	0.011415009
93	0xbd46271e	-0.04837715
94	0x3dce5ec2	0.10076667
95	0x3c67c07a	0.014145011
96	0xbd0cbac9	-0.03435782
97	0xbdfdf80d	-0.124008276
98	0xbcd05a20	-0.0254336
99	0xbdc24157	-0.09485119
100	0xbda85db5	-0.08220998
101	0x3de0ce1d	0.10976813
102	0xbd8bdf34	-0.06829682
103	0x3d9bf908	0.07615858
104	0xbdad235f	-0.08454012
105	0x3d83cd92	0.06435694
106	0xbc6a1f2e	-0.01428966
107	0x3bfc4e0b	0.007699733
108	0x3df1334f	0.117773645
109	0x3ccbddfc	0.024886124
110	0x3dd76e30	0.105190635
111	0xbe06d759	-0.13168086
112	0xbd21b3a8	-0.039477974
113	0x3d89dec2	0.06731941
114	0xbe062381	-0.13099481
115	0xbc5291a7	-0.012852109
116	0x3d2a85b4	0.041631415
117	0xbe0e3daf	-0.13890718
118	0xbdfbe5d0	-0.12299693
119	0x3cd89997	0.026440425
120	0x3b0fd07f	0.0021944342
121	0xbd4cd2f6	-0.050005876
122	0xbde84d20	-0.113428354
123	0x3d90f92a	0.07078774
124	0xbb3abe16	-0.0028494648
125	0xbd0da75d	-0.03458344
126	0x3da28d7e	0.07937144
127	0xbde0427a	-0.109501794
128	0xbe10ecb4	-0.14152795
129	0xbd982d0a	-0.074304655
130	0xbdec795a	-0.115465835
131	0xbd05f431	-0.032703582
132	0xbdb066f8	-0.0861339
133	0xbda96fc2	-0.08273269
134	0xbdbb6693	-0.09150424
135	0x3c61d8ce	0.0137846
136	0xbdc30c1a	-0.095237926
137	0xbdef0f0c	-0.11672792
138	0x3b4126fd	0.0029472702
139	0xbda78c1d	-0.08181021
140	0x3dec4b43	0.115377925
141	0xbe0bb710	-0.13644052
142	0xbdfdf425	-0.124000825
143	0x3cfcc0ba	0.030853618
144	0xbdd4b586	-0.10386185
145	0x3c0bf76d	0.008542878
146	0x3e17ea14	0.14835387
147	0xbd372ffa	-0.04472349
148	0xbd7e8195	-0.062135298
149	0x3cafe14d	0.021469736
150	0xbe149f58	-0.1451391
151	0x3b76e7af	0.0037674715
152	0xbe02c950	-0.12772107
153	0x3ca12925	0.01967294
154	0x3d0e5966	0.034753226
155	0x3db329fa	0.08748241
156	0xbda66a9e	-0.08125804
157	0xbe16651c	-0.14687008
158	0xbd402ea6	-0.046919487
159	0xbdf2a7db	-0.11848422
160	0xbe040e0e	-0.12895986
161	0x3dc77d0b	0.09740647
162	0x3d361f94	0.04446371
163	0x3d0ad940	0.033898592
164	0xbd970b3f	-0.07375192
165	0xbdf3cfe5	-0.11904887
166	0xbdc365a9	-0.095408745
167	0xbdea98af	-0.11454903
168	0xbd26937c	-0.040667996
169	0xbda7bb06	-0.08189969
170	0xbdd3e3e6	-0.103462026
171	0x3e1999e7	0.15000115
172	0x3d07535f	0.033038493
173	0x3e19fbaa	0.15037408
174	0x3da40d15	0.08010308
175	0xbdb49a11	-0.08818448
176	0xbdf00385	-0.11719421
177	0x3d18eee6	0.037337206
178	0x3df1c87f	0.1180582
179	0x3df4fc9b	0.11962243
180	0xbe0073b2	-0.12544134
181	0x3d7bed26	0.06150546
182	0x3d45c6e6	0.048285387
183	0x3c623793	0.013807195
184	0xbdc9832d	-0.09839473
185	0xbd69ae7e	-0.057051174
186	0x3e45afea	0.19305387
187	0x3d0b5122	0.03401292
188	0x3d0b3a54	0.033991173
189	0xbb821a6f	-0.0039704363
190	0x3cd6f2ab	0.02623876
191	0xbdb982d2	-0.09058155
192	0x3d992fb4	0.07479802
193	0x3d3514d3	0.044209313
194	0xbdc78493	-0.097420834
195	0xbd35f18d	-0.044419814
196	0xbe1413ba	-0.1446065
197	0xbd0d1843	-0.034446966
198	0xbdd91ffd	-0.106018044
199	0xbd4e1fc9	-0.05032328
200	0x3e1b3b3c	0.15159315
201	0xbdb946d2	-0.09046711
202	0x3de17759	0.11009092
203	0xbcd8d932	-0.026470754
204	0xbdb1a8ed	-0.08674798
205	0x3c7af257	0.015316567
206	0xbdf3ffd9	-0.119140334
207	0xbc6caa68	-0.014444925
208	0x3dd87dab	0.10570844
209	0xbda4a14e	-0.08038579
210	0x3dde3040	0.10849047
211	0x3d0aa04d	0.03384428
212	0x3d237b00	0.039912224
213	0x3bee45fc	0.0072715264
214	0xbbce1068	-0.006288577
215	0xbd1c1fe0	-0.038116336
216	0xbdd88098	-0.10571402
217	0x3dd186af	0.10230767
218	0x3c9d4ccc	0.019201659
219	0x3ce24a6b	0.027623376
220	0x3d488041	0.048950437
221	0xbe0ebb91	-0.13938738
222	0x3d85d365	0.06534461
223	0x3db1c4b4	0.08680096
224	0xbc41f20c	-0.011837494
225	0x3d49f48a	0.049305476
226	0x3dbe83e7	0.09302502
227	0xbd347d1a	-0.04406462
228	0x3d7640bf	0.06012034
229	0x3e001515	0.12508042
230	0xbdd0fbbc	-0.102042645
231	0x3db2c7ee	0.0872954
232	0x3ce12535	0.027483562
233	0x3e246cac	0.1605708
234	0x3d2e88c3	0.042610895
235	0xbddb632c	-0.10712275
236	0xbdf24db0	-0.11831224
237	0xbe1972f9	-0.14985265
238	0xbe0efeed	-0.13964434
239	0x3c46e4d2	0.012139516
240	0x3de07c81	0.10961247
241	0x3ce1e196	0.027573388
242	0xbdc5bc25	-0.09655026
243	0xbb35fc3a	-0.0027768747
244	0xbddd78aa	-0.108140305
245	0xbdbc8a4c	-0.092060655
246	0x3e250ef1	0.16118981
247	0x3d4f0fc9	0.050552163
248	0xbe0d145d	-0.13777299
249	0x3c47303c	0.012157496
250	0xbe008374	-0.12550145
251	0xbda1719b	-0.07882997
252	0xbe322a8c	-0.17399043
253	0xbc4bab1d	-0.012430933
254	0x3de09748	0.109663546
255	0x3dab17a1	0.08354116

bias f4 [20]
0	0x3d872d8e	0.06600486
1	0x3de0c3d5	0.10974852
2	0xbdc844ec	-0.09778771
3	0x3d5a6391	0.05331761
4	0x3d339df0	0.043851793
5	0x3dea81d4	0.11450544
6	0x3d19c062	0.037536986
7	0xbd1132ef	-0.035448965
8	0x3de2778e	0.110579595
9	0x3ce84293	0.028352058
10	0xbde24529	-0.110483475
11	0xbe05625f	-0.13025807
12	0xbc9cee5b	-0.019156625
13	0xbe280304	-0.164074
14	0xbd48a1a8	-0.048982292
15	0xbdf09201	-0.11746598
16	0x3e078e10	0.13237786
17	0xbc9821eb	-0.01857086
18	0x3dbbb7a3	0.09165885
19	0x3e021d83	0.1270657

weight f4 [10, 20]
0	0xbe958a90	-0.29207277
1	0xbe4c16ea	-0.19930616
2	0x3e3f72f7	0.186962
3	0xbe9662ac	-0.29372156
4	0xbdd135f0	-0.10215366
5	0x3e4ba753	0.19888048
6	0x3eef1e95	0.4670302
7	0xbf0a9f3c	-0.5414922
8	0x3eb7ceed	0.3590006
9	0xbd78a6c4	-0.060705915
10	0x3e5b44ee	0.21413013
11	0xbee44cc1	-0.4458981
12	0x3e91f03a	0.2850359
13	0x3e963c31	0.29342797
14	0xbee0b57c	-0.43888462
15	0xbef75582	-0.48307425
16	0xbe2bcd8a	-0.16777626
17	0xbeb40db2	-0.351667
18	0x3ee564a1	0.44803336
19	0xbe25b0fc	-0.16180795
20	0xbe9be4b8	-0.30447936
21	0x3f01d098	0.50708914
22	0x3e6f1f1a	0.23351708
23	0x3e75f497	0.24019085
24	0xbeef1f6e	-0.46703666
25	0xbdb6bcd4	-0.08922735
26	0x3ec717b4	0.38885272
27	0x3e99c975	0.30036512
28	0xbf006da0	-0.50167274
29	0x3cbd476f	0.023105351
30	0xbea2ea0c	-0.3181919
31	0x3ec91a5f	0.39277932
32	0xbcf0aeed	-0.029380286
33	0x3f182464	0.5943053
34	0xbe85bcbd	-0.26120558
35	0xbeb3ee98	-0.3514297
36	0x3e990d4e	0.29892963
37	0xbe38bd4e	-0.18040964
38	0x3ec50484	0.38480008
39	0xbe8e2b10	-0.2776723
40	0xbe3e3164	-0.18573529
41	0x3e84cf5b	0.2593945
42	0x3e7d629f	0.24744652
43	0xbe52828a	-0.20557609
44	0x3eb26d4e	0.34849018
45	0x3dd44afc	0.10365865
46	0xbdeba055	-0.1150519
47	0xbec8aa61	-0.3919249
48	0xbefa1136	-0.48841256
49	0x3f26dce9	0.6518083
50	0x3e7f921f	0.24958085
51	0xbee0bbd1	-0.43893293
52	0x3e8c4ebd	0.27403823
53	0xbe68f697	-0.22750317
54	0x3eb13085	0.3460733
55	0x3e279dc4	0.16368777
56	0xbeb3015d	-0.34961978
57	0x3e4b7ec0	0.1987257
58	0xbefabaa3	-0.48970518
59	0x3e817f2f	0.25292346
60	0x3e7b8ba8	0.24564993
61	0xbcbadde9	-0.022810893
62	0xbe4cdc44	-0.200059
63	0x3eeafa7e	0.45894235
64	0xbf04763d	-0.5174292
65	0xbea4b728	-0.32170987
66	0x3e62570f	0.22103523
67	0x3edfa0c0	0.4367733
68	0x3edcdeca	0.43138725
69	0xbdc74705	-0.09730343
70	0xbef528f5	-0.4788281
71	0xbef0ba89	-0.47017315
72	0xbeaf0794	-0.3418547
73	0xbe814e41	-0.25255015
74	0x3ee90f9f	0.4551973
75	0x3eb8ef60	0.3612013
76	0xbec0b7c9	-0.37640217
77	0xbe7bb4e3	-0.24580722
78	0x3d1ac557	0.037785854
79	0xbe5cca66	-0.21561584
80	0x3dda2def	0.106532924
81	0xbde1d057	-0.11026066
82	0xbe8482c5	-0.2588102
83	0xbee4aebd	-0.44664565
84	0x3e94db16	0.290734
85	0xbec46f9d	-0.38366404
86	0xbe7f4593	-0.24928884
87	0xbdd80032	-0.10546912
88	0x3e8d7317	0.2762687
89	0x3df095fb	0.117473565
90	0xbe597bf3	-0.21238689
91	0x3e3e980d	0.1861269
92	0xbede9307	-0.43471548
93	0x3e7cb3bf	0.24677943
94	0xbe9489b8	-0.2901132
95	0x3eb038b4	0.3441826
96	0xbdda7795	-0.1066734
97	0xbd4b3af1	-0.049616758
98	0xbeb102f6	-0.34572572
99	0xbebfe493	-0.37479076
100	0x3ddab242	0.10678531
101	0xbdd5080b	-0.10401925
102	0x3e9378d5	0.28803125
103	0x3e9f80d9	0.3115299
104	0x3dfa67ae	0.122268066
105	0x3eb2290e	0.34796947
106	0x3dc4580d	0.09587107
107	0x3ecf4609	0.4048312
108	0x3ead0e12	0.33799797
109	0xbe373325	-0.17890604
110	0x3edba33a	0.4289797
111	0xbeb7a929	-0.35871246
112	0xbcc23f06	-0.023711693
113	0xbec312b4	-0.38100207
114	0x3e4f9e32	0.2027519
115	0x3ea7864f	0.32719657
116	0x3e8a2bec	0.26986635
117	0x3d514dfc	0.051099762
118	0xbd8af1d8	-0.06784409
119	0x3ed16bff	0.40902707
120	0xbc4aa82a	-0.012369195
121	0x3c687c4f	0.014189794
122	0x3aa408ea	0.0012514864
123	0x3b591d2d	0.0033128962
124	0x3c5aa0c1	0.013343991
125	0x3b60b582	0.0034287875
126	0x3c851ab5	0.016248086
127	0xbb1adb85	-0.002362938
128	0xbb98d1a2	-0.004663662
129	0x3c132074	0.008979905
130	0xbc9f5bf1	-0.01945302
131	0xbc7ced4b	-0.015437434
132	0x3bce8f7e	0.0063037267
133	0xbcfcb912	-0.030849967
134	0xbc22f846	-0.009946888
135	0x3d016978	0.031594723
136	0xbc1f0ace	-0.009707166
137	0x3c180ef8	0.009280913
138	0xbd153f7d	-0.0364375
139	0xbd01a7d7	-0.031654205
140	0x3eaa1e45	0.3322622
141	0x3e5ffdce	0.21874163
142	0xbefe9480	-0.49722672
143	0xbe332826	-0.17495784
144	0x3e1c1602	0.1524277
145	0x3ea9210e	0.3303303
146	0xbdacc2f7	-0.08435624
147	0xbee07eeb	-0.4384683
148	0xbe4f9b12	-0.20273998
149	0xbdfad394	-0.122473866
150	0xbe95817e	-0.29200357
151	0x3ec8200e	0.39086956
152	0x3f20fb1e	0.62883174
153	0xbeb7d990	-0.35908175
154	0xbeccc810	-0.39996386
155	0xbd83384e	-0.06407224
156	0x3e60edf1	0.21965767
157	0x3ef1c9da	0.47224313
158	0xbf0a3091	-0.53980356
159	0x3e8d0074	0.27539408
160	0x3de91093	0.113801144
161	0xbeaecf08	-0.34142327
162	0xbe9e99d3	-0.30976734
163	0x3eac34f2	0.33634144
164	0xbec5e41b	-0.38650593
165	0x3e3e9a54	0.18613559
166	0xbf179d01	-0.59223944
167	0x3ef880ba	0.4853571
168	0x3e81a7af	0.25323245
169	0xbbb077a2	-0.005385355
170	0x3e4db745	0.20089443
171	0x3ec239fa	0.37934858
172	0xbe9ba836	-0.30401772
173	0xbebef4be	-0.37296098
174	0xbe21ed3c	-0.15813154
175	0xbf0a2d31	-0.53975207
176	0x3f0e96a2	0.556986
177	0x3d250277	0.040285554
178	0x3f1f3741	0.62193686
179	0x3e9fcbe9	0.3121026
180	0xbd0aa24b	-0.03384618
181	0x3c81abe3	0.015829032
182	0xbd894ba5	-0.06703881
183	0xba1bc473	-0.0005942054
184	0xbd517053	-0.05113251
185	0x3d1f87ba	0.0389478
186	0x3c6794b0	0.014134571
187	0xbcf52c8d	-0.02992847
188	0x3c400d0e	0.0117218625
189	0xbd22f78a	-0.039786853
190	0x3d250fe4	0.040298358
191	0xbc86cdf3	-0.016455626
192	0x3d5f9236	0.054582797
193	0xbd54f905	-0.051995296
194	0xbd500c68	-0.05079308
195	0xbbfb7968	-0.007674385
196	0xbd334f20	-0.04377663
197	0xbd0fd8b8	-0.03511879
198	0x3d691c22	0.056911595
199	0xbcaeaad6	-0.021321695

bias f4 [10]
0	0x3f93d2df	1.1548728
1	0x3f78cc89	0.97187096
2	0x3f3ac6a0	0.7295933
3	0x3fa0f5f6	1.2575061
4	0x3f83d0f0	1.0298138
5	0x3f80c72a	1.006078
6	0xbe49dad1	-0.19712378
7	0x3f82d88a	1.0222332
8	0x3f3a009b	0.72657174
9	0xbe7baad6	-0.24576887

weight f4 [1, 10]
0	0xbf2e13f5	-0.679992
1	0xbf1c27ff	-0.6099853
2	0xbf4221b8	-0.758327
3	0xbf1c2c7f	-0.61005396
4	0xbf2b3e62	-0.66892064
5	0xbf335fae	-0.7006787
6	0x3e2dd872	0.16977099
7	0xbf2c343e	-0.67267215
8	0xbf26907a	-0.65064204
9	0x3d94884e	0.072525606
