Feaprotect/models/mobile_price/sc_h-talk_time-touch_screen-battery_power-four_g-three_g/ori/VarUB/model_1.pkl (torch, 14721 bytes, 11 tensors)

weight f4 [10, 1]
0	0x3f2e8ac4	0.6818049
1	0x3f1c3588	0.6101918
2	0x3f506a2a	0.81411994
3	0x3e300c58	0.17192209
4	0x3e882455	0.2659022
5	0x3f48dc71	0.78461367
6	0xbee2f855	-0.44330087
7	0xbf0cf897	-0.5506682
8	0xbde8cfce	-0.113677606
9	0x3d8b5cd1	0.06804813

bias f4 [10]
0	0xbe889f70	-0.2668414
1	0x3e9b1c52	0.30295044
2	0x3ecf3720	0.40471745
3	0xbf12446c	-0.57135653
4	0x3e07606f	0.1322038
5	0x3ec7953e	0.3898105
6	0x3f3f0a63	0.74625224
7	0x3e5b2802	0.2140198
8	0xbd67eef3	-0.056624364
9	0x3f5cfde6	0.8632492

weight f4 [40, 10]
0	0xbd409650	-0.04701835
1	0xbd965f37	-0.073423795
2	0xbe45190c	-0.19247836
3	0xbe58e2ef	-0.21180318
4	0x3dd5c528	0.10437995
5	0x3e0a5bcc	0.1351158
6	0x3ce9c2dc	0.028535299
7	0xbdbe3ff3	-0.09289541
8	0x3bb039f4	0.0053780023
9	0xbe6ee1b3	-0.23328285
10	0x3d799def	0.060941633
11	0x3e004d2a	0.12529436
12	0xbda26707	-0.07929807
13	0x3e1ae51d	0.15126462
14	0x3da38be3	0.07985666
15	0xbc11f13b	-0.0089076115
16	0xbc10bb81	-0.008833767
17	0x3e7adc9f	0.24498223
18	0x3e2f410e	0.1711466
19	0xbe740bd1	-0.23832633
20	0xbdee0280	-0.116215706
21	0x3bc5f6af	0.00604137
22	0x3da05cd5	0.07830206
23	0xbe5cc041	-0.21557714
24	0x3db95e1d	0.09051154
25	0x3d1cab13	0.038249087
26	0x3de94344	0.11389783
27	0xbd6420a9	-0.05569521
28	0xbe4944ba	-0.19655123
29	0xbe2e475b	-0.17019407
30	0xbe8699cf	-0.26289222
31	0xbe2af1e8	-0.16693842
32	0xbdba063a	-0.09083219
33	0x3debf74a	0.11521776
34	0xbdc00440	-0.093758106
35	0xbe897690	-0.26848269
36	0xbe9356b4	-0.28777087
37	0x3e49846e	0.19679424
38	0x3d582070	0.05276531
39	0x3e5a3bff	0.21311949
40	0x3e0e801a	0.13916054
41	0x3e3c6694	0.18398505
42	0xbdba31a7	-0.09091502
43	0xbe90bb6c	-0.28267992
44	0x3c112460	0.00885877
45	0xbe4eede9	-0.20207943
46	0x3e4bd2b3	0.19904594
47	0xbe683c28	-0.22679198
48	0x3e69a7fc	0.22817987
49	0xbdee274c	-0.11628589
50	0xbe2ae4e6	-0.1668888
51	0x3d8d101c	0.06887838
52	0x3e833443	0.2562581
53	0x3dd9ac83	0.10628607
54	0xbe5eace2	-0.21745637
55	0xbe6f3fc7	-0.23364173
56	0xbdb56d27	-0.0885871
57	0xbd24e971	-0.04026169
58	0xbd91c475	-0.07117549
59	0xbe883642	-0.26603895
60	0x3de707f7	0.11280816
61	0x3e258506	0.16164026
62	0x3c1770a8	0.009243168
63	0x3d90e3ae	0.070746765
64	0x3dfc6bf6	0.123252794
65	0x3e8cc216	0.27491826
66	0x3e2e584c	0.1702587
67	0xbe35bb90	-0.1774733
68	0xbdcbfdf8	-0.0996055
69	0x3e41c8ec	0.18924302
70	0x3e2a08e0	0.16604948
71	0x3dcb438a	0.099249914
72	0xbe5b68ed	-0.21426745
73	0xbe15c652	-0.14626434
74	0xbdf6903f	-0.120392315
75	0x3e95f04f	0.29284903
76	0xbe24bfde	-0.16088817
77	0xbe7e9a27	-0.24863492
78	0xbe4a71cc	-0.19769973
79	0xbe3bd7ea	-0.18344083
80	0x3e192396	0.14954981
81	0xbe259643	-0.16170602
82	0xbe7a2abd	-0.24430366
83	0xbe6a7ac7	-0.22898398
84	0x3e3ed152	0.18634537
85	0x3d32818d	0.04358058
86	0xbe1b2c62	-0.1515365
87	0xbdb66c49	-0.089073725
88	0x3db6b2a9	0.089207955
89	0x3e109b03	0.14121632
90	0xbc2e990a	-0.010656605
91	0x3dbe74c6	0.092996165
92	0xbe837e0f	-0.25682113
93	0xbdfbcdd3	-0.12295117
94	0x3e889af3	0.26680717
95	0x3e4dc649	0.20095171
96	0xbe85a4ae	-0.26102203
97	0x3e618616	0.22023806
98	0xbce889bf	-0.028385995
99	0x3e902a1f	0.28157136
100	0x3c06571b	0.0081994785
101	0xbdadc0b1	-0.084840186
102	0x3e6581ea	0.2241284
103	0xbce4aca3	-0.02791435
104	0xbe135109	-0.14386381
105	0x3dd8cdf6	0.10586159
106	0xbd425081	-0.047440056
107	0xbe03a740	-0.1285677
108	0x3de724dd	0.11286328
109	0xbc9c03db	-0.019044807
110	0xbd3b455d	-0.045720447
111	0xbe760180	-0.2402401
112	0x3e837f77	0.25683185
113	0x3e6ecb2f	0.23319696
114	0xbe013435	-0.12617572
115	0x3e520cf0	0.20512748
116	0x3e81c3b6	0.25344628
117	0x3e55525e	0.20832202
118	0xbe84723b	-0.258684
119	0x3ae61fef	0.0017557124
120	0xbda24cf8	-0.07924837
121	0xbdc3d501	-0.09562112
122	0x3e1477f2	0.1449888
123	0xbe1fddf1	-0.15612008
124	0x3d5422bc	0.051790938
125	0x3e93ba7d	0.28853217
126	0x3d3c9865	0.046043772
127	0x3e7d7913	0.24753217
128	0xbe0006ff	-0.12502669
129	0xbe83581b	-0.25653157
130	0x3d817781	0.06321622
131	0x3e83a921	0.25714973
132	0xbdb1fad2	-0.08690418
133	0xbe009435	-0.12556536
134	0xbdf20400	-0.11817169
135	0xbdb7379c	-0.089461535
136	0x3d97ecb9	0.07418198
137	0xbe3174e6	-0.1732975
138	0x3e9001e6	0.28126448
139	0x3e268c6e	0.16264507
140	0x3d66123c	0.056169733
141	0x3e882a24	0.2659465
142	0xbe2ed8e7	-0.17074929
143	0x3deae5df	0.11469626
144	0xbe35eed3	-0.17766885
145	0x3c7a6290	0.015282288
146	0xbe30121e	-0.17194411
147	0xbe64dee4	-0.22350651
148	0xbded4345	-0.11585096
149	0x3ea0ff3b	0.31444725
150	0x3ca82a6d	0.020528043
151	0x3d396302	0.045260437
152	0x39a650ed	0.00031722282
153	0x3e5a107d	0.21295352
154	0xbe3551a4	-0.17706925
155	0xbe864cc6	-0.26230448
156	0xbcb8f776	-0.022578936
157	0xbde95b54	-0.113943726
158	0x3defb776	0.11704914
159	0x3e83712a	0.25672275
160	0xbe7dd1eb	-0.24787109
161	0xbcae8414	-0.021303214
162	0x3e6f4bb5	0.23368724
163	0x3e18ed2d	0.14934225
164	0x3cfc6594	0.030810155
165	0xbe515f44	-0.20446497
166	0x3daf17a9	0.08549435
167	0x3dbd6f99	0.09249801
168	0x3e9f12be	0.31068987
169	0x3e44d689	0.19222464
170	0x3e6f8b82	0.23393062
171	0xbcd762bf	-0.026292203
172	0xbe4fda15	-0.20298035
173	0xbe8b5849	-0.27215794
174	0x3e5760c3	0.21033005
175	0xbd93eae4	-0.07222536
176	0xbe6ad081	-0.229311
177	0xbd8e3941	-0.06944514
178	0xbcc7b5d7	-0.0243787
179	0xbe3b1386	-0.18269166
180	0x3a1095a3	0.00055154617
181	0xbe5a1009	-0.2129518
182	0x3c9d7aad	0.019223535
183	0x3e969e31	0.29417565
184	0x3ce77840	0.028255582
185	0xbe5cc876	-0.21560845
186	0xbb4a8f47	-0.0030908154
187	0xbe1a4fac	-0.15069455
188	0x3da2a763	0.07942083
189	0xbe4a718c	-0.19769877
190	0x3d6c6443	0.057712805
191	0xbe44a046	-0.19201764
192	0xbdb1df5e	-0.08685182
193	0xbe343c57	-0.17601143
194	0x3e12bca8	0.14329779
195	0xbd7e7692	-0.062124796
196	0xbe3e58c8	-0.18588555
197	0xbe6e18a5	-0.23251589
198	0xbe79a25a	-0.24378338
199	0xbe371273	-0.17878132
200	0xbe8fad02	-0.28061682
201	0xbe07f854	-0.13278323
202	0x3e833cda	0.25632364
203	0x3e843a00	0.258255
204	0xbea573ff	-0.3231506
205	0x3d8c7996	0.06859128
206	0x3e4690fa	0.19391242
207	0x3c43b3f8	0.011944763
208	0x3d1ea376	0.038730107
209	0x3e1c9000	0.15289307
210	0xbd688104	-0.056763664
211	0x3ea13269	0.31483772
212	0x3e786449	0.24257006
213	0x3dfdf68d	0.124005415
214	0xbe38ec7a	-0.18058959
215	0xbd2c35cc	-0.042043492
216	0xbe834f0e	-0.2564625
217	0xbda312ce	-0.07962571
218	0xbdbbd209	-0.091709204
219	0xbe5cdcd5	-0.21568616
220	0x3dbf1284	0.093297035
221	0x3da5d7fb	0.08097836
222	0xbe016228	-0.126351
223	0xbe641f25	-0.22277506
224	0xbe1eae90	-0.15496278
225	0x3e3ac6d5	0.18239911
226	0xbdd788f2	-0.10524167
227	0x3da6f7a9	0.08152706
228	0x3e8bc835	0.27301183
229	0xbe03626b	-0.12830512
230	0xbe23f273	-0.16010456
231	0xbdcf0bf8	-0.10109705
232	0xbe956aea	-0.2918313
233	0xbe40fed0	-0.18847203
234	0xbe02d526	-0.12776622
235	0x3e37a4c4	0.17933947
236	0x3e046947	0.12930785
237	0xbe680a40	-0.2266016
238	0x3e8aabc0	0.2708416
239	0x3cf3e122	0.029770438
240	0x3d951e4d	0.0728117
241	0x3e9aae71	0.30211213
242	0x3dd929af	0.10603654
243	0x3cef2539	0.029192554
244	0xbd6dfc82	-0.05810214
245	0x3ca96b48	0.020681038
246	0x3ea79041	0.32727244
247	0xbd3bc75e	-0.04584443
248	0x3decc231	0.115604766
249	0xbe54bb37	-0.20774542
250	0xbe808607	-0.25102255
251	0x3e0dc0fa	0.13843146
252	0xbe4a2eb4	-0.19744378
253	0x3e9296a8	0.28630567
254	0x3e456526	0.19276866
255	0xbdd09b24	-0.10185841

bias f4 [40]
0	0xbd989b7e	-0.07451533
1	0x3e9f1374	0.3106953
2	0x3d8befb3	0.068328284
3	0xbc9ef30b	-0.019403001
4	0xbda07b91	-0.078360684
5	0xbe79554f	-0.24348949
6	0xbe50082c	-0.20315617
7	0x3e059320	0.13044405
8	0xbe92aa3c	-0.28645504
9	0x3e253aab	0.16135661
10	0xbe33e998	-0.17569578
11	0x3e60bb0a	0.2194635
12	0xbe4c6d9b	-0.19963686
13	0xbe0d04de	-0.13771388
14	0xbe8bc394	-0.27297652
15	0x3dff0c01	0.124534614
16	0x3e145e41	0.1448908
17	0xbe2573e5	-0.16157492
18	0xbe4697b5	-0.19393809
19	0xbe501801	-0.20321657
20	0x3e57df1a	0.210812
21	0x3e6b7fbe	0.22997949
22	0x3db666a9	0.089062996
23	0x3e18f429	0.1493689
24	0xbe9056cc	-0.2819122
25	0xbcba3107	-0.022728456
26	0xbe3246f3	-0.17409877
27	0xbcb0d714	-0.021586932
28	0xbc434787	-0.011918909
29	0xbdac8136	-0.084230825
30	0xbd21d411	-0.039508883
31	0x3d899bba	0.067191556
32	0xbbd7f6bb	-0.006590692
33	0xbcfed448	-0.031107083
34	0x3ea7ae20	0.32750034
35	0x3df38bdc	0.118919104
36	0x3e00cece	0.1257889
37	0xbe567da5	-0.20946367
38	0x3e7440fa	0.23852912
39	0xbda0c654	-0.07850328

weight f4 [20, 40]
0	0x3d8832ec	0.066503376
1	0x3da3474f	0.079725854
2	0xbc10586a	-0.008810142
3	0xbd8a7c21	-0.06761957
4	0x3dfd746c	0.12375721
5	0x3e1a6882	0.15078929
6	0x3d68c352	0.056826897
7	0x3db9246d	0.09040151
8	0xbdaf88c5	-0.085710086
9	0x3e122053	0.14270143
10	0xbdf5b385	-0.11997131
11	0x3d51cdb0	0.05122155
12	0x3d8f2c9e	0.06990932
13	0x3dd3082f	0.10304295
14	0xbdf17bb4	-0.117911726
15	0x3e0b0e05	0.13579567
16	0x3c8f6116	0.017502349
17	0xbe00dd51	-0.12584426
18	0x3d5c9935	0.053857047
19	0x3dcb46a1	0.09925581
20	0x3d43ce6c	0.04780428
21	0xbd919a08	-0.07109457
22	0xbdf6ab3c	-0.12044379
23	0x3cba1cd5	0.022718826
24	0x3cddde03	0.027083402
25	0x3d624f6f	0.055251535
26	0x3e11a835	0.14224322
27	0xbc22ee0d	-0.009944451
28	0xbe1ee642	-0.15517524
29	0xbe0df7ae	-0.13864014
30	0x3df3edf5	0.11910621
31	0x3e22fcfd	0.1591682
32	0xbd0e726f	-0.0347771
33	0x3d748d52	0.059705086
34	0x3cb695fe	0.022288319
35	0xbdc152ad	-0.09439597
36	0xbd21ed48	-0.03953293
37	0xbd984c56	-0.07436435
38	0x3dc905da	0.09815569
39	0xbc3ce44f	-0.011529042
40	0xbd9985b4	-0.07496205
41	0x3d552b48	0.05204323
42	0x3e138647	0.14406691
43	0xbd222f99	-0.039596174
44	0xbbf631cf	-0.007513262
45	0x3de864bd	0.11347339
46	0x3daabbee	0.08336626
47	0x3d9fd184	0.07803634
48	0x3d9744e5	0.073861875
49	0xba83e8c9	-0.0010063882
50	0x3e1c4403	0.1526032
51	0x3d0d630d	0.03451829
52	0xbd34afa0	-0.0441128
53	0xbda4c220	-0.08044839
54	0xbd96a123	-0.07354953
55	0x3d652883	0.055946838
56	0x3df0ebc6	0.1176372
57	0xbdbe6324	-0.09296253
58	0x3d5a7563	0.053334605
59	0x3e1ba985	0.15201385
60	0xbd87eca1	-0.0663693
61	0x3c8fd06f	0.017555444
62	0x3e1bc407	0.15211497
63	0xbd0c4707	-0.034247424
64	0xbd7ff0a4	-0.062485352
65	0x3e17516d	0.14777155
66	0x3b91b133	0.0044461726
67	0x3d41b519	0.04729185
68	0x3cfddf6f	0.03099033
69	0x3dd5faaf	0.10448205
70	0x3adbff0c	0.0016784384
71	0x3db02ad5	0.086019196
72	0x3deffe50	0.11718428
73	0x3debf0f9	0.11520571
74	0xbe306808	-0.17227185
75	0xbd641295	-0.055681784
76	0x3d360d15	0.04444607
77	0x3c68be31	0.014205501
78	0x3cfc58e2	0.030804101
79	0x3deedaf5	0.116628565
80	0x3ab3f840	0.00137306
81	0xbdbc76b1	-0.09202326
82	0x3b7bdb58	0.00384303
83	0x3dd94fbd	0.10610912
84	0x3e216bbb	0.15763752
85	0xbdfc89da	-0.123309806
86	0x3db662f5	0.08905593
87	0x3e20e711	0.15713145
88	0x3e04a206	0.12952432
89	0xbd6fa4dc	-0.05850683
90	0x3e183d28	0.1486708
91	0x3db08b06	0.086202666
92	0x3dcb3eee	0.09924112
93	0x3dc44312	0.09583105
94	0xbd979617	-0.07401674
95	0x3d79a7c8	0.060951024
96	0x3d537127	0.051621582
97	0xbd71f560	-0.0590719
98	0xbdd919a0	-0.10600591
99	0xbda6c93a	-0.0814385
100	0x3d13a62c	0.036047146
101	0xbca83d57	-0.020537062
102	0x3d826f41	0.06368876
103	0xbdd03390	-0.10166085
104	0xbd8f70e5	-0.07003955
105	0x3de15fd3	0.11004605
106	0xbdb83f86	-0.08996491
107	0x3dd5e48a	0.10443981
108	0xbd114869	-0.035469446
109	0xbc832ded	-0.01601311
110	0x3e27dd69	0.16393055
111	0x3a35ba9c	0.0006932409
112	0x3d3b7f61	0.045775775
113	0xbd0ef90b	-0.034905475
114	0x3dc44818	0.09584063
115	0xbdf3c3e8	-0.119026005
116	0x3e063d9b	0.13109438
117	0x3da1a185	0.078921355
118	0xbd5f1ea7	-0.05447259
119	0xbe0e6fa6	-0.13909778
120	0xbdc92590	-0.098216176
121	0xbd1b4516	-0.037907682
122	0x3df1c115	0.118044056
123	0xbd9d20e4	-0.07672289
124	0xbd7c2384	-0.061557308
125	0xbd9145d4	-0.07093397
126	0xbdbd342e	-0.09238468
127	0x3d102101	0.035187725
128	0x3d3c1dfd	0.045927037
129	0xbd889dbf	-0.06670713
130	0xbdd85b2b	-0.10564264
131	0xbd619d0f	-0.055081423
132	0xbccef244	-0.025262006
133	0xbd8ab99d	-0.06773684
134	0xbc29f888	-0.010374196
135	0x3d282563	0.04105128
136	0x3d90fadc	0.07079098
137	0x3e022625	0.12709863
138	0xbde6848c	-0.1125575
139	0x3da677a4	0.081282884
140	0xbd8e57e2	-0.06950356
141	0x3c3c04c2	0.011475744
142	0x3d8cede8	0.068813145
143	0xbcdf9369	-0.02729197
144	0x3db6e86a	0.08931048
145	0xbda2eaae	-0.07954918
146	0xbe06668e	-0.13125059
147	0x3dd5b49a	0.10434838
148	0x39674c67	0.00022058339
149	0x3e05af51	0.13055159
150	0x3cb9950f	0.022654084
151	0xbe56666f	-0.20937513
152	0x3d93c921	0.07216097
153	0xbd173617	-0.03691682
154	0x3e009a34	0.12558824
155	0xbd19939d	-0.03749429
156	0x3d99f5b2	0.07517566
157	0x3cc0932a	0.023507673
158	0x3d127a4d	0.035761166
159	0xbd430fba	-0.04762242
160	0x3df3f875	0.11912624
161	0xbc311b5e	-0.0108097475
162	0x3dedd5e1	0.1161306
163	0x3e2602ae	0.1621196
164	0x3dd7ae1e	0.10531257
165	0xbc923dab	-0.017851671
166	0xbd848075	-0.06469814
167	0xbd07433c	-0.033023104
168	0x3dffbef7	0.124875955
169	0xbd5cf32d	-0.053942848
170	0xbd95111d	-0.07278655
171	0x3e0adfb8	0.13561904
172	0xbe1b687b	-0.15176575
173	0xbdc2e7d5	-0.09516875
174	0x3e2367b5	0.1595753
175	0xbe07c645	-0.13259228
176	0xbde4b5b6	-0.11167471
177	0xbe0c74e9	-0.13716473
178	0xbda699a8	-0.08134776
179	0xbda05263	-0.07828214
180	0x3e0ae091	0.13562228
181	0x3de88c36	0.11354868
182	0xbd97025a	-0.073734954
183	0xbd46f7d1	-0.04857618
184	0x3d4b0ab5	0.049570758
185	0xbe012237	-0.12610708
186	0x3dfc77f2	0.12327565
187	0xbd24c75e	-0.040229194
188	0xbd9824ab	-0.07428869
189	0xbd8fb0df	-0.07016157
190	0xbd92cbbb	-0.07167765
191	0x3d162811	0.036659304
192	0xbdb0c516	-0.08631341
193	0xbdc473aa	-0.09592374
194	0xbc8ceb1b	-0.01720195
195	0x3d1430c2	0.03617931
196	0xbbd57362	-0.006513999
197	0xbc1e64ff	-0.009667634
198	0xbcb7fb61	-0.022458734
199	0xbdccb06f	-0.099945895
200	0x3c0ae269	0.008476832
201	0xbdbdb677	-0.09263318
202	0xbe025173	-0.12726383
203	0xbc962dd0	-0.018332392
204	0xbc09cc0a	-0.008410463
205	0x3de90dfe	0.11379622
206	0xbe042a90	-0.12906861
207	0xbdc31044	-0.09524587
208	0xbd705519	-0.058674905
209	0xbdb0a4ee	-0.08625208
210	0xbd5b1be6	-0.053493403
211	0xbb50242e	-0.0031759846
212	0xbdb78246	-0.089603946
213	0xbd989065	-0.07449416
214	0xbd615bf2	-0.055019327
215	0x3d66a446	0.056309007
216	0xbe036bbf	-0.1283407
217	0xbb8d9a18	-0.004321348
218	0xbd6b7cff	-0.057492252
219	0xbded0df4	-0.11574927
220	0x3d8bc880	0.06825352
221	0xbc1a3431	-0.009411857
222	0xbd8a3718	-0.067487895
223	0x3d6964ef	0.056981023
224	0x3e060c62	0.13090661
225	0xbd9a0306	-0.07520108
226	0x3e05fd4a	0.13084903
227	0x3c20f51a	0.009824062
228	0xbd39ed3a	-0.045392253
229	0x3db9d127	0.09073096
230	0x3d8305fb	0.06397625
231	0xbd10665e	-0.035253875
232	0xbda4441f	-0.080208056
233	0xbd4b2037	-0.04959127
234	0x3e2f2b21	0.17106296
235	0x3e0a1692	0.13485172
236	0xbdab5c67	-0.08367234
237	0xbe06145a	-0.13093701
238	0x3d2f4a0a	0.04279522
239	0xbc946a40	-0.01811707
240	0xba85df05	-0.001021356
241	0x3c60504e	0.013691021
242	0xbd495161	-0.049149875
243	0xbcfba891	-0.030720027
244	0x3d193220	0.03740132
245	0x3c28ecf2	0.010310398
246	0x3d0efed1	0.03491098
247	0x3c87afeb	0.016563376
248	0xbe1e5f8e	-0.15466139
249	0x3db77814	0.0895845
250	0x3e1e8a1f	0.15482377
251	0xbe13a3f1	-0.14418007
252	0x3d61c718	0.05512151
253	0xbe2e3bef	-0.1701505
254	0x3ca6d213	0.020363843
255	0x3dc59c3d	0.09648941

bias f4 [20]
0	0xbdb819ac	-0.089892715
1	0x3da4323b	0.08017393
2	0x3c99d1df	0.018776832
3	0x3a4d65e4	0.0007835312
4	0xbdd65f47	-0.104673915
5	0xbdc6c21c	-0.09704992
6	0x3cce34fe	0.025171753
7	0xbdef4b7d	-0.1168432
8	0xbd2b99a0	-0.041894555
9	0xbdb3b30c	-0.08774385
10	0xbbc619a9	-0.0060455394
11	0x396714ae	0.0002203758
12	0xbb98aa36	-0.0046589626
13	0xbbef2b54	-0.0072988663
14	0xbcea170e	-0.028575446
15	0x3d1b8734	0.037970737
16	0xbc2c7b56	-0.010527452
17	0x3bd678ed	0.006545177
18	0xbe030a93	-0.12797002
19	0x3dbaaac5	0.09114603

weight f4 [20, 40]
0	0xbbe9a5cb	-0.0071303598
1	0xbdeeb5e9	-0.1165579
2	0xbe4c9898	-0.19980085
3	0xbdce8afc	-0.10085103
4	0x3d119634	0.035543635
5	0xbdd5d82f	-0.104416244
6	0x3db3971c	0.08769056
7	0x3dd93969	0.10606653
8	0xbdd231cb	-0.102634035
9	0xbdaf9333	-0.08572998
10	0x3db79027	0.08963042
11	0x3b609884	0.0034270594
12	0xbd8a580f	-0.06755077
13	0xbd4debf8	-0.050273865
14	0x3e2429cb	0.16031568
15	0xbdd5cbdd	-0.104392745
16	0x3d6afcdc	0.05737005
17	0xbd3ebec5	-0.04656865
18	0xbd2d9346	-0.04237678
19	0xbd04d87e	-0.032433026
20	0x3d047735	0.032340247
21	0xbe1fc6a3	-0.15603118
22	0x3be7cdad	0.007074079
23	0x3da66af8	0.081258714
24	0xbd4f1855	-0.050560314
25	0x3e134791	0.14382769
26	0x3e177981	0.14792444
27	0x3e13f675	0.14449485
28	0xbcee8d62	-0.029120151
29	0xbbedc1f9	-0.0072557894
30	0x3cd2d351	0.02573553
31	0xbde312ca	-0.11087568
32	0xbdc5652e	-0.09638439
33	0xbdc29fb0	-0.09503114
34	0xbe0aa681	-0.13540079
35	0x3e18cc7b	0.14921753
36	0xbcf54253	-0.029938852
37	0x3d8346ac	0.06409964
38	0xbde34210	-0.11096585
39	0xbde2d272	-0.110752955
40	0x3ca08241	0.01959336
41	0x3dbb3ac3	0.09142067
42	0xbdbf47b5	-0.09339849
43	0xbe309745	-0.17245205
44	0x3d9dc236	0.077030584
45	0xbdf27e37	-0.1184048
46	0xbd280a20	-0.04102528
47	0xba7b7341	-0.00095920643
48	0xbe04e2d7	-0.12977158
49	0x3e071ab9	0.13193788
50	0x3de0d478	0.10978025
51	0x3d9da9f5	0.07698432
52	0x3d9e8290	0.077397466
53	0xbcb413b8	-0.021982059
54	0x3dc05976	0.09392063
55	0x3d384d05	0.044995327
56	0xbd83f8b3	-0.0644392
57	0x3dcc3011	0.099701054
58	0xbc77cad5	-0.0151240425
59	0x3b82705e	0.0039806804
60	0xbd3d0001	-0.04614258
61	0xbe1845f4	-0.14870435
62	0xbd9e02e0	-0.07715392
63	0xbdacea30	-0.08443105
64	0x3de10995	0.10988156
65	0x3c9da1e7	0.01924224
66	0x3cd12273	0.025529122
67	0x3e36c078	0.17846859
68	0xbdd7a226	-0.10528974
69	0xbabfd58d	-0.0014635787
70	0x3dca738e	0.098853216
71	0x3b953962	0.0045539597
72	0xbc7b22e2	-0.015328141
73	0x3d8238c3	0.06358483
74	0x3e2a1dcc	0.16612929
75	0xbdc6a760	-0.09699893
76	0xbe2b0965	-0.16702802
77	0x3ddf86e9	0.10914404
78	0xbdba0380	-0.09082699
79	0x3d27f5fd	0.041006077
80	0xbcbf6462	-0.023363296
81	0x3d7b1b3e	0.061305277
82	0xbe074f3f	-0.13213824
83	0xbc347f50	-0.011016682
84	0x3e30c515	0.17262681
85	0x3da0133a	0.07816167
86	0xbcfe5240	-0.03104508
87	0xbc2ac180	-0.010422111
88	0xbb2299c1	-0.0024810883
89	0x3ca2846b	0.019838532
90	0x3d046e00	0.032331467
91	0x3e099886	0.1343709
92	0x3bdc354a	0.0067202197
93	0x3db0fdbd	0.08642147
94	0xbe19a161	-0.15002967
95	0xbda9a868	-0.08284074
96	0xbe1ca063	-0.15295558
97	0x3dae584e	0.085129365
98	0xbd9a5ed2	-0.07537617
99	0x3e099133	0.13434295
100	0x3db8117f	0.08987712
101	0x3ccb71da	0.024834562
102	0xbcb26162	-0.021774951
103	0xbc0dd2fe	-0.0086562615
104	0x3c8fc216	0.017548602
105	0x3dbd5e1f	0.09246468
106	0x3b3853cb	0.0028126116
107	0xbd20b84d	-0.039238263
108	0x3d171ca4	0.03689255
109	0x3d1076db	0.0352696
110	0x3dc271d4	0.09494367
111	0xbd98cbcd	-0.07460747
112	0x3d1120bb	0.035431605
113	0x3dc0f2ec	0.09421334
114	0x3db9a006	0.09063725
115	0xbd8d3b1b	-0.06896039
116	0x3d3ab26c	0.045580313
117	0xbce9595f	-0.028484998
118	0x3aef9e62	0.0018281455
119	0x3dfb248e	0.12262832
120	0x3d7f1a5a	0.06228099
121	0x3df6dbe2	0.12053658
122	0x3d63d677	0.05562445
123	0x3e050a90	0.1299231
124	0x3e00ce79	0.12578763
125	0x3db65629	0.089031525
126	0xbcf704d0	-0.030153662
127	0x3d622788	0.05521348
128	0x3d988f7e	0.07449244
129	0xbac6aae6	-0.0015157133
130	0x3d2817ff	0.04103851
131	0xbd4f865b	-0.05066524
132	0x3c016788	0.007898219
133	0x3d80f602	0.06296922
134	0x3c64ef1a	0.013973022
135	0xbdf2b076	-0.118500635
136	0xbdded989	-0.10881335
137	0xbd77eb78	-0.060527295
138	0xbe089648	-0.13338578
139	0x3c39aa88	0.011332162
140	0x3d204a18	0.03913316
141	0xbe19fc87	-0.15037738
142	0xbc96de46	-0.018416535
143	0x3db7331c	0.08945295
144	0x3d04f4fe	0.032460205
145	0xbdce89c2	-0.10084869
146	0x3d7fa89e	0.062416665
147	0x3e1b6a24	0.15177208
148	0x3b407111	0.0029364268
149	0x3e1454da	0.14485493
150	0xbda67647	-0.08128028
151	0xbd987b22	-0.07445361
152	0x3ce91016	0.028450053
153	0x3df70296	0.1206104
154	0x3d5ac639	0.053411696
155	0x3dde734c	0.10861835
156	0x3d076dcb	0.03306369
157	0xbc62d921	-0.013845713
158	0x3e1816dd	0.14852472
159	0xbcf2f7da	-0.0296592
160	0x3dc4cffa	0.09609981
161	0xbdf9e59f	-0.12202
162	0xbca51499	-0.020151423
163	0xbd49ba67	-0.049250033
164	0x3d879329	0.066198654
165	0xbdd0fe38	-0.102047384
166	0x3d3c0120	0.04589951
167	0x3d5f244c	0.054477975
168	0xbdb1a136	-0.08673327
169	0x3dd53c9d	0.10411952
170	0x3d9262cc	0.0714775
171	0xbc9fed2a	-0.019522268
172	0x3dd7e911	0.10542501
173	0xbe0eaec2	-0.13933852
174	0x3d97fc7d	0.07421205
175	0x3db106df	0.08643889
176	0x3d6cc1b8	0.057801932
177	0xbd3dc64b	-0.046331685
178	0x3daa5dc2	0.08318664
179	0x3ce20d9e	0.027594384
180	0xbe1b8f5d	-0.15191408
181	0xbe00f60d	-0.12593861
182	0x3df01f0e	0.11724673
183	0xbcddeded	-0.02709099
184	0x3d0f6c02	0.035015114
185	0x3c44c7b1	0.012010501
186	0xbd8bd079	-0.068268724
187	0x3cf1aed1	0.029502304
188	0x3df3a6fb	0.11897083
189	0x3dae60ff	0.08514594
190	0x3dfd712b	0.12375101
191	0x3c593f48	0.013259716
192	0x3d03c804	0.03217317
193	0xbdc6e5e7	-0.09711819
194	0x3bd733f3	0.006567472
195	0x3d0f1943	0.0349362
196	0xbd819d15	-0.06328789
197	0x3e20a439	0.15687646
198	0x3cbcdf73	0.023055768
199	0x3d9983b8	0.074958265
200	0xbdfbdba1	-0.1229775
201	0xbdb4605e	-0.08807443
202	0x3da37306	0.07980923
203	0x3d60e7a2	0.054908402
204	0x3e00e065	0.125856
205	0xbd8d7e82	-0.06908895
206	0x3d79c7a2	0.0609814
207	0x3d17421b	0.036928277
208	0x3d954fad	0.072905876
209	0x3ddfc0f1	0.109254725
210	0xbbbe8244	-0.0058138687
211	0x3ddc57e3	0.107589506
212	0x3db025b5	0.08600942
213	0xbd576388	-0.052585155
214	0x3d5af25f	0.0534538
215	0xbccdea57	-0.025136156
216	0xbccac381	-0.024751427
217	0xbd91e80b	-0.07124337
218	0x3e08d8f5	0.13364013
219	0xbdbdb8d8	-0.09263772
220	0xbdc0b29a	-0.094090655
221	0x3d297dd4	0.041379765
222	0xbd233f32	-0.03985519
223	0x3d8609d4	0.06544843
224	0xbdc1ad63	-0.09456899
225	0xbd6d4acf	-0.05793267
226	0xbd3ac159	-0.045594547
227	0x3e083f22	0.13305333
228	0x3ce9c9e9	0.028538661
229	0x3e0b6de7	0.13616143
230	0xbbeb65c2	-0.0071837613
231	0x3dbe31b1	0.09286822
232	0xbd5e1140	-0.05421567
233	0xbd923d6c	-0.071406215
234	0x3c76201f	0.015022307
235	0xbdb8e2a2	-0.09027602
236	0x3c36ea7d	0.011164305
237	0xbd058f4e	-0.03260737
238	0x3a487e77	0.0007648239
239	0x3c0b78b0	0.008512661
240	0xbd925bea	-0.071464375
241	0xbe14d1f1	-0.14533211
242	0x3da6e961	0.08149982
243	0xbd6f45a2	-0.058416016
244	0x3e1c1ae3	0.15244631
245	0xbd35013c	-0.04419063
246	0x3d83a428	0.06427795
247	0xbdb762e7	-0.08954411
248	0xbd03ce5c	-0.03217922
249	0x3d9b2771	0.07575882
250	0x3d3777e1	0.04479206
251	0x3df1ffc1	0.11816359
252	0xbdb22460	-0.08698344
253	0xbda96b73	-0.082724474
254	0x399e2d7e	0.00030170003
255	0xbceb0d17	-0.028692765

bias f4 [20]
0	0x3d06e3f4	0.032932237
1	0x3d5faf8e	0.05461078
2	0x3dfa5dce	0.12224923
3	0xbd58e147	-0.052949216
4	0x3dd1aa9d	0.1023762
5	0xbdd18256	-0.10229938
6	0xbe172f60	-0.14764166
7	0x3c8b3d60	0.01699704
8	0xbd5634fb	-0.05229662
9	0x3db18431	0.08667792
10	0x3dd8a855	0.10578982
11	0x3d77981c	0.060447797
12	0x3d39b6d9	0.045340393
13	0xbdb8b503	-0.090189
14	0x3e006ccc	0.12541503
15	0xbd2cc592	-0.042180605
16	0x3de43294	0.111424595
17	0xbc93d4d6	-0.018045824
18	0xbd69360e	-0.056936316
19	0xbd49743b	-0.04918311

weight f4 [10, 20]
0	0x3b206b65	0.0024478075
1	0x3cf6c691	0.03012398
2	0x3ca07871	0.019588681
3	0xbd233fd9	-0.03985581
4	0x3a45e782	0.0007549451
5	0xbd753cfd	-0.059872616
6	0xbcbb6afb	-0.02287816
7	0xbc9cf1cc	-0.019158266
8	0xbd6fcb4c	-0.05854349
9	0x3da5c1e4	0.08093622
10	0xbd069dc5	-0.032865304
11	0x3d11d4cf	0.03560334
12	0x3d19ec36	0.037578784
13	0x3d00d261	0.031450633
14	0xbc2a3cdd	-0.0103904875
15	0xbc7b76c7	-0.015348143
16	0xbbf341a3	-0.007423596
17	0xbd94eefc	-0.07272145
18	0x3d0604c2	0.03271938
19	0x3cf6e421	0.030138077
20	0xbec82655	-0.39091745
21	0xbf030658	-0.51181555
22	0x3ee2175f	0.44158456
23	0xbe1d124c	-0.15339011
24	0xbd34e55f	-0.044164058
25	0xbd21c1ae	-0.039491348
26	0xbe590ec8	-0.21197045
27	0xbef687f5	-0.48150602
28	0xbdb580b2	-0.08862437
29	0xbe124260	-0.14283133
30	0x3ec87759	0.39153555
31	0x3eefcd7f	0.4683647
32	0x3ea9d7f9	0.33172587
33	0x3e3eca1f	0.1863179
34	0x3e8fbde2	0.28074557
35	0xbeb08509	-0.34476498
36	0xbe597ddc	-0.21239418
37	0x3f07e234	0.53079534
38	0xbefc4ce8	-0.49277425
39	0xbe0c1c47	-0.13682662
40	0xbe9002a2	-0.2812701
41	0x3ed2e16a	0.41187602
42	0x3e5ced2b	0.21574847
43	0xbeed3a77	-0.46333668
44	0x3eabcacd	0.33553162
45	0xbee2092d	-0.44147626
46	0xbe849ea8	-0.25902295
47	0x3d2b1a4e	0.041773133
48	0x3ec6c8df	0.38825127
49	0x3e9fdc7e	0.3122291
50	0xbe9869ee	-0.29768318
51	0x3e8f6d01	0.2801285
52	0x3df788ca	0.12086637
53	0x3ecc873a	0.3994692
54	0xbed3864b	-0.41313395
55	0x3de6f088	0.112763464
56	0xbedcff56	-0.43163556
57	0xbeb7f6d8	-0.35930514
58	0x3e027a35	0.12741931
59	0xbd339a96	-0.043848597
60	0x3dcf9d05	0.10137371
61	0x3d3b3fc9	0.045715127
62	0xbcb3c187	-0.021942867
63	0x3d93cda3	0.072169565
64	0xbd219503	-0.03944875
65	0xbdf9ecd0	-0.122033715
66	0xbce1baa1	-0.027554812
67	0xbd7fc53f	-0.062443968
68	0x3af6893b	0.0018809208
69	0x3e02b964	0.12766033
70	0xbd8c3c0d	-0.06847391
71	0xbd500d75	-0.050794084
72	0xbc45ec8e	-0.012080325
73	0xbdcee805	-0.10102848
74	0xbc8dce81	-0.017310383
75	0x3c76bdd4	0.015059907
76	0x3dd5625f	0.104191534
77	0xbc160b0e	-0.009157909
78	0x3c6bfaa0	0.014403015
79	0x3d045018	0.032302946
80	0xbd316e41	-0.043318037
81	0xbea74b77	-0.32674763
82	0x3f0d2d2c	0.5514705
83	0x3ee08c53	0.4385706
84	0x3eb98cd8	0.36240268
85	0x3eaa6a1a	0.33284074
86	0xbe6b7a08	-0.2299577
87	0x3ec5476b	0.3853105
88	0xbe497b8c	-0.19676036
89	0x3e87237b	0.26394257
90	0x3e80d0d6	0.2515933
91	0xbdbd85ef	-0.092540614
92	0xbe428be4	-0.18998677
93	0xbe5e7334	-0.21723634
94	0xbf0f5ef6	-0.56004274
95	0x3e0c7c02	0.1371918
96	0xbd96d37d	-0.07364557
97	0xbe8545d3	-0.26029834
98	0xbec3d453	-0.38247928
99	0x3d3b7783	0.045768272
100	0x3e94ddf4	0.29075587
101	0x3e914cf8	0.28379035
102	0x3f0c6a16	0.54849374
103	0xbed64d4f	-0.41855857
104	0xbe22ca1d	-0.15897413
105	0x3dbdb455	0.09262911
106	0xbe7722df	-0.24134396
107	0x3e8d221f	0.27565095
108	0xbdf338db	-0.11876079
109	0xbde9baa0	-0.11412549
110	0xbeb0b7ca	-0.3451522
111	0xbe5235fc	-0.20528406
112	0x3e5788c0	0.2104826
113	0x3e54d9d4	0.2078622
114	0x3edafe77	0.42772266
115	0x3ea6db01	0.32588962
116	0x3e4f80ad	0.2026393
117	0xbe34f708	-0.1767236
118	0x3e795868	0.2435013
119	0x3d91e487	0.07123666
120	0x3e116c7f	0.14201544
121	0x3e7b9c13	0.24571256
122	0xbee868c1	-0.4539242
123	0x3e405ee8	0.18786204
124	0xbe86bcc5	-0.26315895
125	0xbe66da78	-0.22544277
126	0x3db0580c	0.086105436
127	0xbed2ef80	-0.4119835
128	0x3d18a8f7	0.037270512
129	0x3e5b82ac	0.21436566
130	0x3ebfb72e	0.37444443
131	0xbeb3acd0	-0.35092783
132	0xbe62a5d4	-0.22133571
133	0x3e87525d	0.26430026
134	0x3e4b7129	0.19867386
135	0xbd8369b4	-0.06416646
136	0x3ee0f6a9	0.43938187
137	0xbedbc5c0	-0.4292431
138	0x3c8c70ef	0.017143695
139	0x3e378c27	0.17924558
140	0x3e4de7d7	0.20107971
141	0x3ef7fde4	0.4843589
142	0xbe269fa9	-0.16271843
143	0xbe9c53f8	-0.30532813
144	0xbc2044b0	-0.009782001
145	0x3e774d12	0.24150494
146	0x3e3e1092	0.18561009
147	0xbeffe7a5	-0.49981418
148	0xbe6d2bcd	-0.2316124
149	0xbde973bd	-0.113990285
150	0xbda6f9b3	-0.08153095
151	0x3e4f9c8b	0.2027456
152	0xbe4b2765	-0.19839247
153	0xbec5271a	-0.38506395
154	0xbf28f34f	-0.6599626
155	0xbe81bae4	-0.253379
156	0x3ef17a3f	0.4716358
157	0xbe330eb7	-0.17486082
158	0xbd5a9a79	-0.053369973
159	0xbe417b58	-0.18894708
160	0x3ee44c4f	0.4458947
161	0xbee503e6	-0.44729537
162	0xbea19778	-0.31560874
163	0x3eb993a5	0.36245456
164	0x3eb34832	0.35016018
165	0xbee133fc	-0.43984973
166	0x3ee729a3	0.45148954
167	0x3d40482b	0.046943825
168	0xbde802c2	-0.11328651
169	0xbdb7abe5	-0.08968333
170	0xbebdd656	-0.37077588
171	0xbeb544af	-0.35403964
172	0x3e51a557	0.20473228
173	0x3b51ed6f	0.003203239
174	0x3e1092fb	0.14118569
175	0xbe4f1c02	-0.20225528
176	0xbeb348f3	-0.35016593
177	0x3eeb89b4	0.46003497
178	0x3dba198a	0.090869024
179	0xbe84a342	-0.25905806
180	0xbe806679	-0.2507818
181	0xbe5d68df	-0.21622036
182	0xbe44371f	-0.19161652
183	0x3ea2cfc9	0.31799152
184	0xbec36527	-0.3816311
185	0x3e49947d	0.1968555
186	0x3ebda2e0	0.37038326
187	0xbc3c0641	-0.0114761
188	0xbccdeb78	-0.025136694
189	0xbeff0807	-0.49810812
190	0x3eb96f3c	0.36217678
191	0x3f007aa7	0.5018715
192	0xbeb6a190	-0.35670137
193	0xbec0e0bb	-0.37671456
194	0xbd5908c1	-0.052986864
195	0x3e242d56	0.1603292
196	0x3e627900	0.2211647
197	0x3f06cce2	0.52656376
198	0x3e9b99d2	0.30390793
199	0xbb6a980a	-0.0035796189

bias f4 [10]
0	0xbe7084e1	-0.2348819
1	0x3f8f6997	1.1204098
2	0x3f0fa576	0.5611185
3	0x3cfbaec8	0.03072299
4	0x3f1463f4	0.57965016
5	0x3f53b582	0.82698834
6	0x3f9f7d11	1.2460042
7	0x3f930ee5	1.148892
8	0x3f2db11a	0.6784836
9	0x3f5ac7e2	0.85461247

weight f4 [1, 10]
0	0x3e354270	0.17701125
1	0xbf40a239	-0.7524753
2	0xbf541bee	-0.8285512
3	0xbd29d4d2	-0.041462727
4	0xbf5ff5cd	-0.8748444
5	0xbf4c47df	-0.79797167
6	0xbf1373bc	-0.5759847
7	0xbf325225	-0.6965659
8	0xbf659f52	-0.8969623
9	0xbf333b9f	-0.7001285
