Feaprotect/models/mobile_price/sc_h-talk_time-touch_screen-battery_power-four_g-three_g/ori/MINE/model_3.pkl (torch, 14721 bytes, 11 tensors)

weight f4 [10, 1]
0.60747004 0.27002686 0.026861645 -0.3854204 0.45182845 -0.4641808 0.8674228 0.57812774
0.43139234 -0.93438214
00000000: 2883 1b3f f640 8a3e f40c dc3c d355 c5be
00000010: 0f56 e73e 1ba9 edbe 6c0f 5e3f 2e00 143f
00000020: 75df dc3e ab33 6fbf

bias f4 [10]
1.0177959 0.95396227 0.9000598 0.6915171 0.21072584 0.8877667 -0.2678311 0.39950803
-0.13321586 -0.43628192
00000000: 2347 823f df36 743f 526a 663f 4407 313f
00000010: 84c8 573e ae44 633f 2821 89be 518c cc3e
00000020: bd69 08be 5860 dfbe

weight f4 [40, 10]
-0.27107474 -0.038929116 0.22871159 0.16522962 -0.2721317 -0.07460095 0.063441694 -0.31540504
0.0107758315 -0.036995735 -0.29091346 0.18932597 0.005874075 0.27295956 0.2163871 0.20708214
0.17061372 -0.041100193 -0.26798707 -0.1966528 0.19710991 -0.07325962 -0.14475422 -0.27903938
-0.34525928 0.25909412 -0.063744545 0.17350835 0.28119937 -0.058682878 0.044412196 0.28535008
-0.28777727 0.1713908 0.34416264 0.115315996 0.0648319 0.21223971 -0.16744028 -0.2063866
-0.24473557 -0.041018073 -0.10847773 -0.05656153 0.15974958 -0.122207984 -0.26064268 -0.24216193
-0.11620648 0.106063925 0.20534568 -0.2656426 0.13543601 -0.3097533 0.053967584 -0.11473955
-0.13251251 0.08139301 0.016238727 0.033358198 -0.13330483 0.29078558 -0.018611578 -0.26975626
-0.12790646 -0.101574704 -0.27348128 0.13456206 -0.08452747 -0.04487049 -0.08778586 -0.06875532
-0.1214262 0.17310539 -0.20972729 -0.28086644 -0.13131641 0.21765278 -0.25122657 0.078980714
-0.11130083 -0.06315471 -0.14327215 -0.16497241 0.12547188 -0.18927684 0.24257892 0.1988506
-0.27672958 -0.2656814 0.24470183 -0.12222419 -0.039191782 0.23859268 -0.24803945 0.18336405
-0.01958316 -0.2607805 -0.020092946 0.09535819 0.01154656 0.1389439 0.12859854 0.005025425
-0.08568314 0.23976882 0.12781458 0.23656407 -0.109722555 -0.18580227 0.10702145 -0.19032712
-0.050620567 0.17884375 0.06948122 0.2339173 0.21791059 0.23781909 0.018556772 0.21043247
-0.21785635 0.21120209 -0.22725895 -0.1701198 -0.2709862 0.23327555 0.27921206 -0.15836555
-0.21515529 -0.0043637105 0.12384239 -0.080071926 0.1480423 -0.16032232 0.10526494 -0.15557449
-0.24630074 -0.17817886 -0.053306445 -0.21064956 -0.07542409 -0.2692076 0.0916235 -0.016163886
0.23516783 -0.09363868 0.009844925 0.08536255 -0.20594618 0.18945026 0.2808661 -0.014670012
-0.017830066 -0.09175242 0.12993017 -0.08642805 0.0074349963 0.21504045 0.054447096 0.08612145
-0.039095502 0.21847774 -0.24300484 0.1164378 0.18944985 -0.228114 -0.26435956 -0.053616457
-0.28415066 -0.18705747 0.025555165 -0.19078958 -0.24487275 -0.18583667 0.19376636 0.22925837
0.2804185 -0.13556105 -0.2693004 0.09627625 0.21733978 0.13192086 -0.17375691 -0.2756132
-0.17642245 -0.14761646 -0.21166009 -0.08321081 -0.23107164 0.3519277 0.26158822 0.21990412
0.12269806 0.3461561 -0.20140621 -0.25434747 -0.17858206 0.08895617 0.16270795 0.19452024
-0.0662614 -0.05937419 -0.2423213 -0.21922259 0.24814127 0.079005614 0.24240138 0.16272709
-0.040230706 0.062241994 0.24945801 0.1333444 -0.08666888 0.120621 -0.13686159 0.020233
0.1954218 -0.1313265 0.090587944 -0.09516893 0.24975896 0.1841467 -0.30973166 0.03772565
0.21275052 0.12216999 -0.028850097 0.12199651 -0.16753793 0.16080411 -0.16536823 0.07983377
0.26162153 0.12607937 -0.28722885 0.03387028 0.25584137 0.14174636 -0.023445478 -0.0049315332
-0.24050458 0.14078669 0.29282972 0.049763437 0.060744032 0.108611025 0.0739588 -0.26760882
0.15751104 -0.034293666 -0.30750954 0.26444218 0.17078754 -0.08500347 -0.07230211 0.13109453
00000000: 4fca 8abe 2374 1fbd 5f33 6a3e f431 293e
00000010: d954 8bbe 62c8 98bd b8ed 813d c57c a1be
00000020: 1d8d 303c d788 17bd 9cf2 94be abde 413e
00000030: 507b c03b 5bc1 8b3e 9494 5d3e 570d 543e
00000040: 5db5 2e3e ad58 28bd 9a35 89be 5a5f 49be
00000050: 2ed7 493e 2409 96bd 733a 14be 40de 8ebe
00000060: d3c5 b0be fca7 843e 808c 82bd 2cac 313e
00000070: 5df9 8f3e 755d 70bd 90e9 353d 6819 923e
00000080: 8b57 93be 1281 2f3e 1636 b03e cb2a ec3d
00000090: 96c6 843d 5e55 593e 7775 2bbe 0257 53be
000000a0: f69b 7abe 9102 28bd 9229 debd 10ad 67bd
000000b0: 6595 233e 2e48 fabd f572 85be 4cf9 77be
000000c0: aafd edbd 0b38 d93d 2346 523e 4f02 88be
000000d0: bdaf 0a3e fc97 9ebe 1d0d 5d3d 92fc eabd
000000e0: 5cb1 07be 61b1 a63d 1407 853c 9ba2 083d
000000f0: 1081 08be d9e1 943e 4f77 98bc 7e1d 8abe
00000100: e9f9 02be 6606 d0bd bd05 8cbe a3ca 093e
00000110: bd1c adbd 1eca 37bd 13c9 b3bd 97cf 8cbd
00000120: 4dae f8bd 8a42 313e c0c2 56be bacd 8fbe
00000130: cf77 06be 5fe0 5e3e c5a0 80be a4c0 a13d
00000140: b1f1 e3bd 4257 81bd efb5 12be 87ee 28be
00000150: b37b 003e cad1 41be 9c66 783e 7e9f 4b3e
00000160: 80af 8dbe 6407 88be 1e93 7a3e ad50 fabd
00000170: 9087 20bd a451 743e 0efe 7dbe c9c3 3b3e
00000180: dd6c a0bc 0685 85be f699 a4bc 284b c33d
00000190: c82d 3d3c 4f47 0e3e 56af 033e 52ac a43b
000001a0: a47a afbd f585 753e d3e1 023e da3d 723e
000001b0: 38b6 e0bd f342 3ebe 102e db3d 1de5 42be
000001c0: 8357 4fbd d122 373e 2b4c 8e3d 0488 6f3e
000001d0: f423 5f3e d986 733e 5f04 983c 9c7b 573e
000001e0: bc15 5fbe 5c45 583e 92b6 68be e333 2ebe
000001f0: b4be 8abe c9df 6e3e e2f4 8e3e 942a 22be
00000200: ab51 5cbe 75fd 8ebb 14a1 fd3d c0fc a3bd
00000210: 6798 173e 892b 24be 2595 d73d eb4e 1fbe
00000220: 4336 7cbe 8574 36be dc57 5abd 85b4 57be
00000230: f277 9abd 94d5 89be 1aa5 bb3d 206a 84bc
00000240: d6cf 703e a3c5 bfbd 9c4c 213c 90d2 ae3d
00000250: 8ee3 52be 40ff 413e aecd 8f3e 7d5a 70bc
00000260: 5c10 92bc b1e8 bbbd 6a0c 053e 3101 b1bd
00000270: 45a1 f33b 9033 5c3e eb03 5f3d 7160 b03d
00000280: 9b22 20bd a1b8 5f3e 43d6 78be f176 ee3d
00000290: 24ff 413e b796 69be 235a 87be ee9c 5bbd
000002a0: 327c 91be fe8b 3fbe 1159 d13c 585e 43be
000002b0: ecbf 7abe f84b 3ebe b06a 463e b5c2 6a3e
000002c0: 0393 8f3e 84d0 0abe bee1 89be 7c2c c53d
000002d0: 528e 5e3e 4316 073e 55ed 31be 2c1d 8dbe
000002e0: 16a8 34be c528 17be 6cbd 58be 6e6a aabd
000002f0: 0b9e 6cbe de2f b43e e4ee 853e 8c2e 613e
00000300: 1f49 fb3d 5f3b b13e 6e3d 4ebe d539 82be
00000310: 37de 36be a72e b63d ea9c 263e 5030 473e
00000320: 0fb4 87bd 5a32 73bd 1323 78be e37b 60be
00000330: bf18 7e3e b2cd a13d 1138 783e eea1 263e
00000340: f4c8 24bd 76f1 7e3d ec71 7f3e 6f8b 083e
00000350: 747f b1bd 2508 f73d 7225 0cbe adbf a53c
00000360: a71c 483e 747a 06be 2c86 b93d eee7 c2bd
00000370: d0c0 7f3e f490 3c3e 2695 9ebe 3686 1a3d
00000380: 46db 593e 4234 fa3d 0a57 ecbc 4ed9 f93d
00000390: 108f 2bbe d5a9 243e 4a56 29be e37f a33d
000003a0: 42f3 853e f31a 013e a90f 93be 90bb 0a3d
000003b0: a4fd 823e f525 113e bb10 c0bc b398 a1bb
000003c0: d546 76be 632a 103e c7ed 953e bfd4 4b3d
000003d0: bcce 783d 756f de3d b677 973d 0604 89be
000003e0: 934a 213e 8477 0cbd e471 9dbe f764 873e
000003f0: eee2 2e3e 4d16 aebd 2113 94bd a53d 063e

bias f4 [40]
-0.3045655 -0.2407635 -0.074093826 -0.25093427 -0.007030709 -0.20674098 -0.087797314 -0.08270171
0.18193781 0.048441775 -0.11406085 -0.2659592 0.088331774 0.09856674 -0.03666557 0.23603362
-0.23483892 -0.005668558 -0.20070101 -0.003012219 0.2166036 0.12842664 -0.05666315 -0.18622774
0.09657581 0.0171565 0.06330476 -0.051470023 -0.051082563 -0.087264605 -0.17705216 -0.010452639
-0.2520533 0.11829317 0.18293172 0.12537402 0.17697597 -0.26851588 0.13935532 0.3273
00000000: 02f0 9bbe b58a 76be 81be 97bd 757a 80be
00000010: dd61 e6bb e8b3 53be 14cf b3bd 845f a9bd
00000020: e84d 3a3e e26a 463d bc98 e9bd ce2b 88be
00000030: 4ae7 b43d 5cdd c93d a32e 16bd ccb2 713e
00000040: 9d79 70be 50bf b9bb 9184 4dbe a668 45bb
00000050: 56cd 5d3e 4682 033e 9f17 68bd 7cb2 3ebe
00000060: 8ac9 c53d ca8b 8c3c eda5 813d 3bd2 52bd
00000070: f33b 51bd c9b7 b2bd 294d 35be 8c41 2bbc
00000080: 210d 81be b143 f23d 7452 3b3e 0c62 003e
00000090: 3039 353e ea7a 89be 29b3 0e3e de93 a73e

weight f4 [20, 40]
0.1506178 -0.07426868 0.022094987 -0.07429576 0.04037129 0.06779205 0.14718854 -0.09479037
-0.1422657 -0.118654005 0.11240838 -0.06952037 -0.118046425 0.056809444 0.0817925 -0.042858522
-0.09687638 0.14366922 0.01804903 0.04870486 0.052700244 0.11968744 0.00306284 -0.004273388
0.12914431 -0.013178444 0.06770829 -0.039413072 0.12534364 0.13884027 0.033856314 -0.010404863
0.15655321 0.013166173 0.07078577 -0.020021884 0.10818047 0.02047893 0.105468534 -0.12733401
-0.059167434 0.096933566 -0.12839222 0.057166368 -0.12242604 0.11683744 0.10815315 0.01736017
-0.1171852 0.09704457 0.10613349 0.09736818 0.037141826 0.01039038 0.09935951 -0.12578262
0.12705751 -0.09889029 0.07720173 -0.1431762 0.010623326 0.15014377 0.0032098058 -0.014986676
-0.06750994 0.07515756 -0.08639932 0.014172755 0.10938416 -0.13926607 0.06240692 0.1723388
0.015904581 -0.020183686 0.027543828 0.03267999 0.005380468 -0.036612075 0.115712896 -0.03919268
0.0058281682 -0.053872086 -0.01752295 0.06596426 0.070443586 0.068672 -0.029652864 -0.092934415
-0.040722657 -0.040075306 -0.13004467 -0.026892532 -0.03352322 -0.07229294 0.034367383 0.007070708
0.022234874 -0.0924216 0.11892147 0.12753308 -0.09164034 0.11243201 -0.1840748 0.092832126
-0.052528612 0.04977367 -0.036730625 0.011948798 0.1293921 -0.10830419 0.054931834 -0.010882332
0.068503544 0.028358981 0.05900272 -0.023313109 0.06718061 -0.057094134 0.08297752 -0.09566892
0.07850585 -0.084435135 -0.06607792 -0.02608942 0.010548911 -0.056183416 0.004136568 0.1203478
0.081351005 -0.020081004 0.04781768 0.002285044 0.16603948 0.042323086 0.078743115 -0.02506664
-0.12991811 -0.09704787 -0.038550876 0.09977319 -0.1121107 0.15717806 0.022118714 -0.10460499
-0.04106872 -0.10250852 0.035060436 -0.10084542 -0.06953143 0.08985401 -0.019862259 0.035485197
-0.019344212 -0.13990787 0.10567482 -0.0893897 -0.033675794 0.034748144 -0.0080208145 0.1487519
0.113992915 0.055696066 -0.061339594 0.050304003 0.027006647 0.0081505235 -0.1561882 0.042506967
0.08876796 -0.0953072 -0.018179743 -0.12886824 -0.062493265 0.034083728 -0.025262907 -0.0847334
-0.091540694 0.104138695 0.086060666 0.042201463 0.030530084 0.16907069 -0.0397211 -0.10672926
0.034444015 0.10040095 0.013356532 -0.13742238 -0.08505298 -0.06564368 -0.15614517 -0.17181551
0.053187203 -0.1142151 -0.042929973 -0.13011919 0.0611906 0.15130417 0.108451724 -0.057440236
0.08523922 0.0014418018 0.08451096 -0.015521858 -0.049281187 -0.042987585 -0.021773854 0.12576604
-0.02705363 -0.096388124 -0.12917814 -0.00078377075 -0.13026896 0.10708745 0.038225524 0.097810805
0.08212461 0.079162486 -0.11092717 0.03980937 0.1281131 -0.06229756 -0.03049128 0.08918999
0.14554414 -0.097579546 0.048285816 0.048455585 0.12396042 -0.0046568736 -0.050113745 -0.07056726
-0.140559 0.16717799 0.0017767454 -0.08942306 0.010313519 0.046642233 -0.110127516 0.006808964
-0.058836773 0.03717246 -0.15752232 0.08394383 -0.03982116 -0.048868567 0.020976335 0.1329855
-0.07754692 -0.11182602 0.11303613 0.04333248 -0.1122445 -0.032961354 -0.08269948 -0.04580645
00000000: 8d3b 1a3e 2d1a 98bd 8c00 b53c 6028 98bd
00000010: 5e5c 253d 8fd6 8a3d 98b8 163e 7421 c2bd
00000020: 1aae 11be df00 f3bd 5d36 e63d b260 8ebd
00000030: 53c2 f1bd 05b1 683d d482 a73d 6b8c 2fbd
00000040: 2067 c6bd 061e 133e 8fdb 933c bf7e 473d
00000050: 36dc 573d b01e f53d eeb9 483b c707 8cbb
00000060: 683e 043e 66ea 57bc a5aa 8a3d 9a6f 21bd
00000070: 155a 003e 252c 0e3e ebac 0a3d 2979 2abc
00000080: 7c4f 203e efb6 573c 21f8 903d ef04 a4bc
00000090: b98d dd3d 6ec3 a73c e3ff d73d d963 02be
000000a0: 8d59 72bd 1b85 c63d 4079 03be 4827 6a3d
000000b0: 81ba fabd 7848 ef3d 667f dd3d ea36 8e3c
000000c0: cbfe efbd 4ebf c63d 845c d93d f868 c73d
000000d0: 0722 183d 6a3c 2a3c 007d cb3d 29cd 00be
000000e0: 5d1b 023e fe86 cabd f11b 9e3d c89c 12be
000000f0: 750d 2e3c 4abf 193e 9b5b 523b ad8a 75bc
00000100: a742 8abd 35ec 993d 20f2 b0bd d834 683c
00000110: cd04 e03d c49b 0ebe 669e 7f3d 9579 303e
00000120: 534a 823c 4258 a5bc 98a3 e13c 74db 053d
00000130: a34e b03b 8bf6 15bd e2fa ec3d 8188 20bd
00000140: 38fa be3b faa8 5cbd 4a8c 8fbc 4518 873d
00000150: ba44 903d e8a3 8c3d 90ea f2bc 6654 bebd
00000160: cdcc 26bd 0126 24bd 6e2a 05be ba4d dcbc
00000170: a54f 09bd 520e 94bd d0c4 0c3d 66b1 e73b
00000180: e925 b63c 8947 bdbd 1a8d f33d 0898 023e
00000190: eead bbbd c142 e63d 1b7e 3cbe c51e be3d
000001a0: 3e28 57bd 7adf 4b3d da72 16bd e4c4 433c
000001b0: 5d7f 043e 96ce ddbd 3400 613d cf4b 32bc
000001c0: 964b 8c3d 1851 e83c d6ac 713d 22fb bebc
000001d0: fd95 893d 8adb 69bd 1ef0 a93d 11ee c3bd
000001e0: adc7 a03d 54ec acbd dc53 87bd 7bb9 d5bc
000001f0: 57d5 2c3c 9520 66bd 0c8c 873b e878 f63d
00000200: 5b9b a63d eb80 a4bc 79dc 433d adc0 153b
00000210: 4106 2a3e f95a 2d3d 1244 a13d 8e58 cdbc
00000220: 4109 05be 09c1 c6bd 86e7 1dbd e355 cc3d
00000230: 4b9a e5bd 49f3 203e 4e32 b53c 243b d6bd
00000240: ad37 28bd fdef d1bd 889b 0f3d 0b88 cebd
00000250: 7f66 8ebd 6105 b83d 2db6 a2bc ed58 113d
00000260: c177 9ebc 0244 0fbe 0a6c d83d f211 b7bd
00000270: a1ef 09bd 1254 0e3d bc69 03bc 6b52 183e
00000280: 1e75 e93d 8f21 643d 3a3f 7bbd 920b 4e3d
00000290: 0b3d dd3c c689 053c cdef 1fbe c91b 2e3d
000002a0: facb b53d 6c30 c3bd afed 94bc 09f6 03be
000002b0: f0f8 7fbd 619b 0b3d 28f4 cebc b488 adbd
000002c0: b079 bbbd ab46 d53d 9340 b03d 71db 2c3d
000002d0: 3a1a fa3c de20 2d3e 98b2 22bd df94 dabd
000002e0: 2b15 0d3d 039f cd3d 5bd5 5a3c 74b8 0cbe
000002f0: 4230 aebd 3270 86bd 85e4 1fbe 68f0 2fbe
00000300: d3da 593d 9be9 e9bd 57d7 2fbd f73d 05be
00000310: ffa2 7a3d 7bef 1a3e f01b de3d 7446 6bbd
00000320: e691 ae3d d7fa bc3a 1514 ad3d 644f 7ebc
00000330: 12db 49bd c013 30bd 155f b2bc d0c8 003e
00000340: 939f ddbc 2367 c5bd 4647 04be f775 4dba
00000350: 3a65 05be aa50 db3d 5e92 1c3d 0851 c83d
00000360: f330 a83d f11f a23d c92d e3bd 260f 233d
00000370: 1530 033e ba2b 7fbd d9c8 f9bc 3ea9 b63d
00000380: 8609 153e c9d7 c7bd 59c7 453d 5d79 463d
00000390: f6de fd3d b098 98bb 1244 4dbd 9185 90bd
000003a0: b3ee 0fbe b530 2b3e afe1 e83a 7023 b7bd
000003b0: 09fa 283c ed0b 3f3d 898a e1bd bb1d df3b
000003c0: d4fe 70bd 2642 183d 884d 21be beea ab3d
000003d0: 831b 23bd 682a 48bd 90d6 ab3c 5a2d 083e
000003e0: ebd0 9ebd 0a05 e5bd 7d7f e73d 667d 313d
000003f0: 72e0 e5bd 7c02 07bd 585e a9bd 8b9f 3bbd

bias f4 [20]
0.14427903 0.047199864 -0.003989575 -0.11746892 -0.10129628 0.016591221 -0.10935865 0.04855287
0.10316458 -0.09863092 0.11180811 0.028912019 0.0031222482 0.018176675 -0.0101039875 -0.011968527
0.033493463 0.025913207 -0.13756302 0.06989359
00000000: e2bd 133e a554 413d fbba 82bb 8c93 f0bd
00000010: 6d74 cfbd 50ea 873c 6ef7 dfbd 60df 463d
00000020: f447 d33d 02ff c9bd a6fb e43d e6d8 ec3c
00000030: a29e 4c3b 40e7 943c 328b 25bc a417 44bc
00000040: 7130 093d ef47 d43c 52dd 0cbe 5f24 8f3d

weight f4 [20, 40]
-0.011829181 0.06468541 0.013649077 0.08916175 -0.0014668795 0.022835748 -0.17374489 -0.01051067
0.10592462 0.0701911 -0.13717653 0.020870108 -0.08161693 -0.022382054 0.0037283155 -0.11591049
0.106640905 -0.08645522 -0.10172883 0.03833615 -0.036327373 -0.07146781 -0.0126981065 0.021156987
-0.08780987 -0.12783507 0.0335799 0.022063715 -0.05904867 0.12630999 0.098456785 -0.11381369
-0.047997862 0.115434274 0.094202094 0.04344213 -0.08167962 -0.16600567 -0.077665634 0.031247415
-0.06388065 -0.049074885 -0.16354175 0.1259548 0.044817057 0.048312526 -0.17150916 0.027098851
-0.009653118 -0.113182366 -0.11035554 -0.024704052 -0.15478769 0.0014271851 0.110730916 -0.101453476
0.03718401 0.08878466 -0.1394547 -0.053091414 -0.03126724 -0.010020392 -0.13313513 -0.017515436
-0.10789987 0.12090706 -0.08274669 0.13176014 0.11208251 -0.1778855 -0.052225746 -0.10643706
-0.0054407422 0.011086211 0.079751074 0.118117005 0.06801954 0.030873144 0.0910906 0.018773127
-0.06560631 0.050723612 0.19434553 0.10972594 0.099498145 -0.03351615 -0.10894839 0.05389975
-0.10300349 0.13741632 -0.03723991 -0.088874765 -0.048913103 0.008063844 -0.061310463 -0.039718065
0.10317496 0.05545657 0.025017563 -0.062275257 -0.037204333 -0.052384246 0.017555399 0.11579457
-0.08191062 0.04438041 0.15734217 -0.06592826 -0.0065405187 0.105236925 0.16730604 0.037892304
0.13893756 -0.06309502 -0.09994678 -0.020305313 -0.15373851 0.12123566 -0.056085903 0.12678504
-0.026144745 0.1122168 -0.009208748 -0.028319463 0.1443956 0.11687884 -0.0830603 0.06841021
0.12676744 0.07034964 0.031639665 -0.054130133 -0.02544659 0.03501234 0.041580796 0.11228569
-0.13792488 -0.03871093 0.12556322 0.04355125 -0.10191023 0.08018423 0.060898013 -0.032290768
-0.05417983 0.044704642 0.0539748 0.12393869 0.108640425 -0.11099972 0.2348253 0.095584124
0.045315348 0.14134191 -0.034840986 -0.10288933 0.054130383 0.020015404 -0.10901363 -0.09681419
0.14818296 0.18719901 0.033889405 0.0038007067 -0.07351227 0.012891414 -0.06434334 -0.11356241
0.066303104 0.098422796 0.11983524 -0.040855397 0.0803006 0.04856182 0.07682246 -0.016501833
0.097843796 -0.09778618 0.17646354 -0.15122533 0.09059594 0.029951373 0.12090565 -0.19570039
-0.11683558 -0.0015242803 0.06705926 -0.009167387 0.09319421 -0.032567065 0.06276984 -0.07497785
0.011512373 0.08256772 0.07808977 -0.18283118 -0.026896678 0.05830265 -0.006233984 -0.019082282
-0.12829557 0.07989889 -0.036792018 -0.028872501 0.09577723 0.05488186 0.0829255 -0.12251126
0.07938713 0.037417572 0.10151881 -0.08526568 -0.019594138 -0.06472029 0.02484863 -0.13807121
-0.12658025 -0.16063981 0.05813148 0.12285844 -0.17300321 0.13238297 0.088993065 -0.007481475
-0.043785807 0.12840883 -0.028435817 -0.02347103 0.061014976 0.07484825 -0.111386955 0.07361756
-0.009491694 0.10938082 0.09529429 -0.15097347 -0.08109814 -0.10517983 0.10396182 -0.10500069
0.05045508 0.10359775 0.13631113 -0.014544284 -0.13408077 0.12194352 0.06388308 0.033469353
0.074224815 0.02483656 -0.07738259 0.10140985 -0.10687083 0.0786923 -0.010993653 -0.036847305
00000000: 2ecf 41bc c979 843d 61a0 5f3c 709a b63d
00000010: 4f44 c0ba 0912 bb3c 2eea 31be f234 2cbc
00000020: 02ef d83d 5ac0 8f3d 0178 0cbe caf7 aa3c
00000030: c726 a7bd 925a b7bc c156 743b 7b62 edbd
00000040: 8c66 da3d 6f0f b1bd 3457 d0bd 5e06 1d3d
00000050: 03cc 14bd b75d 92bd b80b 50bc 6b51 ad3c
00000060: a9d5 b3bd 32e7 02be 148b 093d f7be b43c
00000070: 05dd 71bd 6857 013e b6a3 c93d 2717 e9bd
00000080: 6899 44bd ce68 ec3d 07ed c03d 60f0 313d
00000090: a547 a7bd 64fd 29be 290f 9fbd 94fa ff3c
000000a0: dcd3 82bd bf02 49bd 7d77 27be 4cfa 003e
000000b0: 1792 373d 5be3 453d 19a0 2fbe 69fe dd3c
000000c0: 1d28 1ebc 28cc e7bd 1602 e2bd 2760 cabc
000000d0: aa80 1ebe 6310 bb3a e4c6 e23d d7c6 cfbd
000000e0: 434e 183d bbd4 b53d 36cd 0ebe 6276 59bd
000000f0: 1412 00bd 922c 24bc 9354 08be 887c 8fbc
00000100: 9bfa dcbd 1f9e f73d 1977 a9bd 21ec 063e
00000110: 848b e53d 9e27 36be aaea 55bd acfb d9bd
00000120: 4148 b2bb f0a2 353c 8854 a33d 54e7 f13d
00000130: d44d 8b3d ade9 fc3c b58d ba3d 1aca 993c
00000140: 9a5c 86bd 90c3 4f3d 8402 473e feb7 e03d
00000150: afc5 cb3d 3b48 09bd 5520 dfbd fcc5 5c3d
00000160: 7ef3 d2bd ddb6 0c3e e088 18bd f903 b6bd
00000170: 1b59 48bd 371e 043c ae20 7bbd 69af 22bd
00000180: 654d d33d 6e26 633d a2f1 cc3c 5714 7fbd
00000190: 9263 18bd dd90 56bd 57d0 8f3c b425 ed3d
000001a0: c1c0 a7bd 3cc8 353d 4e1e 213e 6505 87bd
000001b0: d951 d6bb 7586 d73d 4652 2b3e f634 1b3d
000001c0: a645 0e3e f637 81bd e6b0 ccbd 5457 a6bc
000001d0: a16d 1dbe 674a f83d 55ba 65bd f0d3 013e
000001e0: 812d d6bc ecd1 e53d 4ae0 16bc 38fe e7bc
000001f0: 71dc 133e 2c5e ef3d 851b aabd a71a 8c3d
00000200: 53cf 013e 7913 903d 9898 013d 8fb7 5dbd
00000210: 5e75 d0bc 1969 0f3d a050 2a3d 0af6 e53d
00000220: 2e3c 0dbe 5a8f 1ebd a593 003e cc62 323d
00000230: 50b6 d0bd a137 a43d 3270 793d 5343 04bd
00000240: abeb 5dbd 371c 373d ae14 5d3d 91d3 fd3d
00000250: df7e de3d d253 e3bd 0b76 703e 9cc1 c33d
00000260: 969c 393d efbb 103e 6cb5 0ebd a4b7 d2bd
00000270: d2b7 5d3d 58f7 a33c 8a42 dfbd 8546 c6bd
00000280: 46bd 173e 19b1 3f3e 9ecf 0a3d 4715 793b
00000290: 9a8d 96bd 8236 533c 71c6 83bd 6993 e8bd
000002a0: ecc9 873d e491 c93d 2e6c f53d fd57 27bd
000002b0: a474 a43d c2e8 463d 1855 9d3d da2e 87bc
000002c0: 5462 c83d 1f44 c8bd dcb2 343e d0da 1abe
000002d0: 5d8a b93d 955c f53c 629d f73d af65 48be
000002e0: 7e47 efbd 5cca c7ba 5e56 893d cf32 16bc
000002f0: 9bdc be3d 0b65 05bd 798d 803d fd8d 99bd
00000300: 649e 3c3c 4419 a93d 88ed 9f3d 1938 3bbe
00000310: 6c56 dcbc c2ce 6e3d 7346 ccbb 7252 9cbc
00000320: ea5f 03be 07a2 a33d 3ab3 16bd 0686 ecbc
00000330: da26 c43d cdcb 603d d8d4 a93d 2fe7 fabd
00000340: b895 a23d 2b43 193d 18e9 cf3d c69f aebd
00000350: e383 a0bc 128c 84bd 5b8f cb3c 8a62 0dbe
00000360: 419e 01be c37e 24be 461b 6e3d 359d fb3d
00000370: c127 31be 678f 073e ff41 b63d 2927 f5bb
00000380: bf58 33bd 9b7d 033e 3bf2 e8bc 5146 c0bc
00000390: d7ea 793d 0a4a 993d d81e e4bd cec4 963d
000003a0: 0d83 1bbc 0d03 e03d a729 c33d ca98 1abe
000003b0: c816 a6bd 8668 d7bd efe9 d43d 9a0a d7bd
000003c0: fca9 4e3d 0f2b d43d 2595 0b3e 264b 6ebc
000003d0: 784c 09be 86bd f93d 22d5 823d 2917 093d
000003e0: 2e03 983d 0b76 cb3c c37a 9ebd f8af cf3d
000003f0: 18df dabd 6e29 a13d b91e 34bc 33ed 16bd

bias f4 [20]
0.12125195 -0.08106992 0.1422757 0.07109038 0.049810953 -0.07965912 0.05661592 -0.15662864
-0.124026015 -0.093330584 -0.0043915575 -0.041178558 -0.11576065 -0.13752104 -0.12855588 0.13061874
-0.007994732 -0.038030483 0.033873986 -0.15762094
00000000: f152 f83d fc07 a6bd b9b0 113e d597 913d
00000010: 9206 4c3d 5224 a3bd 18e6 673d 4263 20be
00000020: 5a01 febd 1b24 bfbd 0ee7 8fbb d9aa 28bd
00000030: eb13 edbd 51d2 0cbe 27a4 03be ebc0 053e
00000040: 56fc 02bc dac5 1bbd 73bf 0a3d 6267 21be

weight f4 [10, 20]
0.4120857 0.47607175 0.10916175 0.4146015 0.30003873 0.35415232 -0.28959784 -0.22441685
0.118297175 -0.50658655 -0.28794402 -0.073092446 0.33984333 0.127827 0.32328635 0.2808033
0.21683396 0.28158486 -0.34849933 -0.18146208 0.4730274 -0.2112874 -0.18632922 -0.20337439
0.32661924 0.07336674 -0.43027383 0.12383046 0.60179925 -0.54211026 0.33264852 -0.11000638
0.096811615 0.46903962 0.0303623 0.31811386 -0.37538704 -0.3037993 0.30415523 0.050472908
-0.48201418 0.37749603 -0.4357507 -0.4322058 0.36100277 0.06256946 -0.14908603 -0.2755966
-0.4327583 -0.3946638 -0.33908165 0.15168318 -0.37784064 0.16987963 -0.45020264 0.40222725
0.32080427 -0.32233647 0.3317964 -0.34027883 -0.0937581 -0.3211513 -0.33962882 0.24708009
-0.35245222 -0.19123518 0.4841397 -0.0076147486 -0.11479453 -0.34499952 0.34782323 -0.39907837
-0.34860057 -0.523681 0.06550083 -0.27095476 -0.26039132 -0.0048160153 -0.09845202 -0.10469643
-0.4810834 0.18715993 0.326789 -0.45776176 0.18138781 -0.43668383 0.4834797 0.3432381
0.47618312 0.08543535 0.2989092 0.31156552 -0.12554725 0.1816233 -0.5017324 -0.57097006
-0.026919594 -0.17483222 0.0051128613 0.6187856 0.35406524 0.42072248 -0.47540417 0.28166452
-0.39236727 -0.26205516 -0.19214444 0.064631544 -0.508814 0.56720775 -0.31910723 0.24337529
-0.12633307 0.25658408 0.3948825 0.2712849 -0.4345206 -0.23875399 -0.24191211 -0.03265311
0.42140257 -0.44621882 0.41877115 -0.116216384 -0.1604156 -0.23167562 0.078600116 -0.17688785
-0.16076128 -0.099948555 0.190292 0.050522976 0.06876919 -0.32593077 0.2661306 -0.23763435
-0.08673168 0.56560904 0.36433393 0.25006056 0.005299118 -0.039188266 -0.040295206 0.060664672
-0.018043624 0.011833533 -0.08562461 -0.021626022 0.011319611 0.07064773 0.100853965 0.0012003923
0.10754205 0.08197684 0.08637156 0.06276527 0.009242496 0.082990125 0.021213647 0.034115758
-0.14802101 -0.27875397 0.16181518 0.06512822 -0.33430332 0.24559405 -0.12374299 -0.1472981
0.3219412 0.5106311 0.33760694 0.21282072 0.50466985 -0.056986827 0.27634293 0.35446364
0.37227318 -0.25633907 -0.09102433 -0.2200334 -0.07194386 -0.30000815 0.24482225 -0.09237936
-0.005310354 0.15006095 -0.043129176 0.40725338 -0.20037077 0.43085817 -0.39634213 -0.23797634
0.18396953 -0.29022264 -0.3384374 -0.15588467 0.30490667 0.5004145 0.027820313 -0.18436614
00000000: e6fc d23e adbf f33e 3290 df3d a646 d43e
00000010: ad9e 993e 7453 b53e 2b46 94be 88cd 65be
00000020: ca45 f23d a8af 01bf 666d 93be 7eb1 95bd
00000030: f2ff ad3e 15e5 023e ca85 a53e 73c5 8f3e
00000040: b909 5e3e e42b 903e 816e b2be 32d1 39be
00000050: a630 f23e b95b 58be 16cd 3ebe 6041 50be
00000060: a33a a73e 4d41 963d da4c dcbe d39a fd3d
00000070: 840f 1a3f bdc7 0abf e850 aa3e 064b e1bd
00000080: 2b45 c63d f625 f03e 5cba f83c d2df a23e
00000090: bb32 c0be 958b 9bbe 3cba 9b3e aebc 4e3d
000000a0: 90ca f6be 2947 c13e b71a dfbe 144a ddbe
000000b0: 5bd5 b83e 6b24 803d 02aa 18be ff1a 8dbe
000000c0: 7f92 ddbe 6011 cabe 1c9c adbe d652 1b3e
000000d0: 5474 c1be edf4 2d3e f680 e6be bbf0 cd3e
000000e0: 7540 a43e 4909 a5be 38e1 a93e 0739 aebe
000000f0: 3f04 c0bd f16d a4be d4e3 adbe 9002 7d3e
00000100: 9e74 b4be 28d3 43be 29e1 f73e 2485 f9bb
00000110: 6519 ebbd c7a3 b0be e315 b23e 0054 ccbe
00000120: c67b b2be f50f 06bf 4d25 863d 95ba 8abe
00000130: 0352 85be aacf 9dbb 36a1 c9bd 156b d6bd
00000140: 9050 f6be daa6 3f3e e350 a73e c05f eabe
00000150: babd 393e 0695 dfbe a78a f73e e7bc af3e
00000160: 46ce f33e bbf8 ae3d a00a 993e 8485 9f3e
00000170: 758f 00be 75fb 393e 8971 00bf 182b 12bf
00000180: 7b86 dcbc 3807 33be ca89 a73b bc68 1e3f
00000190: 0a48 b53e f068 d73e 2d68 f3be 5536 903e
000001a0: 5de4 c8be 182c 86be 83c1 44be 8b5d 843d
000001b0: a241 02bf 8734 113f 0662 a3be 5f37 793e
000001c0: 755d 01be fd5e 833e 0a2e ca3e dbe5 8a3e
000001d0: 7c79 debe ed7b 74be cfb7 77be 44bf 05bd
000001e0: 14c2 d73e cb76 e4be 2c69 d63e db02 eebd
000001f0: fd43 24be 603c 6dbe 19f9 a03d 1722 35be
00000200: 9b9e 24be d4b1 ccbd e8db 423e 2ef1 4e3d
00000210: dcd6 8c3d 66e0 a6be 4542 883e 6b56 73be
00000220: 61a0 b1bd c1cb 103f fa89 ba3e f007 803e
00000230: 39a4 ad3b e083 20bd 960c 25bd 857b 783d
00000240: 39d0 93bc 6fe1 413c f55b afbd 0e29 b1bc
00000250: e475 393c c2af 903d 868c ce3d 7b56 9d3a
00000260: 023f dc3d 79e3 a73d 93e3 b03d 148b 803d
00000270: d76d 173c baf6 a93d 3ec8 ad3c f7bc 0b3d
00000280: d292 17be d7b8 8ebe e1b2 253e f261 853d
00000290: ce29 abbe 027d 7b3e f76c fdbd 50d5 16be
000002a0: 7ad5 a43e b8b8 023f d1da ac3e aded 593e
000002b0: 0b32 013f 056b 69bd d27c 8d3e 427c b53e
000002c0: 979a be3e e03e 83be f76a babd 7050 61be
000002d0: 4d57 93bd ab9a 99be afb2 7a3e 6431 bdbd
000002e0: 7a02 aebb 94a9 193e 38a8 30bd 8483 d03e
000002f0: ff2d 4dbe 7199 dc3e 5bed cabe 12b0 73be
00000300: 8262 3c3e 1098 94be ab47 adbe 3ba0 1fbe
00000310: ba1c 9c3e 2a1b 003f 6de7 e33c 7aca 3cbe

bias f4 [10]
1.009344 1.1532733 0.7385025 0.90052956 0.6698052 0.800258 0.9587148 -0.15869515
0.8513524 0.91567886
00000000: 2f32 813f 769e 933f 800e 3d3f 1b89 663f
00000010: 5b78 2b3f b5dd 4c3f 556e 753f fb80 22be
00000020: 3bf2 593f ee69 6a3f

weight f4 [1, 10]
-0.67950547 -0.63540953 -0.7474224 -0.6191331 -0.6455208 -0.68318677 -0.64189994 -0.020187112
-0.86815226 -0.57400364
00000000: 12f4 2dbf 33aa 22bf 1357 3fbf 827f 1ebf
00000010: da40 25bf 54e5 2ebf 8e53 24bf 715f a5bc
00000020: 3a3f 5ebf e7f1 12bf
