Feaprotect/models/mobile_price/sc_h-talk_time-touch_screen-battery_power-four_g-three_g/ori/MINE/model_1.pkl (torch, 14721 bytes, 11 tensors)

weight f4 [10, 1]
00000000: 9f7d 84be e097 01be 300f a63d 0244 503f
00000010: 9cdd 2f3f d407 04bf 6249 75bf bc78 69bd
00000020: 39e7 093f f55c 273f
-0.2587709 -0.12655592 0.081083655 0.8135377 0.68697524 -0.51574445 -0.958151 -0.056999907
0.5386844 0.65376216

bias f4 [10]
00000000: 4f80 d8be 0692 3dbf a67b 0bbf f095 41bf
00000010: ad90 23bf 8f5f a03e c0c7 143f 81b8 6d3f
00000020: 573c 00bf 25f2 c7be
-0.42285392 -0.7405094 -0.5448555 -0.7561941 -0.6389263 0.31322905 0.58117294 0.92859656
-0.5009207 -0.3905193

weight f4 [40, 10]
00000000: ef7f 4cbe 8f17 01be ad6d 233e 7885 5e3e
00000010: 9c1e 953c 395e 34be a6f6 903c d0a2 e0bd
00000020: 8d5e 8b3d 0b37 383e 8acc 4f3e abc6 34bc
00000030: 46e1 41be e2c6 243c bed4 973e 96d0 12be
00000040: 4b6b 123e 9db3 163e e554 0b3e f3df 75bc
00000050: a639 483c 5351 653e c465 3ebe d9f7 d3bd
00000060: 42c4 fd3c 0dfe 59be 899a 903e a147 83be
00000070: 5137 893d 0c47 81be 8422 91bd e9e3 663d
00000080: 0e10 a2bc 96e7 89bc 0b67 93bd 9497 863d
00000090: 189e 1bbe dc2e 873e c9b7 26bd 4c39 babd
000000a0: 7d0b 243e b4b4 46be 783d 8fbe 83bd 363e
000000b0: 593c a5bc 02f9 59be 8456 70be e776 213d
000000c0: 21ca ebbd 79f9 4a3e 0f03 383e bb78 863e
000000d0: 58d9 ba3d ffe1 65be 8bdd 07be 52b4 9dbe
000000e0: 08d2 083e 4a51 833e f31f 0dbd 9b56 c43d
000000f0: 3132 fdbd 4ef9 fe3d 8d97 8abe 94c9 f3bd
00000100: 2e15 433e 07a5 8b3e ac4c 7a3e a7ca 323e
00000110: 68af d9bc 6ec9 4abe 1f03 c9bd f64c ebbb
00000120: aff9 113e 7a19 e23d 4212 46be 9397 393e
00000130: 8dc8 843d 28af 59be 9926 b139 ed00 8bbe
00000140: 6e92 d0bd 0fb6 c93d c072 343e 7f52 f73d
00000150: 9cdd 2abe 34fd a5bc 275b 443e e05f febc
00000160: 9e18 24be 270c 863e 606a 2f3e 3637 2cbd
00000170: c516 b1bd 024c 9b3d 48c1 e73d 95f4 55be
00000180: f4ff 1c3e 8038 8a3e 0479 5c3e 4e07 5abc
00000190: 4a9e 5bbe 02a3 4b3e 2658 a4bd 7ff8 c1bc
000001a0: 5539 f8bc dc23 a53e 6d79 84be 0318 203d
000001b0: de4e 6d3d 2e20 09be 541a dd3d 45bc eabd
000001c0: 26f0 6d3d 0b41 243e 36f7 78bd 5f4f 953d
000001d0: 8bf6 54be 908a 803e 8dc4 21bd 3429 a23e
000001e0: a363 ea3b 83e6 723e 3481 6f3d f74e 37bd
000001f0: c64a 7bbd 5a81 2bbd 65df 2dbe 864d 8d3e
00000200: fac5 9f3e 3478 6dbd 8799 a9bd c86f a1be
00000210: cec4 edbd eb3d fe3d c403 f3bd 08b0 5e3e
00000220: a7d6 a1be 1d97 603e d2a0 cabd a6c5 09be
00000230: 7b5d f03d b35d 913e 623a 44be e7a7 15bd
00000240: e2c2 23be 439a e03d 7842 bbbc dbea 70bd
00000250: ebf5 423e 9d6c f7bc 03df 64be 669e 64be
00000260: 1610 d43c a1b0 5cbe 03b4 a53c 6f4a 0ebe
00000270: ed39 4cbd 482f 9f3d 4395 633b 724b 53be
00000280: 7e04 e03d 214b 6cbd ae59 59be 6ea8 5b3e
00000290: 3770 7dbe ac3c 8abe 8c9e 6cbe 42b4 c0bd
000002a0: 56c1 e5bc f084 89be 2238 9bbe 7086 9b3e
000002b0: c7a9 53be 36d6 623e af0c 1b3e 9e3d 42be
000002c0: 4d65 e03d 3cb8 7e3e e97a 9dbb e337 81bd
000002d0: 8dc7 a4bd 7cd5 c33a 272f 08be 9e58 3dbd
000002e0: b431 f8bd 1fdd 8b3d a7cc 55be 9337 a93d
000002f0: 66de 29be d6ce 34be bc48 193e bab7 64be
00000300: feb6 00be 8a95 18be 778c 893e a749 b03c
00000310: 3781 debd d164 033e bb17 92be 8998 55bd
00000320: 0c76 7c3d 18c9 b0bc 81ea cbbd cef5 7dbc
00000330: 69f5 533d f166 33bd d45c a6be 1b0e 883e
00000340: 4451 8c3e dd2e 7fbe 4155 35be 2e45 62bc
00000350: 0c82 fbbd 1df2 00bd d1e2 1d3c 287d 3cbd
00000360: 75b4 dbbd 8f0d 903e dc67 56bd 52f5 39be
00000370: a4a7 3bbe 9e61 6b3e 3970 9ebe 295b 983e
00000380: 85be 853d 72b9 5a3e 328c 0e3e 6d89 66be
00000390: 6f64 01be 551f 80be 1ba6 543e dea2 39bd
000003a0: 5a83 9a3b 80d5 be3b 90ab 12bd 202c a5bd
000003b0: dfbe 72bd aa7b 513e 4e5c 2a3e b72b 373e
000003c0: 0233 72bd 10c2 273d fc2f 91be 8865 dbbb
000003d0: 3644 2b3e 4caa 71be 459d f93c 219d a3be
000003e0: 958c 03be 04f7 90bd 6757 003e 179e 79be
000003f0: 4281 a03e fb46 363e a165 0fbe caef 083d
-0.19970678 -0.12606643 0.15959807 0.21730602 0.018203072 -0.17614068 0.017695736 -0.10968554
0.068051435 0.17989747 0.20292869 -0.011033694 -0.18933591 0.010057183 0.29654497 -0.14337382
0.14298742 0.14716955 0.13606603 -0.015007007 0.012220776 0.22394304 -0.18593508 -0.103500076
0.030977372 -0.21288319 0.282429 -0.25640586 0.06700004 -0.25249517 -0.070866615 0.056369696
-0.019783046 -0.016834062 -0.07197388 0.0657188 -0.15197027 0.26402938 -0.040702615 -0.0909296
0.16020007 -0.1940487 -0.27976584 0.1784573 -0.020170378 -0.21286395 -0.23470503 0.039420035
-0.115131624 0.19821729 0.17969917 0.26263985 0.09123486 -0.22449492 -0.13268106 -0.30801636
0.1336137 0.25647956 -0.034454297 0.09586831 -0.12363089 0.12449895 -0.2706875 -0.11903682
0.19051048 0.27274343 0.2444331 0.17460118 -0.026572898 -0.19803402 -0.098150484 -0.0071808053
0.14255403 0.110400155 -0.19342902 0.18124227 0.064835645 -0.21258223 0.00033788828 -0.27149144
-0.10184179 0.09849178 0.17621899 0.12076282 -0.166861 -0.020262338 0.19175397 -0.031051576
-0.16025016 0.26181147 0.17130423 -0.04204484 -0.08646921 0.07582857 0.11316162 -0.20894082
0.15332013 0.2699623 0.21530539 -0.013307406 -0.21447101 0.19886401 -0.080246255 -0.023678062
-0.030300776 0.3225392 -0.2587389 0.0390854 0.05793654 -0.13391182 0.10796037 -0.11461691
0.05809035 0.16040437 -0.060782634 0.072905295 -0.20797174 0.25105715 -0.039494086 0.3167206
0.007152991 0.23720746 0.058472827 -0.04475304 -0.061350606 -0.041871406 -0.1697975 0.27598208
0.31205732 -0.057975963 -0.08281236 -0.31530595 -0.11609803 0.12414154 -0.118659526 0.21746838
-0.3160908 0.21932645 -0.09893955 -0.13454303 0.1173658 0.283918 -0.19162896 -0.036537077
-0.1599231 0.10966923 -0.022858843 -0.058817726 0.19039123 -0.030203158 -0.22350697 -0.22326049
0.025886577 -0.21551754 0.020227438 -0.13895582 -0.04985993 0.0777269 0.0034726418 -0.20634249
0.10938357 -0.057688836 -0.21225616 0.2145097 -0.24749838 -0.26999414 -0.23107356 -0.094093814
-0.028046291 -0.26859236 -0.30316263 0.30376005 -0.20670234 0.22152027 0.15141557 -0.18968818
0.109568216 0.24874967 -0.004805912 -0.06309488 -0.08045874 0.0014940943 -0.13299237 -0.04622709
-0.12118855 0.06829285 -0.2087885 0.08262553 -0.16588745 -0.17657027 0.14969152 -0.22335711
-0.12569806 -0.14900795 0.2686498 0.021519495 -0.108644895 0.12831427 -0.2853373 -0.052147422
0.061636016 -0.021580264 -0.099568374 -0.015500499 0.051747713 -0.043799344 -0.32492697 0.26573262
0.2740575 -0.2492022 -0.17708303 -0.013810439 -0.12280664 -0.031480897 0.009636597 -0.046017796
-0.10727779 0.28135344 -0.05234514 -0.18159989 -0.18325669 0.22986457 -0.30944994 0.2975705
0.06530479 0.21359804 0.13920668 -0.22513361 -0.12635969 -0.25023904 0.20766489 -0.045321338
0.0047153654 0.005823791 -0.035808146 -0.08065057 -0.05926406 0.2045733 0.16636774 0.1788777
-0.059130676 0.040956557 -0.28356922 -0.006695453 0.16725239 -0.2360012 0.0304705 -0.31955817
-0.12846597 -0.070783645 0.12533341 -0.24376713 0.31348616 0.17800514 -0.14003612 0.033431806

bias f4 [40]
00000000: 86ed 033e 6d95 84bd ef0d 53be 2219 83be
00000010: b0df 13be 562a 11be 9668 efbc 6513 963d
00000020: 0a32 773e d69e 49be 15c6 783c 075f 43be
00000030: bfbb 0e3e 70a1 58be a039 12be abb6 2c3e
00000040: a7d8 0ebe e3a9 24be 86b9 8fbe 5f3b 443d
00000050: 8580 3d3d d790 88be b8da 223e 9620 a5bd
00000060: 8b7a 743d 1974 4dbe 6e2f 2fbb 4275 3b3e
00000070: fc52 84be c240 453d 4483 80be 1dd3 12be
00000080: f171 cc3d 36ff f1bd 5787 7f3e cbd6 6bbe
00000090: 8205 4f3e 78b6 5ebe 6095 853e 4f47 cd3c
0.12883577 -0.06473813 -0.20610784 -0.25605112 -0.14440799 -0.14176306 -0.029224675 0.07327918
0.24140182 -0.19689497 0.015183945 -0.19079219 0.13938807 -0.21155334 -0.14279795 0.16866557
-0.13949834 -0.16080432 -0.2807123 0.047908183 0.046265144 -0.26673004 0.15903747 -0.08062856
0.05968718 -0.20063819 -0.002673115 0.18306449 -0.25844562 0.04815746 -0.25100148 -0.14338346
0.0998267 -0.11816256 0.24953972 -0.23031156 0.20216945 -0.21749294 0.26090527 0.025058417

weight f4 [20, 40]
00000000: 7205 17be 49ed 58bd 6f42 de3c 7950 98bd
00000010: 9e8e 39be 329c 853c 34c1 00be 1f9a 02be
00000020: b10d 063e 1b3f f4bc 21ff 833d 4280 b4bb
00000030: 735d 903d 73a2 7f3d 65ad 273d 5e4b dbbd
00000040: 04fb ab3d 68f5 91bd 0aa7 27be 37c4 5f3d
00000050: a95c 553d d9f0 323d 19ff debd be33 c3bc
00000060: 8ef4 34be f0e9 f3bc c852 973d ea35 463c
00000070: 7f85 e43c 0510 d4bd 0be6 8a3d db27 cfbd
00000080: 3bed 0ebc 2c3a 7fbd 9f7e 1dbd 1e2c bcbd
00000090: de30 343d 4547 b13c 1e14 563d 3739 4a3d
000000a0: 30f0 7c3d 29de 983d fad5 843d f9e0 9bbd
000000b0: 169e 113e 98ae f0bd 4ef7 a33d 795c d3bd
000000c0: 0a02 843d 89f7 cebc b253 263e bfb3 c4bd
000000d0: 6562 16bd 1db7 03bd df8b 153e b771 6f3c
000000e0: 7a5f 563c 652d 11be 45b1 703c 0551 8bbb
000000f0: 7a18 bc3c d2df 6cba 1b8c 4ebd db37 eb3d
00000100: be61 2b3e 618d 0cbe f7c7 cabd b539 c23d
00000110: cb52 4cbd 5be3 a2bd 3c7c 593d bbe6 043e
00000120: 0d8a 6ebd 3633 e2bd 6959 c43c 7276 823d
00000130: 8cd0 b0bb b2f8 2d3d 293c 46bd 429c 2fbd
00000140: df8c 803d 87c1 b03d 5188 b8bc 28d7 3fbe
00000150: bd2e 073d cc96 87bc 0148 d93c 5bad a33d
00000160: cfa9 4cbb 290f c5bd 10a4 933d 94cb 93bd
00000170: 9286 d2bc c687 21be ed81 64bd c4bf 6d3d
00000180: e520 e33d d43d 68bd cd45 983b fc9c dd3d
00000190: 4ab2 44be 53a1 773d 4370 e8bd 48ad d93d
000001a0: b70b b8bd a08a 293c 860a 073e 8790 303c
000001b0: e0fc 97bc 32dd b23c a900 a0bd 7b42 33bd
000001c0: 5fee d4bd 67b4 933d f06b ae3d 915d 79bd
000001d0: dfdb 893d 290b 05be eafc 3dbe 0444 f73d
000001e0: dcaf 8e3d e9d8 11bd 2ea9 66bd 1307 f4bd
000001f0: f957 ffbb 5a92 ac3d a800 c8bd 7168 a83d
00000200: b5c7 6c3d 301b fbbd 9458 b73b 7e52 41bd
00000210: 9867 9e3c 9a4a 29bd bd45 3bbd 0b75 083d
00000220: 9c2e d339 0b51 4bbd da68 acbb e6a5 a53d
00000230: 65dd 98bd 1806 053e 7b22 c53c 7a94 aebb
00000240: 0b76 52bd 4438 f7bd d494 853d a95f 333d
00000250: f6ad f33c 9fef 91bd 8def 903d 01be 5e3d
00000260: ee4c 0abd 2d8e 1a3e c62d 3bbb 4f5f f5bd
00000270: 7dd1 103e 9607 af3c b71d 0a3e f4e6 2fbd
00000280: 5cb6 33bd d7a4 283e 57ff 893d cae5 f73d
00000290: e82f 113e 6321 c7bd 90cf eabc 2665 ad3d
000002a0: 283e 003e 5dff 763d 3f4b 3dbd 3cc0 4dbd
000002b0: 6c0e 7b3d af45 11be 8e99 153e 95bc 253e
000002c0: 99d0 f3bd 629e 0b3d 80ae 983c ecb4 5cbd
000002d0: fbda cabd bfaf 98bc 75bc bebd 21a6 c8bd
000002e0: 5760 f7bd 9ed2 3cbd 732f 103e 53f5 e03d
000002f0: c05c 0fbd 4e94 fabc b719 2abd db90 793d
00000300: cc34 9e3d eab7 08be 46df 003e 0c97 17be
00000310: 4628 10be 58c6 c5bd a7b1 093d a9a4 cbbd
00000320: 6aa0 653d 1dff aebd 6116 483d f4e1 efbd
00000330: 6a5c 3f3d cf89 c4bd 2214 e2bd 4620 123c
00000340: 945d 973d 67b1 c5bd 080c 2dbe 1f81 1ebe
00000350: 5f4a ec3d 1593 2bbd b624 0a3d 462a 31bd
00000360: f895 ef3b 02e7 c33d 4f15 b83d 7a39 893d
00000370: 2959 073e 4fba 8abd 327f c9bd 9b8e cbbd
00000380: 954f 963c abf1 fe3c fce6 a63c cbf5 01bd
00000390: 3592 a5bd f496 043e 174c 363d 16b9 1b3e
000003a0: 4744 063e 939c eabd 545d aa3d 0f3d d3bd
000003b0: 7995 be3d acb9 ff3d 7828 cbbd 91ca a43d
000003c0: 7ae5 49bb c671 3abd 976e 113e 4494 0b3e
000003d0: 2164 f1bc d3b7 1fbd d49e 48bd 6544 793c
000003e0: 3161 423d 6ba3 a4bc 2b85 0d3e c1ef 70bd
000003f0: 5099 ea3d 28ee b3bd 3554 1a3e 9228 02bd
-0.14748171 -0.052960668 0.027131287 -0.07437224 -0.1812081 0.016309831 -0.12573701 -0.12754105
0.1309116 -0.029815247 0.06445146 -0.0055084536 0.07049074 0.062410783 0.040936846 -0.107077345
0.08397487 -0.07126886 -0.16372314 0.054630484 0.05209032 0.04368672 -0.108885 -0.023828384
-0.17671415 -0.029774636 0.07388836 0.012097815 0.027895687 -0.10354618 0.067821585 -0.10115024
-0.008723552 -0.062311336 -0.038450833 -0.09188102 0.043991916 0.02164043 0.05226528 0.04937097
0.0617525 0.07464249 0.06486125 -0.076112695 0.14220461 -0.11752051 0.08006154 -0.10320372
0.064457014 -0.025264518 0.16242865 -0.09604596 -0.03671493 -0.032157052 0.14604138 0.014614514
0.013084287 -0.14177473 0.014690702 -0.0042516016 0.02296089 -0.00090360374 -0.050426584 0.11485263
0.16736504 -0.13725807 -0.099014215 0.09483663 -0.049883645 -0.07953521 0.053096995 0.12978642
-0.058237124 -0.11044924 0.023968415 0.06370248 -0.0053959545 0.042473502 -0.048397217 -0.04287363
0.06276869 0.086306624 -0.022525938 -0.1873442 0.033003557 -0.016551398 0.026523592 0.07992049
-0.0031229143 -0.09622032 0.07209027 -0.07216564 -0.025698934 -0.1577445 -0.05578797 0.05804421
0.110902585 -0.05669959 0.004646993 0.10820958 -0.19208637 0.060456585 -0.11349537 0.10628754
-0.089866094 0.010347992 0.13187608 0.0107766455 -0.018553197 0.02183399 -0.07812626 -0.043764573
-0.10397028 0.072121434 0.08516681 -0.060880248 0.0673139 -0.12992539 -0.1855351 0.1207352
0.06967136 -0.035607252 -0.056313686 -0.11915412 -0.0077924696 0.08426352 -0.0976575 0.082230456
0.057807643 -0.12261045 0.005595276 -0.04719781 0.019336507 -0.04133091 -0.045720804 0.033314746
0.00040279783 -0.049637835 -0.0052615227 0.08088283 -0.07464103 0.12990606 0.024064293 -0.0053277584
-0.051382106 -0.12071279 0.06522527 0.0437924 0.029746037 -0.07125782 0.07076941 0.05438042
-0.033764772 0.15093298 -0.0028561219 -0.11981069 0.14142413 0.021365922 0.13487898 -0.042944863
-0.043875083 0.16469131 0.06738155 0.12104376 0.14178431 -0.09723165 -0.028663427 0.08466558
0.1252371 0.060302127 -0.04621434 -0.050232157 0.06129305 -0.14186738 0.14609358 0.1618522
-0.11905021 0.034086592 0.018637896 -0.053883478 -0.099050485 -0.01863849 -0.09313289 -0.097973116
-0.12078922 -0.046099298 0.140806 0.10984292 -0.035000563 -0.030588295 -0.04152843 0.06092916
0.07724914 -0.13351408 0.12585172 -0.14803714 -0.14077863 -0.09656972 0.033616688 -0.09943516
0.056061186 -0.08544753 0.048849467 -0.11713019 0.046718992 -0.095965974 -0.11038996 0.008918827
0.073908955 -0.096529774 -0.16899121 -0.15478943 0.11537623 -0.041888315 0.033726417 -0.043253206
0.007311579 0.095655456 0.08988439 0.06700416 0.13217606 -0.06773817 -0.09838714 -0.09939309
0.018348495 0.031121096 0.020373814 -0.031728547 -0.080845274 0.12948209 0.04450616 0.15207323
0.13111983 -0.114556454 0.08318582 -0.103143804 0.093058534 0.12486586 -0.09919828 0.08046449
-0.0030806945 -0.04551866 0.14202343 0.13630778 -0.02946669 -0.038993668 -0.048979595 0.01521406
0.04745597 -0.020097455 0.13820331 -0.058822397 0.11455023 -0.08785659 0.15071185 -0.031776972

bias f4 [20]
00000000: 8334 69bd be9c e33d e58b 87bd 9c16 e5bd
00000010: 5f01 9bbd 08a5 ea3b 16b7 5b3d 22ac 563c
00000020: 39c9 b43d 1292 d13d 0656 8f3d c47a 61bd
00000030: 7a08 a33d 99c4 3fbc ed52 14bc 4fa1 cebd
00000040: 9f88 b3bd 47f2 233e 2e0c aabd 3a21 9fbd
-0.056934845 0.111138806 -0.0661848 -0.11185953 -0.07568621 0.0071607865 0.0536414 0.013102563
0.08827443 0.10232939 0.069988295 -0.05504872 0.07960601 -0.011704587 -0.009052974 -0.10089361
-0.08766293 0.1601039 -0.08303104 -0.07770009

weight f4 [20, 40]
00000000: abae 3b3d b566 48bd 2d97 9d3d 652a 11be
00000010: d984 96bd c092 1c3e 3b32 d13d 6f34 b13d
00000020: 74bd ac3d 4f89 ce3d 1925 0cbe 6c3d 4f3e
00000030: f4c9 b0bd 5ed0 b03d b99b 20be d484 243e
00000040: 4a99 c03d 60f6 3fbd 0487 a2bd b165 f43d
00000050: f721 8fbd 114b 30be 8c4c bb3c 5784 73bd
00000060: e2cc a83d 7c35 423e 0634 d93d 4852 a03d
00000070: aa7b 42bd 34f2 d1bc 9b72 2abe cab2 1bbd
00000080: 9026 30bd ac87 73bd ad0e b2bd 7654 b6bd
00000090: 21ba 55bd f21b 89bd 4347 fabc 1044 803d
000000a0: 6152 1fbd 0e72 07be d393 c7bc 977f bdbc
000000b0: 80bf edbd 9312 0d3e 3430 1e3e a614 0abe
000000c0: b2f7 fa3a 63c0 113d 83b5 cabd 4c0d 133e
000000d0: 5c67 ee3c d91d 0a3e 68b0 25bd aac1 adbb
000000e0: 8a45 ac3d f737 d33d ef3f d2bd 6db1 6abc
000000f0: 7a22 f83d 5a44 c2bc 182b f13d f3a0 8b3d
00000100: 70ab 9e3d d654 ce3d ca71 b63d 4c04 d6ba
00000110: 0966 18bc ae3e 8e3d 91df 803d 3605 d0bd
00000120: 1996 1f3e d4bb 6abd 9d19 1d3d fdf4 ebbd
00000130: 3cd8 e8bc 4494 9bbc c1b7 cbbd 7991 4cbd
00000140: dae3 1b3e b017 8dbd f688 233e 1fa5 a2bd
00000150: c3dc f4bd 0652 863d f6c3 fe3d fd95 e339
00000160: 46d2 83bd fda1 a73d 49bf 13bd 9e54 c93d
00000170: af26 2dbe c06e 993d c4f7 e6bd 00c4 78bc
00000180: 20ad a93d e49b 4d3d ae75 36bd 9b5a ad3d
00000190: 9a25 cfbc b6a9 df3d ef24 72bd 7457 ba3d
000001a0: 7edb 0dbd b3ab 8abc 99da c0bd d22a aa3d
000001b0: 29ad c83a 297b 463d c767 0bbd af8c b83d
000001c0: e82c 0cbe 834e c9bd 6067 94bc 90bd 013d
000001d0: 6f20 3abe 0373 3c3c 16a8 cfbc ba39 9c3d
000001e0: 1f24 c5bd fb88 fbbd fa9e b43d 0574 64bc
000001f0: 3edd 763d d62b 92bd 66be f7bd 69db 153e
00000200: dca4 58bd 04a3 753c e349 0abe 4423 033a
00000210: cd90 cf3d 6609 6dbd 7e80 d63d 3577 3c3b
00000220: 8386 0abe 82d5 9abd 5554 1bbe f3d3 5bbc
00000230: d52e 5d3c 8f98 aebd 716e a33c a4ee b43b
00000240: 7fda 093e 9f21 febd c01c 9a3d 2c7a 013d
00000250: 1134 aabb 8ea2 eb3d fa8b 61bd d055 04be
00000260: e675 64bd fc24 28bd 277a 9fbd 4a4c 2cbc
00000270: fcb0 9bbd 79cb 1a3c db76 543d 3236 43bd
00000280: f4f3 1a3e 08a2 1d3e 5b73 de3d 8d25 ac3d
00000290: 60b3 04be e2b6 1abd aa94 073e c80a b83d
000002a0: 2d1e 0bbd b85f e73c 1616 ea3c 5cf0 5e3e
000002b0: 4894 9b3c ba06 e0bd a1a2 86bd 92b9 a03d
000002c0: 3e99 723a 9783 1c3d d271 c53d a961 3d3d
000002d0: ff4b ebbd 456a 2b3d f5c5 8c3c c6df 0b3a
000002e0: c060 bbbd e93b 07be d4e9 31be 3ba0 293e
000002f0: 979e 9f3d 2273 353e 3247 10bb c468 a73c
00000300: ad90 c9bc cf4e 59bc 2367 283e 57e8 36bd
00000310: a371 ad3d 395b 8f3d a625 793c 0e79 963d
00000320: fba8 85bd aaef ac3d 136a 13be 7786 72bc
00000330: 18f8 67bd 7a5c adbc acc1 1fbd bf84 8dbd
00000340: 711a ec3b de84 ef3d 1eeb 0ebd c2e8 78bc
00000350: 82fa de3d e6a3 533d dda2 a53d 9d41 903c
00000360: ab1f d43d f2f7 84bd ca97 b13c a2c9 7f3c
00000370: f917 b4bd 2eaa 00bd 875c 01bd b221 17be
00000380: cd6c 203e f599 953c 45fa 9c3d 18c7 91bd
00000390: 083e 08bc 047e bcbd d7be 18be b38b 813d
000003a0: c31d b43d 7354 d23d a56f a3bc 7901 253e
000003b0: 9a9d e0bd 3efb e53c a55a 2bbd f66a c3bd
000003c0: c9c0 16bd 6c4c 043e 5ee1 b5bd ebfe 323e
000003d0: 8bda 083e 97ff 1fbe ebce b33d 9f3c 39bd
000003e0: ef7b 64bc 0886 10be 3bac 7abd f0b1 c73d
000003f0: 18aa a7bd 5263 1e3e 0de1 09be 1170 d93d
0.045820873 -0.048926074 0.0769485 -0.14176328 -0.073495574 0.15290356 0.10214659 0.08652579
0.08434573 0.10084783 -0.13686027 0.20238274 -0.086322695 0.08633493 -0.15684403 0.16066295
0.094042376 -0.04686582 -0.079359084 0.119334586 -0.069889 -0.17216136 0.022863649 -0.05945238
0.08242203 0.18965715 0.10605626 0.07828194 -0.047481216 -0.025628187 -0.16645281 -0.038012303
-0.043005526 -0.05945556 -0.086942054 -0.089028284 -0.05217946 -0.06694783 -0.030551558 0.06262982
-0.038896922 -0.13227102 -0.02436248 -0.023132129 -0.11608791 0.13776617 0.15448076 -0.13484439
0.0019147305 0.035583865 -0.09897902 0.14360541 0.02910202 0.13487948 -0.040451437 -0.0053026276
0.08411701 0.10313409 -0.102661006 -0.014324528 0.12115951 -0.023714233 0.117757976 0.06817808
0.07747543 0.10074775 0.08908422 -0.0016328185 -0.009301671 0.06945549 0.06292642 -0.10157244
0.15584601 -0.057308033 0.038354505 -0.11521337 -0.028423421 -0.018991597 -0.09947158 -0.04994342
0.15223637 -0.06889284 0.15970215 -0.079416506 -0.119561695 0.065586135 0.1243972 0.00043408564
-0.06436591 0.08185194 -0.036071096 0.098305926 -0.16909288 0.07491827 -0.11277726 -0.015183449
0.08284974 0.050197497 -0.04454582 0.08464547 -0.025286485 0.10921042 -0.059117254 0.090987116
-0.034633152 -0.016927576 -0.09416694 0.083089486 0.0015310395 0.0484573 -0.034034517 0.09011208
-0.13689005 -0.09829428 -0.0181157 0.03167492 -0.18176435 0.01150203 -0.025348704 0.07628198
-0.0962603 -0.12281986 0.08819385 -0.013943677 0.060269587 -0.07137267 -0.120968625 0.1463448
-0.052891597 0.014992479 -0.13504748 0.00050025084 0.101350404 -0.05787029 0.10473727 0.0028757576
-0.13527875 -0.07560255 -0.15168889 -0.013417232 0.013499935 -0.08525192 0.019950124 0.0055216122
0.13462256 -0.124087565 0.07525015 0.031610653 -0.005194195 0.11505614 -0.055065133 -0.1292336
-0.0557765 -0.041050896 -0.077869706 -0.010516236 -0.076021165 0.009447926 0.051871162 -0.047659107
0.15132123 0.15393841 0.10861846 0.084056 -0.12959051 -0.037772067 0.13240305 0.08986431
-0.033964325 0.028243884 0.028574985 0.21771377 0.018991604 -0.10938783 -0.06573988 0.07847895
0.0009254402 0.03821143 0.0964085 0.046235714 -0.114891045 0.041849393 0.017184237 0.0005335774
-0.09149313 -0.13206448 -0.17374355 0.1656503 0.077939205 0.17719701 -0.0022015092 0.020435698
-0.02460512 -0.013263418 0.16445594 -0.04465517 0.0846894 0.06999821 0.01520673 0.07347308
-0.06526371 0.0844415 -0.14395933 -0.014802567 -0.056633085 -0.02116226 -0.03900306 -0.06910085
0.0072053005 0.11695264 -0.034892194 -0.015192213 0.10887624 0.051669978 0.08087704 0.017609412
0.10357603 -0.06492604 0.021678824 0.015612038 -0.08793635 -0.031412296 -0.03158238 -0.14758947
0.15666504 0.018261889 0.076649226 -0.07118052 -0.008315571 -0.09203723 -0.1491655 0.06325474
0.08794739 0.10270014 -0.019950697 0.16113843 -0.1096756 0.028073903 -0.041834492 -0.095418856
-0.036804948 0.12919778 -0.08880876 0.17480056 0.13364618 -0.15624844 0.08779701 -0.04522383
-0.013945564 -0.14113629 -0.061199408 0.09750736 -0.0818674 0.15467575 -0.13464756 0.10617078

bias f4 [20]
00000000: 2d97 41bd 11f3 ddbd 9cc9 e83d 286c 993d
00000010: b0d8 eebd a29c 973d b908 7a3b 1438 88bc
00000020: 42eb 463d ca07 7d3a c1aa 903d 6171 e83d
00000030: dfb8 bd3d 43f7 e53d c26b 2c3d 2ff7 b1bd
00000040: b94b 01bd e3aa 85bd aa68 5dbd d54a 3e3d
-0.047263313 -0.10837377 0.11366579 0.07491332 -0.116624236 0.07402922 0.0038152172 -0.016628303
0.048564203 0.0009652345 0.07063819 0.1134975 0.09263777 0.11228802 0.042094953 -0.08689725
-0.031566355 -0.06526735 -0.054054894 0.046458084

weight f4 [10, 20]
00000000: 1199 8abc 102d e5bb 82f5 12bc be43 dcbb
00000010: 7e7a 15bc 53de 1dbc c5a3 ad3c f7b5 b5bc
00000020: 0bdc d0bb 282c b93c d1d7 acbc 76d2 2e3b
00000030: 3230 8dbc 3c87 813c 23b6 24bc 5961 1a3c
00000040: 6454 8dbc 7ada 873c 5320 29bc 9722 b638
00000050: a27e 0e3d b38b a5be 7f1c 9bbe 449c afbe
00000060: 2ecb 0dbf 4a14 a9be 2bbe 813d 30fe 11bf
00000070: 91f1 82bd 01f0 673e f877 14bf 45ed f7be
00000080: 2041 f63e 5b43 ff3e a342 db3d 2dc1 02be
00000090: d51f 42be ac4c 62bd c8cd e1be 2034 d43e
000000a0: be89 423f a6ef c33e 060c 0a3f e15f f03e
000000b0: 82ff 423e 05ce d7be bf85 84be a04b 7f3e
000000c0: 4770 533e cb12 983e 0608 293e b9e5 193d
000000d0: c8f7 60bd 5110 c7bd b2cb d3be 072f 62be
000000e0: c03b 80be edac a6bd ade0 8abe 4dd2 4b3e
000000f0: b5cd d6be faa6 dfbe eb81 8e3e 68e1 ab3e
00000100: 5453 bcbe c800 043f eb94 d93e f770 a03e
00000110: 6406 3f3e 9587 62bd 64ac 0dbe 5463 adbe
00000120: 5190 dbbe a020 c7bd 863b 693d b634 1e3e
00000130: 4a21 483d 9eb9 ff3d 792b 953e a8fb fcbd
00000140: 2b77 103b 347d debc 53ed 003c f3d4 59bb
00000150: 8d3d 413c 888b 8cbc 2ba6 623b 78a7 60bb
00000160: e675 5fbd 4ffd 053c 13c5 ebba 6c8a 0e3a
00000170: 1e71 9cbb 2003 103c 6df7 c03c da63 a43b
00000180: 14d7 93bb 72b1 f63c 69b8 b5bc 5262 00bd
00000190: 71e7 fd3e ee24 e13d 052a 803e 1900 a73d
000001a0: 0ea8 213d ca5f 013f d986 e0be 3564 d7bc
000001b0: 647a 2ebe d5c8 833b af88 1abe da18 74be
000001c0: f23d c0bc 99f6 37be be71 fbbd a160 d03e
000001d0: b109 50be e5a8 923e 1275 8f3c a286 f2bd
000001e0: 00a6 c4be caea b3bd 1c33 89be 2697 c6bd
000001f0: f4a1 fb3e d58c 333e 6012 67be 91ed d93e
00000200: 0c21 243f 1c22 b4be b1da c73e 7ada b2bc
00000210: c441 323e 2534 9e3d e9b7 9d3e 9d4b c3bb
00000220: 3571 75be d34f edbe b4b5 b8bd 3d65 3fbe
00000230: 51d3 afbe 71eb be3e 49d4 3cbe 5f4c 23bf
00000240: a3b4 b73d 75e4 d9be d8cf 9fbd 728b 0bbf
00000250: ca53 fbbe 3415 dabe b836 053f c0b7 143f
00000260: 175f 07bf 23e0 16be 676c 78bd 4331 113e
00000270: af5e e73e 9603 f33c 7e6e c23e ddc7 5cbe
00000280: 0820 1cbd c8b3 a8bb 759d 3d3d f1a5 643d
00000290: 2362 043b 6d19 41bd da45 683d f43f 5fbd
000002a0: e898 863d fc70 99bd 0f31 8f3b f1fc f5bb
000002b0: 81fb 353c e8ec e33c 4378 8e3d a09f 91bc
000002c0: 6e05 58bd a491 a03d 3fec 16bd b5e7 15bc
000002d0: 0b65 233f 7cc5 3c3e d2a2 37be 679e 403e
000002e0: da97 083e d05f 233d 12c2 293e 4ef9 d13d
000002f0: d5bd 73be 7ded d83e 2e7e bdbd f228 043f
00000300: 2d3c a93e 025c acbe 34e1 2f3e 8885 c6be
00000310: 22f3 a23e 9f66 fc3d 8250 bbbb 5bd5 013d
-0.01691869 -0.0069938973 -0.008969666 -0.0067219427 -0.009123443 -0.009635526 0.021196255 -0.022181494
-0.0063738874 0.022604063 -0.021099003 0.0026675737 -0.017234895 0.015811555 -0.01005319 0.009422624
-0.017252155 0.01658367 -0.010322648 8.684879e-05 0.034788735 -0.32333145 -0.30295178 -0.3429891
-0.5538815 -0.33023292 0.063351 -0.57028484 -0.063937314 0.22650148 -0.5799556 -0.4842321
0.4809656 0.49856076 0.10706069 -0.12769003 -0.18957455 -0.0552489 -0.4410231 0.41446018
0.7599143 0.38268775 0.53924596 0.4694815 0.19042781 -0.42149368 -0.2588329 0.24931192
0.20648299 0.29701838 0.16506967 0.037572596 -0.054923803 -0.09719909 -0.41366345 -0.22088252
-0.25045586 -0.08138452 -0.2712454 0.19904442 -0.41953817 -0.4368208 0.27833495 0.3357041
-0.36782324 0.5156369 0.42496428 0.31336185 0.18654782 -0.055305082 -0.13835293 -0.33864844
-0.42883542 -0.097230196 0.05694153 0.15449795 0.048859872 0.124865755 0.2913473 -0.12352687
0.0022043686 -0.02715931 0.0078690825 -0.00332385 0.01179446 -0.017156377 0.0034583907 -0.0034279507
-0.054555796 0.008178069 -0.001798781 0.00054374966 -0.004774227 0.008789808 0.023555482 0.005016786
-0.0045117233 0.03011391 -0.02218266 -0.031343766 0.49590638 0.10993372 0.25032058 0.081543155
0.03946691 0.5053679 -0.4385288 -0.0262929 -0.17038876 0.004021744 -0.15091203 -0.23837605
-0.023467038 -0.17965163 -0.12277554 0.40698722 -0.20316197 0.2864448 0.017511878 -0.118420854
-0.38407898 -0.08785017 -0.26796806 -0.09696798 0.49146998 0.17534192 -0.22565603 0.4256406
0.64112926 -0.35182273 0.39034036 -0.021832693 0.174079 0.077247895 0.30804375 -0.0059599415
-0.23968966 -0.46349964 -0.09019032 -0.18690963 -0.3434091 0.37289003 -0.18440355 -0.6378841
0.089700006 -0.4255711 -0.07803315 -0.5450965 -0.49087363 -0.42594302 0.5203662 0.5809288
-0.5287947 -0.14733939 -0.060650256 0.14178948 0.45189425 0.029664796 0.37974924 -0.21560617
-0.038116485 -0.0051483847 0.04629274 0.055822317 0.0020200096 -0.04714339 0.05670724 -0.05450435
0.06572133 -0.07492253 0.004369862 -0.0075069596 0.0111073265 0.027822927 0.06956532 -0.01777631
-0.052739553 0.07840279 -0.036846396 -0.009149482 0.63826054 0.1843471 -0.17933205 0.18810426
0.13339177 0.039886296 0.16577938 0.10252629 -0.23802884 0.4236869 -0.092525825 0.5162498
0.33053723 -0.33663946 0.17175752 -0.3877375 0.3182612 0.12324261 -0.0057163844 0.031697612

bias f4 [10]
00000000: 81fc 13be 54bd 263f 4cc0 a23f e498 753f
00000010: 343d 9fbd 5b6c 3b3f 7cf3 433f fc8d 9d3f
00000020: 990e bfbe 6458 8e3f
-0.14451791 0.6513264 1.2714934 0.9593642 -0.077753454 0.7321221 0.765434 1.2308955
-0.37315825 1.1120725

weight f4 [1, 10]
00000000: 6578 a13d 38de 59bf 392a 37bf 5cc2 7cbf
00000010: cab9 b63d e9bb 02bf 5ae6 7dbf ebd2 41bf
00000020: a72b f43d 3ec1 2fbf
0.078842916 -0.85104704 -0.715488 -0.9873407 0.08922155 -0.5106798 -0.99179614 -0.7571246
0.119223885 -0.6865424
